func.func @graph(%arg0: !torch.float, %arg1: !torch.int, %arg2: !torch.vtensor<[],f64>, %arg3: !torch.float, %arg4: !torch.int, %arg5: !torch.vtensor<[2,512],si64>, %arg6: !torch.vtensor<[32],f32>, %arg7: !torch.vtensor<[32],f32>, %arg8: !torch.int, %arg9: !torch.vtensor<[1,512],si64>, %arg10: !torch.vtensor<[512,32],f32>, %arg11: !torch.int, %arg12: !torch.vtensor<[2,512],si64>, %arg13: !torch.vtensor<[2,32],f32>, %arg14: !torch.vtensor<[28996,32],f32>, %arg15: !torch.int, %arg16: !torch.vtensor<[32,32],f32>, %arg17: !torch.int, %arg18: !torch.int, %arg19: !torch.vtensor<[32,32],f32>, %arg20: !torch.vtensor<[32],f32>, %arg21: !torch.vtensor<[],f64>, %arg22: !torch.int, %arg23: !torch.vtensor<[],f64>, %arg24: !torch.int, %arg25: !torch.float, %arg26: !torch.vtensor<[2,512],si64>, %arg27: !torch.int, %arg28: !torch.int, %arg29: !torch.vtensor<[32],f32>, %arg30: !torch.int, %arg31: !torch.int, %arg32: !torch.vtensor<[32,32],f32>, %arg33: !torch.vtensor<[32],f32>, %arg34: !torch.vtensor<[32,32],f32>, %arg35: !torch.vtensor<[32],f32>, %arg36: !torch.vtensor<[32],f32>, %arg37: !torch.int, %arg38: !torch.int, %arg39: !torch.int, %arg40: !torch.vtensor<[32],f32>, %arg41: !torch.int, %arg42: !torch.vtensor<[32,32],f32>, %arg43: !torch.int, %arg44: !torch.int, %arg45: !torch.vtensor<[32],f32>, %arg46: !torch.vtensor<[32,32],f32>, %arg47: !torch.vtensor<[32],f32>, %arg48: !torch.vtensor<[32],f32>, %arg49: !torch.int, %arg50: !torch.int, %arg51: !torch.int, %arg52: !torch.vtensor<[32],f32>, %arg53: !torch.vtensor<[2,512,32],f32>, %arg54: !torch.int, %arg55: !torch.int, %arg56: !torch.vtensor<[28996,32],f32>, %arg57: !torch.vtensor<[],f64>, %arg58: !torch.vtensor<[28996,32],f32>, %arg59: !torch.float, %arg60: !torch.vtensor<[],f64>, %arg61: !torch.vtensor<[28996,32],f32>, %arg62: !torch.float, %arg63: !torch.int, %arg64: !torch.float, %arg65: !torch.int, %arg66: !torch.vtensor<[512,32],f32>, %arg67: !torch.vtensor<[512,32],f32>, %arg68: !torch.float, %arg69: !torch.vtensor<[512,32],f32>, %arg70: !torch.float, %arg71: !torch.int, %arg72: !torch.float, %arg73: !torch.int, %arg74: !torch.vtensor<[2,32],f32>, %arg75: !torch.vtensor<[2,32],f32>, %arg76: !torch.float, %arg77: !torch.vtensor<[2,32],f32>, %arg78: !torch.float, %arg79: !torch.int, %arg80: !torch.float, %arg81: !torch.int, %arg82: !torch.vtensor<[32],f32>, %arg83: !torch.vtensor<[32],f32>, %arg84: !torch.float, %arg85: !torch.vtensor<[32],f32>, %arg86: !torch.float, %arg87: !torch.int, %arg88: !torch.float, %arg89: !torch.int, %arg90: !torch.vtensor<[32],f32>, %arg91: !torch.vtensor<[32],f32>, %arg92: !torch.float, %arg93: !torch.vtensor<[32],f32>, %arg94: !torch.float, %arg95: !torch.int, %arg96: !torch.float, %arg97: !torch.int, %arg98: !torch.vtensor<[32,32],f32>, %arg99: !torch.vtensor<[32,32],f32>, %arg100: !torch.float, %arg101: !torch.vtensor<[32,32],f32>, %arg102: !torch.float, %arg103: !torch.int, %arg104: !torch.float, %arg105: !torch.int, %arg106: !torch.vtensor<[32],f32>, %arg107: !torch.vtensor<[32],f32>, %arg108: !torch.float, %arg109: !torch.vtensor<[32],f32>, %arg110: !torch.float, %arg111: !torch.int, %arg112: !torch.float, %arg113: !torch.int, %arg114: !torch.vtensor<[32,32],f32>, %arg115: !torch.vtensor<[32,32],f32>, %arg116: !torch.float, %arg117: !torch.vtensor<[32,32],f32>, %arg118: !torch.float, %arg119: !torch.int, %arg120: !torch.float, %arg121: !torch.int, %arg122: !torch.vtensor<[32],f32>, %arg123: !torch.vtensor<[32],f32>, %arg124: !torch.float, %arg125: !torch.vtensor<[32],f32>, %arg126: !torch.float, %arg127: !torch.int, %arg128: !torch.float, %arg129: !torch.int, %arg130: !torch.vtensor<[32,32],f32>, %arg131: !torch.vtensor<[32,32],f32>, %arg132: !torch.float, %arg133: !torch.vtensor<[32,32],f32>, %arg134: !torch.float, %arg135: !torch.int, %arg136: !torch.float, %arg137: !torch.int, %arg138: !torch.vtensor<[32],f32>, %arg139: !torch.vtensor<[32],f32>, %arg140: !torch.float, %arg141: !torch.vtensor<[32],f32>, %arg142: !torch.float, %arg143: !torch.int, %arg144: !torch.float, %arg145: !torch.int, %arg146: !torch.vtensor<[32,32],f32>, %arg147: !torch.vtensor<[32,32],f32>, %arg148: !torch.float, %arg149: !torch.vtensor<[32,32],f32>, %arg150: !torch.float, %arg151: !torch.int, %arg152: !torch.float, %arg153: !torch.int, %arg154: !torch.vtensor<[32],f32>, %arg155: !torch.vtensor<[32],f32>, %arg156: !torch.float, %arg157: !torch.vtensor<[32],f32>, %arg158: !torch.float, %arg159: !torch.int, %arg160: !torch.float, %arg161: !torch.int, %arg162: !torch.vtensor<[32],f32>, %arg163: !torch.vtensor<[32],f32>, %arg164: !torch.float, %arg165: !torch.vtensor<[32],f32>, %arg166: !torch.float, %arg167: !torch.int, %arg168: !torch.float, %arg169: !torch.int, %arg170: !torch.vtensor<[32],f32>, %arg171: !torch.vtensor<[32],f32>, %arg172: !torch.float, %arg173: !torch.vtensor<[32],f32>, %arg174: !torch.float, %arg175: !torch.int, %arg176: !torch.float, %arg177: !torch.int, %arg178: !torch.vtensor<[32,32],f32>, %arg179: !torch.vtensor<[32,32],f32>, %arg180: !torch.float, %arg181: !torch.vtensor<[32,32],f32>, %arg182: !torch.float, %arg183: !torch.int, %arg184: !torch.float, %arg185: !torch.int, %arg186: !torch.vtensor<[32],f32>, %arg187: !torch.vtensor<[32],f32>, %arg188: !torch.float, %arg189: !torch.vtensor<[32],f32>, %arg190: !torch.float, %arg191: !torch.int, %arg192: !torch.float, %arg193: !torch.int, %arg194: !torch.vtensor<[32,32],f32>, %arg195: !torch.vtensor<[32,32],f32>, %arg196: !torch.float, %arg197: !torch.vtensor<[32,32],f32>, %arg198: !torch.float, %arg199: !torch.int, %arg200: !torch.float, %arg201: !torch.int, %arg202: !torch.vtensor<[32],f32>, %arg203: !torch.vtensor<[32],f32>, %arg204: !torch.float, %arg205: !torch.vtensor<[32],f32>, %arg206: !torch.float, %arg207: !torch.int, %arg208: !torch.float, %arg209: !torch.int, %arg210: !torch.vtensor<[32],f32>, %arg211: !torch.vtensor<[32],f32>, %arg212: !torch.float, %arg213: !torch.vtensor<[32],f32>, %arg214: !torch.float, %arg215: !torch.int, %arg216: !torch.float, %arg217: !torch.int, %arg218: !torch.vtensor<[32],f32>, %arg219: !torch.vtensor<[32],f32>, %arg220: !torch.float, %arg221: !torch.vtensor<[32],f32>, %arg222: !torch.float, %arg223: !torch.int, %arg224: !torch.float, %arg225: !torch.int, %arg226: !torch.int, %arg227: !torch.int, %arg228: !torch.vtensor<[32,32],f32>, %arg229: !torch.vtensor<[32],f32>, %arg230: !torch.vtensor<[2,32],f32>, %arg231: !torch.int, %arg232: !torch.int, %arg233: !torch.vtensor<[2],f32>, %arg234: !torch.vtensor<[2],si64>, %arg235: !torch.vtensor<[],f32>, %arg236: !torch.vtensor<[32,32],f32>, %arg237: !torch.vtensor<[32,32],f32>, %arg238: !torch.float, %arg239: !torch.vtensor<[32,32],f32>, %arg240: !torch.float, %arg241: !torch.int, %arg242: !torch.float, %arg243: !torch.int, %arg244: !torch.vtensor<[32],f32>, %arg245: !torch.vtensor<[32],f32>, %arg246: !torch.float, %arg247: !torch.vtensor<[32],f32>, %arg248: !torch.float, %arg249: !torch.int, %arg250: !torch.float, %arg251: !torch.int, %arg252: !torch.vtensor<[2,32],f32>, %arg253: !torch.vtensor<[2,32],f32>, %arg254: !torch.float, %arg255: !torch.vtensor<[2,32],f32>, %arg256: !torch.float, %arg257: !torch.int, %arg258: !torch.float, %arg259: !torch.int, %arg260: !torch.vtensor<[2],f32>, %arg261: !torch.vtensor<[2],f32>, %arg262: !torch.float, %arg263: !torch.vtensor<[2],f32>) -> (!torch.vtensor<[28996,32],f32>, !torch.vtensor<[512,32],f32>, !torch.vtensor<[2,32],f32>, !torch.vtensor<[32],f32>, !torch.vtensor<[32],f32>, !torch.vtensor<[32,32],f32>, !torch.vtensor<[32],f32>, !torch.vtensor<[32,32],f32>, !torch.vtensor<[32],f32>, !torch.vtensor<[32,32],f32>, !torch.vtensor<[32],f32>, !torch.vtensor<[32,32],f32>, !torch.vtensor<[32],f32>, !torch.vtensor<[32],f32>, !torch.vtensor<[32],f32>, !torch.vtensor<[32,32],f32>, !torch.vtensor<[32],f32>, !torch.vtensor<[32,32],f32>, !torch.vtensor<[32],f32>, !torch.vtensor<[32],f32>, !torch.vtensor<[32],f32>, !torch.vtensor<[32,32],f32>, !torch.vtensor<[32],f32>, !torch.vtensor<[2,32],f32>, !torch.vtensor<[2],f32>, !torch.vtensor<[2],f32>, !torch.vtensor<[2,32],f32>, !torch.vtensor<[32],f32>, !torch.vtensor<[32,32],f32>, !torch.vtensor<[32],f32>, !torch.vtensor<[32],f32>, !torch.vtensor<[32],f32>, !torch.vtensor<[32,32],f32>, !torch.vtensor<[32],f32>, !torch.vtensor<[32,32],f32>, !torch.vtensor<[32],f32>, !torch.vtensor<[32],f32>, !torch.vtensor<[32],f32>, !torch.vtensor<[32,32],f32>, !torch.vtensor<[32],f32>, !torch.vtensor<[32,32],f32>, !torch.vtensor<[32],f32>, !torch.vtensor<[32,32],f32>, !torch.vtensor<[32],f32>, !torch.vtensor<[32,32],f32>, !torch.vtensor<[32],f32>, !torch.vtensor<[32],f32>, !torch.vtensor<[512,32],f32>, !torch.vtensor<[2,32],f32>, !torch.vtensor<[28996,32],f32>, !torch.vtensor<[28996,32],f32>, !torch.vtensor<[28996,32],f32>, !torch.vtensor<[512,32],f32>, !torch.vtensor<[512,32],f32>, !torch.vtensor<[2,32],f32>, !torch.vtensor<[2,32],f32>, !torch.vtensor<[32],f32>, !torch.vtensor<[32],f32>, !torch.vtensor<[32],f32>, !torch.vtensor<[32],f32>, !torch.vtensor<[32,32],f32>, !torch.vtensor<[32,32],f32>, !torch.vtensor<[32],f32>, !torch.vtensor<[32],f32>, !torch.vtensor<[32,32],f32>, !torch.vtensor<[32,32],f32>, !torch.vtensor<[32],f32>, !torch.vtensor<[32],f32>, !torch.vtensor<[32,32],f32>, !torch.vtensor<[32,32],f32>, !torch.vtensor<[32],f32>, !torch.vtensor<[32],f32>, !torch.vtensor<[32,32],f32>, !torch.vtensor<[32,32],f32>, !torch.vtensor<[32],f32>, !torch.vtensor<[32],f32>, !torch.vtensor<[32],f32>, !torch.vtensor<[32],f32>, !torch.vtensor<[32],f32>, !torch.vtensor<[32],f32>, !torch.vtensor<[32,32],f32>, !torch.vtensor<[32,32],f32>, !torch.vtensor<[32],f32>, !torch.vtensor<[32],f32>, !torch.vtensor<[32,32],f32>, !torch.vtensor<[32,32],f32>, !torch.vtensor<[32],f32>, !torch.vtensor<[32],f32>, !torch.vtensor<[32],f32>, !torch.vtensor<[32],f32>, !torch.vtensor<[32],f32>, !torch.vtensor<[32],f32>, !torch.vtensor<[32,32],f32>, !torch.vtensor<[32,32],f32>, !torch.vtensor<[32],f32>, !torch.vtensor<[32],f32>, !torch.vtensor<[2,32],f32>, !torch.vtensor<[2,32],f32>, !torch.vtensor<[2],f32>, !torch.vtensor<[2],f32>, !torch.vtensor<[2],si64>, !torch.vtensor<[2,512],si64>, !torch.vtensor<[2,512],si64>, !torch.vtensor<[2,512],si64>, !torch.vtensor<[2,2],f32>, !torch.vtensor<[],f32>) {
  %int0 = torch.constant.int 0
  %int0_0 = torch.constant.int 0
  %int9223372036854775807 = torch.constant.int 9223372036854775807
  %int1 = torch.constant.int 1
  %0 = torch.aten.slice.Tensor %arg9, %int0, %int0_0, %int9223372036854775807, %int1 : !torch.vtensor<[1,512],si64>, !torch.int, !torch.int, !torch.int, !torch.int -> !torch.vtensor<[1,512],si64>
  %int-1 = torch.constant.int -1
  %false = torch.constant.bool false
  %false_1 = torch.constant.bool false
  %1 = torch.aten.embedding %arg10, %0, %int-1, %false, %false_1 : !torch.vtensor<[512,32],f32>, !torch.vtensor<[1,512],si64>, !torch.int, !torch.bool, !torch.bool -> !torch.vtensor<[1,512,32],f32>
  %int-1_2 = torch.constant.int -1
  %false_3 = torch.constant.bool false
  %false_4 = torch.constant.bool false
  %2 = torch.aten.embedding %arg13, %arg12, %int-1_2, %false_3, %false_4 : !torch.vtensor<[2,32],f32>, !torch.vtensor<[2,512],si64>, !torch.int, !torch.bool, !torch.bool -> !torch.vtensor<[2,512,32],f32>
  %int0_5 = torch.constant.int 0
  %false_6 = torch.constant.bool false
  %false_7 = torch.constant.bool false
  %3 = torch.aten.embedding %arg14, %arg5, %int0_5, %false_6, %false_7 : !torch.vtensor<[28996,32],f32>, !torch.vtensor<[2,512],si64>, !torch.int, !torch.bool, !torch.bool -> !torch.vtensor<[2,512,32],f32>
  %4 = torch.aten.add.Tensor %3, %2, %arg11 : !torch.vtensor<[2,512,32],f32>, !torch.vtensor<[2,512,32],f32>, !torch.int -> !torch.vtensor<[2,512,32],f32>
  %5 = torch.aten.add.Tensor %4, %1, %arg8 : !torch.vtensor<[2,512,32],f32>, !torch.vtensor<[1,512,32],f32>, !torch.int -> !torch.vtensor<[2,512,32],f32>
  %int32 = torch.constant.int 32
  %6 = torch.prim.ListConstruct %int32 : (!torch.int) -> !torch.list<int>
  %float1.000000e-05 = torch.constant.float 1.000000e-05
  %result0, %result1, %result2 = torch.aten.native_layer_norm %5, %6, %arg7, %arg6, %float1.000000e-05 : !torch.vtensor<[2,512,32],f32>, !torch.list<int>, !torch.vtensor<[32],f32>, !torch.vtensor<[32],f32>, !torch.float -> !torch.vtensor<[2,512,32],f32>, !torch.vtensor<[2,512,1],f32>, !torch.vtensor<[2,512,1],f32>
  %7 = torch.prim.TupleConstruct %result0, %result1, %result2 : !torch.vtensor<[2,512,32],f32>, !torch.vtensor<[2,512,1],f32>, !torch.vtensor<[2,512,1],f32> -> !torch.tuple<vtensor<[2,512,32],f32>, vtensor<[2,512,1],f32>, vtensor<[2,512,1],f32>>
  %int1_8 = torch.constant.int 1
  %int0_9 = torch.constant.int 0
  %8 = torch.prim.ListConstruct %int1_8, %int0_9 : (!torch.int, !torch.int) -> !torch.list<int>
  %int1_10 = torch.constant.int 1
  %int0_11 = torch.constant.int 0
  %9 = torch.prim.ListConstruct %int1_10, %int0_11 : (!torch.int, !torch.int) -> !torch.list<int>
  %10 = torch.aten.permute %arg16, %9 : !torch.vtensor<[32,32],f32>, !torch.list<int> -> !torch.vtensor<[32,32],f32>
  %int1_12 = torch.constant.int 1
  %int0_13 = torch.constant.int 0
  %11 = torch.prim.ListConstruct %int1_12, %int0_13 : (!torch.int, !torch.int) -> !torch.list<int>
  %int1_14 = torch.constant.int 1
  %int0_15 = torch.constant.int 0
  %12 = torch.prim.ListConstruct %int1_14, %int0_15 : (!torch.int, !torch.int) -> !torch.list<int>
  %13 = torch.aten.permute %10, %12 : !torch.vtensor<[32,32],f32>, !torch.list<int> -> !torch.vtensor<[32,32],f32>
  %int1_16 = torch.constant.int 1
  %int0_17 = torch.constant.int 0
  %14 = torch.prim.ListConstruct %int1_16, %int0_17 : (!torch.int, !torch.int) -> !torch.list<int>
  %int1_18 = torch.constant.int 1
  %int0_19 = torch.constant.int 0
  %15 = torch.prim.ListConstruct %int1_18, %int0_19 : (!torch.int, !torch.int) -> !torch.list<int>
  %16 = torch.aten.permute %arg19, %15 : !torch.vtensor<[32,32],f32>, !torch.list<int> -> !torch.vtensor<[32,32],f32>
  %int1024 = torch.constant.int 1024
  %int32_20 = torch.constant.int 32
  %17 = torch.prim.ListConstruct %int1024, %int32_20 : (!torch.int, !torch.int) -> !torch.list<int>
  %int1024_21 = torch.constant.int 1024
  %int32_22 = torch.constant.int 32
  %18 = torch.prim.ListConstruct %int1024_21, %int32_22 : (!torch.int, !torch.int) -> !torch.list<int>
  %19 = torch.aten.reshape %result0, %18 : !torch.vtensor<[2,512,32],f32>, !torch.list<int> -> !torch.vtensor<[1024,32],f32>
  %20 = torch.aten.addmm %arg20, %19, %16, %arg18, %arg17 : !torch.vtensor<[32],f32>, !torch.vtensor<[1024,32],f32>, !torch.vtensor<[32,32],f32>, !torch.int, !torch.int -> !torch.vtensor<[1024,32],f32>
  %int2 = torch.constant.int 2
  %int512 = torch.constant.int 512
  %int32_23 = torch.constant.int 32
  %21 = torch.prim.ListConstruct %int2, %int512, %int32_23 : (!torch.int, !torch.int, !torch.int) -> !torch.list<int>
  %int2_24 = torch.constant.int 2
  %int512_25 = torch.constant.int 512
  %int32_26 = torch.constant.int 32
  %22 = torch.prim.ListConstruct %int2_24, %int512_25, %int32_26 : (!torch.int, !torch.int, !torch.int) -> !torch.list<int>
  %23 = torch.aten.reshape %20, %22 : !torch.vtensor<[1024,32],f32>, !torch.list<int> -> !torch.vtensor<[2,512,32],f32>
  %int2_27 = torch.constant.int 2
  %int512_28 = torch.constant.int 512
  %int16 = torch.constant.int 16
  %24 = torch.prim.ListConstruct %int2_27, %int512_28, %int2_27, %int16 : (!torch.int, !torch.int, !torch.int, !torch.int) -> !torch.list<int>
  %int2_29 = torch.constant.int 2
  %int512_30 = torch.constant.int 512
  %int16_31 = torch.constant.int 16
  %25 = torch.prim.ListConstruct %int2_29, %int512_30, %int2_29, %int16_31 : (!torch.int, !torch.int, !torch.int, !torch.int) -> !torch.list<int>
  %26 = torch.aten.reshape %23, %25 : !torch.vtensor<[2,512,32],f32>, !torch.list<int> -> !torch.vtensor<[2,512,2,16],f32>
  %int0_32 = torch.constant.int 0
  %int2_33 = torch.constant.int 2
  %int1_34 = torch.constant.int 1
  %int3 = torch.constant.int 3
  %27 = torch.prim.ListConstruct %int0_32, %int2_33, %int1_34, %int3 : (!torch.int, !torch.int, !torch.int, !torch.int) -> !torch.list<int>
  %int0_35 = torch.constant.int 0
  %int2_36 = torch.constant.int 2
  %int1_37 = torch.constant.int 1
  %int3_38 = torch.constant.int 3
  %28 = torch.prim.ListConstruct %int0_35, %int2_36, %int1_37, %int3_38 : (!torch.int, !torch.int, !torch.int, !torch.int) -> !torch.list<int>
  %29 = torch.aten.permute %26, %28 : !torch.vtensor<[2,512,2,16],f32>, !torch.list<int> -> !torch.vtensor<[2,2,512,16],f32>
  %int-1_39 = torch.constant.int -1
  %int-2 = torch.constant.int -2
  %30 = torch.aten.transpose.int %29, %int-1_39, %int-2 : !torch.vtensor<[2,2,512,16],f32>, !torch.int, !torch.int -> !torch.vtensor<[2,2,16,512],f32>
  %int2_40 = torch.constant.int 2
  %int16_41 = torch.constant.int 16
  %int512_42 = torch.constant.int 512
  %31 = torch.prim.ListConstruct %int2_40, %int2_40, %int16_41, %int512_42 : (!torch.int, !torch.int, !torch.int, !torch.int) -> !torch.list<int>
  %false_43 = torch.constant.bool false
  %32 = torch.aten.expand %30, %31, %false_43 : !torch.vtensor<[2,2,16,512],f32>, !torch.list<int>, !torch.bool -> !torch.vtensor<[2,2,16,512],f32>
  %int4 = torch.constant.int 4
  %int16_44 = torch.constant.int 16
  %int512_45 = torch.constant.int 512
  %33 = torch.prim.ListConstruct %int4, %int16_44, %int512_45 : (!torch.int, !torch.int, !torch.int) -> !torch.list<int>
  %int4_46 = torch.constant.int 4
  %int16_47 = torch.constant.int 16
  %int512_48 = torch.constant.int 512
  %34 = torch.prim.ListConstruct %int4_46, %int16_47, %int512_48 : (!torch.int, !torch.int, !torch.int) -> !torch.list<int>
  %35 = torch.aten.reshape %32, %34 : !torch.vtensor<[2,2,16,512],f32>, !torch.list<int> -> !torch.vtensor<[4,16,512],f32>
  %int1_49 = torch.constant.int 1
  %int2_50 = torch.constant.int 2
  %36 = torch.aten.transpose.int %35, %int1_49, %int2_50 : !torch.vtensor<[4,16,512],f32>, !torch.int, !torch.int -> !torch.vtensor<[4,512,16],f32>
  %int0_51 = torch.constant.int 0
  %int0_52 = torch.constant.int 0
  %int9223372036854775807_53 = torch.constant.int 9223372036854775807
  %int1_54 = torch.constant.int 1
  %37 = torch.aten.slice.Tensor %arg26, %int0_51, %int0_52, %int9223372036854775807_53, %int1_54 : !torch.vtensor<[2,512],si64>, !torch.int, !torch.int, !torch.int, !torch.int -> !torch.vtensor<[2,512],si64>
  %int2_55 = torch.constant.int 2
  %int1_56 = torch.constant.int 1
  %int512_57 = torch.constant.int 512
  %38 = torch.prim.ListConstruct %int2_55, %int1_56, %int512_57 : (!torch.int, !torch.int, !torch.int) -> !torch.list<int>
  %int2_58 = torch.constant.int 2
  %int1_59 = torch.constant.int 1
  %int512_60 = torch.constant.int 512
  %39 = torch.prim.ListConstruct %int2_58, %int1_59, %int512_60 : (!torch.int, !torch.int, !torch.int) -> !torch.list<int>
  %40 = torch.aten.reshape %37, %39 : !torch.vtensor<[2,512],si64>, !torch.list<int> -> !torch.vtensor<[2,1,512],si64>
  %int2_61 = torch.constant.int 2
  %int1_62 = torch.constant.int 1
  %int512_63 = torch.constant.int 512
  %41 = torch.prim.ListConstruct %int2_61, %int1_62, %int1_62, %int512_63 : (!torch.int, !torch.int, !torch.int, !torch.int) -> !torch.list<int>
  %int2_64 = torch.constant.int 2
  %int1_65 = torch.constant.int 1
  %int512_66 = torch.constant.int 512
  %42 = torch.prim.ListConstruct %int2_64, %int1_65, %int1_65, %int512_66 : (!torch.int, !torch.int, !torch.int, !torch.int) -> !torch.list<int>
  %43 = torch.aten.reshape %40, %42 : !torch.vtensor<[2,1,512],si64>, !torch.list<int> -> !torch.vtensor<[2,1,1,512],si64>
  %int3_67 = torch.constant.int 3
  %int0_68 = torch.constant.int 0
  %int9223372036854775807_69 = torch.constant.int 9223372036854775807
  %int1_70 = torch.constant.int 1
  %44 = torch.aten.slice.Tensor %43, %int3_67, %int0_68, %int9223372036854775807_69, %int1_70 : !torch.vtensor<[2,1,1,512],si64>, !torch.int, !torch.int, !torch.int, !torch.int -> !torch.vtensor<[2,1,1,512],si64>
  %int6 = torch.constant.int 6
  %none = torch.constant.none
  %none_71 = torch.constant.none
  %none_72 = torch.constant.none
  %false_73 = torch.constant.bool false
  %none_74 = torch.constant.none
  %45 = torch.aten._to_copy %44, %int6, %none, %none_71, %none_72, %false_73, %none_74 : !torch.vtensor<[2,1,1,512],si64>, !torch.int, !torch.none, !torch.none, !torch.none, !torch.bool, !torch.none -> !torch.vtensor<[2,1,1,512],f32>
  %46 = torch.aten.rsub.Scalar %45, %arg25, %arg24 : !torch.vtensor<[2,1,1,512],f32>, !torch.float, !torch.int -> !torch.vtensor<[2,1,1,512],f32>
  %47 = torch.aten.mul.Tensor %46, %arg23 : !torch.vtensor<[2,1,1,512],f32>, !torch.vtensor<[],f64> -> !torch.vtensor<[2,1,1,512],f32>
  %int1_75 = torch.constant.int 1
  %int0_76 = torch.constant.int 0
  %48 = torch.prim.ListConstruct %int1_75, %int0_76 : (!torch.int, !torch.int) -> !torch.list<int>
  %int1_77 = torch.constant.int 1
  %int0_78 = torch.constant.int 0
  %49 = torch.prim.ListConstruct %int1_77, %int0_78 : (!torch.int, !torch.int) -> !torch.list<int>
  %50 = torch.aten.permute %arg16, %49 : !torch.vtensor<[32,32],f32>, !torch.list<int> -> !torch.vtensor<[32,32],f32>
  %int1024_79 = torch.constant.int 1024
  %int32_80 = torch.constant.int 32
  %51 = torch.prim.ListConstruct %int1024_79, %int32_80 : (!torch.int, !torch.int) -> !torch.list<int>
  %int1024_81 = torch.constant.int 1024
  %int32_82 = torch.constant.int 32
  %52 = torch.prim.ListConstruct %int1024_81, %int32_82 : (!torch.int, !torch.int) -> !torch.list<int>
  %53 = torch.aten.reshape %result0, %52 : !torch.vtensor<[2,512,32],f32>, !torch.list<int> -> !torch.vtensor<[1024,32],f32>
  %54 = torch.aten.addmm %arg29, %53, %50, %arg28, %arg27 : !torch.vtensor<[32],f32>, !torch.vtensor<[1024,32],f32>, !torch.vtensor<[32,32],f32>, !torch.int, !torch.int -> !torch.vtensor<[1024,32],f32>
  %int2_83 = torch.constant.int 2
  %int512_84 = torch.constant.int 512
  %int32_85 = torch.constant.int 32
  %55 = torch.prim.ListConstruct %int2_83, %int512_84, %int32_85 : (!torch.int, !torch.int, !torch.int) -> !torch.list<int>
  %int2_86 = torch.constant.int 2
  %int512_87 = torch.constant.int 512
  %int32_88 = torch.constant.int 32
  %56 = torch.prim.ListConstruct %int2_86, %int512_87, %int32_88 : (!torch.int, !torch.int, !torch.int) -> !torch.list<int>
  %57 = torch.aten.reshape %54, %56 : !torch.vtensor<[1024,32],f32>, !torch.list<int> -> !torch.vtensor<[2,512,32],f32>
  %int2_89 = torch.constant.int 2
  %int512_90 = torch.constant.int 512
  %int16_91 = torch.constant.int 16
  %58 = torch.prim.ListConstruct %int2_89, %int512_90, %int2_89, %int16_91 : (!torch.int, !torch.int, !torch.int, !torch.int) -> !torch.list<int>
  %int2_92 = torch.constant.int 2
  %int512_93 = torch.constant.int 512
  %int16_94 = torch.constant.int 16
  %59 = torch.prim.ListConstruct %int2_92, %int512_93, %int2_92, %int16_94 : (!torch.int, !torch.int, !torch.int, !torch.int) -> !torch.list<int>
  %60 = torch.aten.reshape %57, %59 : !torch.vtensor<[2,512,32],f32>, !torch.list<int> -> !torch.vtensor<[2,512,2,16],f32>
  %int0_95 = torch.constant.int 0
  %int2_96 = torch.constant.int 2
  %int1_97 = torch.constant.int 1
  %int3_98 = torch.constant.int 3
  %61 = torch.prim.ListConstruct %int0_95, %int2_96, %int1_97, %int3_98 : (!torch.int, !torch.int, !torch.int, !torch.int) -> !torch.list<int>
  %int0_99 = torch.constant.int 0
  %int2_100 = torch.constant.int 2
  %int1_101 = torch.constant.int 1
  %int3_102 = torch.constant.int 3
  %62 = torch.prim.ListConstruct %int0_99, %int2_100, %int1_101, %int3_102 : (!torch.int, !torch.int, !torch.int, !torch.int) -> !torch.list<int>
  %63 = torch.aten.permute %60, %62 : !torch.vtensor<[2,512,2,16],f32>, !torch.list<int> -> !torch.vtensor<[2,2,512,16],f32>
  %int2_103 = torch.constant.int 2
  %int512_104 = torch.constant.int 512
  %int16_105 = torch.constant.int 16
  %64 = torch.prim.ListConstruct %int2_103, %int2_103, %int512_104, %int16_105 : (!torch.int, !torch.int, !torch.int, !torch.int) -> !torch.list<int>
  %false_106 = torch.constant.bool false
  %65 = torch.aten.expand %63, %64, %false_106 : !torch.vtensor<[2,2,512,16],f32>, !torch.list<int>, !torch.bool -> !torch.vtensor<[2,2,512,16],f32>
  %int4_107 = torch.constant.int 4
  %int512_108 = torch.constant.int 512
  %int16_109 = torch.constant.int 16
  %66 = torch.prim.ListConstruct %int4_107, %int512_108, %int16_109 : (!torch.int, !torch.int, !torch.int) -> !torch.list<int>
  %int4_110 = torch.constant.int 4
  %int512_111 = torch.constant.int 512
  %int16_112 = torch.constant.int 16
  %67 = torch.prim.ListConstruct %int4_110, %int512_111, %int16_112 : (!torch.int, !torch.int, !torch.int) -> !torch.list<int>
  %68 = torch.aten.reshape %65, %67 : !torch.vtensor<[2,2,512,16],f32>, !torch.list<int> -> !torch.vtensor<[4,512,16],f32>
  %69 = torch.aten.bmm %68, %35 : !torch.vtensor<[4,512,16],f32>, !torch.vtensor<[4,16,512],f32> -> !torch.vtensor<[4,512,512],f32>
  %int2_113 = torch.constant.int 2
  %int512_114 = torch.constant.int 512
  %70 = torch.prim.ListConstruct %int2_113, %int2_113, %int512_114, %int512_114 : (!torch.int, !torch.int, !torch.int, !torch.int) -> !torch.list<int>
  %int2_115 = torch.constant.int 2
  %int512_116 = torch.constant.int 512
  %71 = torch.prim.ListConstruct %int2_115, %int2_115, %int512_116, %int512_116 : (!torch.int, !torch.int, !torch.int, !torch.int) -> !torch.list<int>
  %72 = torch.aten._unsafe_view %69, %71 : !torch.vtensor<[4,512,512],f32>, !torch.list<int> -> !torch.vtensor<[2,2,512,512],f32>
  %73 = torch.aten.div.Tensor %72, %arg21 : !torch.vtensor<[2,2,512,512],f32>, !torch.vtensor<[],f64> -> !torch.vtensor<[2,2,512,512],f32>
  %74 = torch.aten.add.Tensor %73, %47, %arg22 : !torch.vtensor<[2,2,512,512],f32>, !torch.vtensor<[2,1,1,512],f32>, !torch.int -> !torch.vtensor<[2,2,512,512],f32>
  %int-1_117 = torch.constant.int -1
  %false_118 = torch.constant.bool false
  %75 = torch.aten._softmax %74, %int-1_117, %false_118 : !torch.vtensor<[2,2,512,512],f32>, !torch.int, !torch.bool -> !torch.vtensor<[2,2,512,512],f32>
  %int1_119 = torch.constant.int 1
  %int0_120 = torch.constant.int 0
  %76 = torch.prim.ListConstruct %int1_119, %int0_120 : (!torch.int, !torch.int) -> !torch.list<int>
  %int1_121 = torch.constant.int 1
  %int0_122 = torch.constant.int 0
  %77 = torch.prim.ListConstruct %int1_121, %int0_122 : (!torch.int, !torch.int) -> !torch.list<int>
  %78 = torch.aten.permute %arg32, %77 : !torch.vtensor<[32,32],f32>, !torch.list<int> -> !torch.vtensor<[32,32],f32>
  %int1024_123 = torch.constant.int 1024
  %int32_124 = torch.constant.int 32
  %79 = torch.prim.ListConstruct %int1024_123, %int32_124 : (!torch.int, !torch.int) -> !torch.list<int>
  %int1024_125 = torch.constant.int 1024
  %int32_126 = torch.constant.int 32
  %80 = torch.prim.ListConstruct %int1024_125, %int32_126 : (!torch.int, !torch.int) -> !torch.list<int>
  %81 = torch.aten.reshape %result0, %80 : !torch.vtensor<[2,512,32],f32>, !torch.list<int> -> !torch.vtensor<[1024,32],f32>
  %82 = torch.aten.addmm %arg33, %81, %78, %arg31, %arg30 : !torch.vtensor<[32],f32>, !torch.vtensor<[1024,32],f32>, !torch.vtensor<[32,32],f32>, !torch.int, !torch.int -> !torch.vtensor<[1024,32],f32>
  %int2_127 = torch.constant.int 2
  %int512_128 = torch.constant.int 512
  %int32_129 = torch.constant.int 32
  %83 = torch.prim.ListConstruct %int2_127, %int512_128, %int32_129 : (!torch.int, !torch.int, !torch.int) -> !torch.list<int>
  %int2_130 = torch.constant.int 2
  %int512_131 = torch.constant.int 512
  %int32_132 = torch.constant.int 32
  %84 = torch.prim.ListConstruct %int2_130, %int512_131, %int32_132 : (!torch.int, !torch.int, !torch.int) -> !torch.list<int>
  %85 = torch.aten.reshape %82, %84 : !torch.vtensor<[1024,32],f32>, !torch.list<int> -> !torch.vtensor<[2,512,32],f32>
  %int2_133 = torch.constant.int 2
  %int512_134 = torch.constant.int 512
  %int16_135 = torch.constant.int 16
  %86 = torch.prim.ListConstruct %int2_133, %int512_134, %int2_133, %int16_135 : (!torch.int, !torch.int, !torch.int, !torch.int) -> !torch.list<int>
  %int2_136 = torch.constant.int 2
  %int512_137 = torch.constant.int 512
  %int16_138 = torch.constant.int 16
  %87 = torch.prim.ListConstruct %int2_136, %int512_137, %int2_136, %int16_138 : (!torch.int, !torch.int, !torch.int, !torch.int) -> !torch.list<int>
  %88 = torch.aten.reshape %85, %87 : !torch.vtensor<[2,512,32],f32>, !torch.list<int> -> !torch.vtensor<[2,512,2,16],f32>
  %int0_139 = torch.constant.int 0
  %int2_140 = torch.constant.int 2
  %int1_141 = torch.constant.int 1
  %int3_142 = torch.constant.int 3
  %89 = torch.prim.ListConstruct %int0_139, %int2_140, %int1_141, %int3_142 : (!torch.int, !torch.int, !torch.int, !torch.int) -> !torch.list<int>
  %int0_143 = torch.constant.int 0
  %int2_144 = torch.constant.int 2
  %int1_145 = torch.constant.int 1
  %int3_146 = torch.constant.int 3
  %90 = torch.prim.ListConstruct %int0_143, %int2_144, %int1_145, %int3_146 : (!torch.int, !torch.int, !torch.int, !torch.int) -> !torch.list<int>
  %91 = torch.aten.permute %88, %90 : !torch.vtensor<[2,512,2,16],f32>, !torch.list<int> -> !torch.vtensor<[2,2,512,16],f32>
  %int2_147 = torch.constant.int 2
  %int512_148 = torch.constant.int 512
  %int16_149 = torch.constant.int 16
  %92 = torch.prim.ListConstruct %int2_147, %int2_147, %int512_148, %int16_149 : (!torch.int, !torch.int, !torch.int, !torch.int) -> !torch.list<int>
  %false_150 = torch.constant.bool false
  %93 = torch.aten.expand %91, %92, %false_150 : !torch.vtensor<[2,2,512,16],f32>, !torch.list<int>, !torch.bool -> !torch.vtensor<[2,2,512,16],f32>
  %int4_151 = torch.constant.int 4
  %int512_152 = torch.constant.int 512
  %int16_153 = torch.constant.int 16
  %94 = torch.prim.ListConstruct %int4_151, %int512_152, %int16_153 : (!torch.int, !torch.int, !torch.int) -> !torch.list<int>
  %int4_154 = torch.constant.int 4
  %int512_155 = torch.constant.int 512
  %int16_156 = torch.constant.int 16
  %95 = torch.prim.ListConstruct %int4_154, %int512_155, %int16_156 : (!torch.int, !torch.int, !torch.int) -> !torch.list<int>
  %96 = torch.aten.reshape %93, %95 : !torch.vtensor<[2,2,512,16],f32>, !torch.list<int> -> !torch.vtensor<[4,512,16],f32>
  %int1_157 = torch.constant.int 1
  %int2_158 = torch.constant.int 2
  %97 = torch.aten.transpose.int %96, %int1_157, %int2_158 : !torch.vtensor<[4,512,16],f32>, !torch.int, !torch.int -> !torch.vtensor<[4,16,512],f32>
  %int1_159 = torch.constant.int 1
  %int0_160 = torch.constant.int 0
  %98 = torch.prim.ListConstruct %int1_159, %int0_160 : (!torch.int, !torch.int) -> !torch.list<int>
  %int1_161 = torch.constant.int 1
  %int0_162 = torch.constant.int 0
  %99 = torch.prim.ListConstruct %int1_161, %int0_162 : (!torch.int, !torch.int) -> !torch.list<int>
  %100 = torch.aten.permute %arg34, %99 : !torch.vtensor<[32,32],f32>, !torch.list<int> -> !torch.vtensor<[32,32],f32>
  %int1_163 = torch.constant.int 1
  %int0_164 = torch.constant.int 0
  %101 = torch.prim.ListConstruct %int1_163, %int0_164 : (!torch.int, !torch.int) -> !torch.list<int>
  %int1_165 = torch.constant.int 1
  %int0_166 = torch.constant.int 0
  %102 = torch.prim.ListConstruct %int1_165, %int0_166 : (!torch.int, !torch.int) -> !torch.list<int>
  %103 = torch.aten.permute %100, %102 : !torch.vtensor<[32,32],f32>, !torch.list<int> -> !torch.vtensor<[32,32],f32>
  %int1_167 = torch.constant.int 1
  %int0_168 = torch.constant.int 0
  %104 = torch.prim.ListConstruct %int1_167, %int0_168 : (!torch.int, !torch.int) -> !torch.list<int>
  %int1_169 = torch.constant.int 1
  %int0_170 = torch.constant.int 0
  %105 = torch.prim.ListConstruct %int1_169, %int0_170 : (!torch.int, !torch.int) -> !torch.list<int>
  %106 = torch.aten.permute %arg34, %105 : !torch.vtensor<[32,32],f32>, !torch.list<int> -> !torch.vtensor<[32,32],f32>
  %int2_171 = torch.constant.int 2
  %int512_172 = torch.constant.int 512
  %107 = torch.prim.ListConstruct %int2_171, %int2_171, %int512_172, %int512_172 : (!torch.int, !torch.int, !torch.int, !torch.int) -> !torch.list<int>
  %false_173 = torch.constant.bool false
  %108 = torch.aten.expand %75, %107, %false_173 : !torch.vtensor<[2,2,512,512],f32>, !torch.list<int>, !torch.bool -> !torch.vtensor<[2,2,512,512],f32>
  %int4_174 = torch.constant.int 4
  %int512_175 = torch.constant.int 512
  %109 = torch.prim.ListConstruct %int4_174, %int512_175, %int512_175 : (!torch.int, !torch.int, !torch.int) -> !torch.list<int>
  %int4_176 = torch.constant.int 4
  %int512_177 = torch.constant.int 512
  %110 = torch.prim.ListConstruct %int4_176, %int512_177, %int512_177 : (!torch.int, !torch.int, !torch.int) -> !torch.list<int>
  %111 = torch.aten.reshape %108, %110 : !torch.vtensor<[2,2,512,512],f32>, !torch.list<int> -> !torch.vtensor<[4,512,512],f32>
  %112 = torch.aten.bmm %111, %96 : !torch.vtensor<[4,512,512],f32>, !torch.vtensor<[4,512,16],f32> -> !torch.vtensor<[4,512,16],f32>
  %int2_178 = torch.constant.int 2
  %int512_179 = torch.constant.int 512
  %int16_180 = torch.constant.int 16
  %113 = torch.prim.ListConstruct %int2_178, %int2_178, %int512_179, %int16_180 : (!torch.int, !torch.int, !torch.int, !torch.int) -> !torch.list<int>
  %int2_181 = torch.constant.int 2
  %int512_182 = torch.constant.int 512
  %int16_183 = torch.constant.int 16
  %114 = torch.prim.ListConstruct %int2_181, %int2_181, %int512_182, %int16_183 : (!torch.int, !torch.int, !torch.int, !torch.int) -> !torch.list<int>
  %115 = torch.aten._unsafe_view %112, %114 : !torch.vtensor<[4,512,16],f32>, !torch.list<int> -> !torch.vtensor<[2,2,512,16],f32>
  %int0_184 = torch.constant.int 0
  %int2_185 = torch.constant.int 2
  %int1_186 = torch.constant.int 1
  %int3_187 = torch.constant.int 3
  %116 = torch.prim.ListConstruct %int0_184, %int2_185, %int1_186, %int3_187 : (!torch.int, !torch.int, !torch.int, !torch.int) -> !torch.list<int>
  %int0_188 = torch.constant.int 0
  %int2_189 = torch.constant.int 2
  %int1_190 = torch.constant.int 1
  %int3_191 = torch.constant.int 3
  %117 = torch.prim.ListConstruct %int0_188, %int2_189, %int1_190, %int3_191 : (!torch.int, !torch.int, !torch.int, !torch.int) -> !torch.list<int>
  %118 = torch.aten.permute %115, %117 : !torch.vtensor<[2,2,512,16],f32>, !torch.list<int> -> !torch.vtensor<[2,512,2,16],f32>
  %int2_192 = torch.constant.int 2
  %int512_193 = torch.constant.int 512
  %int32_194 = torch.constant.int 32
  %119 = torch.prim.ListConstruct %int2_192, %int512_193, %int32_194 : (!torch.int, !torch.int, !torch.int) -> !torch.list<int>
  %int2_195 = torch.constant.int 2
  %int512_196 = torch.constant.int 512
  %int32_197 = torch.constant.int 32
  %120 = torch.prim.ListConstruct %int2_195, %int512_196, %int32_197 : (!torch.int, !torch.int, !torch.int) -> !torch.list<int>
  %121 = torch.aten.reshape %118, %120 : !torch.vtensor<[2,512,2,16],f32>, !torch.list<int> -> !torch.vtensor<[2,512,32],f32>
  %int1024_198 = torch.constant.int 1024
  %int32_199 = torch.constant.int 32
  %122 = torch.prim.ListConstruct %int1024_198, %int32_199 : (!torch.int, !torch.int) -> !torch.list<int>
  %int1024_200 = torch.constant.int 1024
  %int32_201 = torch.constant.int 32
  %123 = torch.prim.ListConstruct %int1024_200, %int32_201 : (!torch.int, !torch.int) -> !torch.list<int>
  %124 = torch.aten.reshape %121, %123 : !torch.vtensor<[2,512,32],f32>, !torch.list<int> -> !torch.vtensor<[1024,32],f32>
  %125 = torch.aten.addmm %arg40, %124, %106, %arg39, %arg38 : !torch.vtensor<[32],f32>, !torch.vtensor<[1024,32],f32>, !torch.vtensor<[32,32],f32>, !torch.int, !torch.int -> !torch.vtensor<[1024,32],f32>
  %int2_202 = torch.constant.int 2
  %int512_203 = torch.constant.int 512
  %int32_204 = torch.constant.int 32
  %126 = torch.prim.ListConstruct %int2_202, %int512_203, %int32_204 : (!torch.int, !torch.int, !torch.int) -> !torch.list<int>
  %int2_205 = torch.constant.int 2
  %int512_206 = torch.constant.int 512
  %int32_207 = torch.constant.int 32
  %127 = torch.prim.ListConstruct %int2_205, %int512_206, %int32_207 : (!torch.int, !torch.int, !torch.int) -> !torch.list<int>
  %128 = torch.aten.reshape %125, %127 : !torch.vtensor<[1024,32],f32>, !torch.list<int> -> !torch.vtensor<[2,512,32],f32>
  %129 = torch.aten.add.Tensor %128, %result0, %arg37 : !torch.vtensor<[2,512,32],f32>, !torch.vtensor<[2,512,32],f32>, !torch.int -> !torch.vtensor<[2,512,32],f32>
  %int32_208 = torch.constant.int 32
  %130 = torch.prim.ListConstruct %int32_208 : (!torch.int) -> !torch.list<int>
  %float1.000000e-05_209 = torch.constant.float 1.000000e-05
  %result0_210, %result1_211, %result2_212 = torch.aten.native_layer_norm %129, %130, %arg36, %arg35, %float1.000000e-05_209 : !torch.vtensor<[2,512,32],f32>, !torch.list<int>, !torch.vtensor<[32],f32>, !torch.vtensor<[32],f32>, !torch.float -> !torch.vtensor<[2,512,32],f32>, !torch.vtensor<[2,512,1],f32>, !torch.vtensor<[2,512,1],f32>
  %131 = torch.prim.TupleConstruct %result0_210, %result1_211, %result2_212 : !torch.vtensor<[2,512,32],f32>, !torch.vtensor<[2,512,1],f32>, !torch.vtensor<[2,512,1],f32> -> !torch.tuple<vtensor<[2,512,32],f32>, vtensor<[2,512,1],f32>, vtensor<[2,512,1],f32>>
  %int1_213 = torch.constant.int 1
  %int0_214 = torch.constant.int 0
  %132 = torch.prim.ListConstruct %int1_213, %int0_214 : (!torch.int, !torch.int) -> !torch.list<int>
  %int1_215 = torch.constant.int 1
  %int0_216 = torch.constant.int 0
  %133 = torch.prim.ListConstruct %int1_215, %int0_216 : (!torch.int, !torch.int) -> !torch.list<int>
  %134 = torch.aten.permute %arg42, %133 : !torch.vtensor<[32,32],f32>, !torch.list<int> -> !torch.vtensor<[32,32],f32>
  %int1_217 = torch.constant.int 1
  %int0_218 = torch.constant.int 0
  %135 = torch.prim.ListConstruct %int1_217, %int0_218 : (!torch.int, !torch.int) -> !torch.list<int>
  %int1_219 = torch.constant.int 1
  %int0_220 = torch.constant.int 0
  %136 = torch.prim.ListConstruct %int1_219, %int0_220 : (!torch.int, !torch.int) -> !torch.list<int>
  %137 = torch.aten.permute %134, %136 : !torch.vtensor<[32,32],f32>, !torch.list<int> -> !torch.vtensor<[32,32],f32>
  %int1_221 = torch.constant.int 1
  %int0_222 = torch.constant.int 0
  %138 = torch.prim.ListConstruct %int1_221, %int0_222 : (!torch.int, !torch.int) -> !torch.list<int>
  %int1_223 = torch.constant.int 1
  %int0_224 = torch.constant.int 0
  %139 = torch.prim.ListConstruct %int1_223, %int0_224 : (!torch.int, !torch.int) -> !torch.list<int>
  %140 = torch.aten.permute %arg42, %139 : !torch.vtensor<[32,32],f32>, !torch.list<int> -> !torch.vtensor<[32,32],f32>
  %int1024_225 = torch.constant.int 1024
  %int32_226 = torch.constant.int 32
  %141 = torch.prim.ListConstruct %int1024_225, %int32_226 : (!torch.int, !torch.int) -> !torch.list<int>
  %int1024_227 = torch.constant.int 1024
  %int32_228 = torch.constant.int 32
  %142 = torch.prim.ListConstruct %int1024_227, %int32_228 : (!torch.int, !torch.int) -> !torch.list<int>
  %143 = torch.aten.reshape %result0_210, %142 : !torch.vtensor<[2,512,32],f32>, !torch.list<int> -> !torch.vtensor<[1024,32],f32>
  %144 = torch.aten.addmm %arg45, %143, %140, %arg44, %arg43 : !torch.vtensor<[32],f32>, !torch.vtensor<[1024,32],f32>, !torch.vtensor<[32,32],f32>, !torch.int, !torch.int -> !torch.vtensor<[1024,32],f32>
  %int2_229 = torch.constant.int 2
  %int512_230 = torch.constant.int 512
  %int32_231 = torch.constant.int 32
  %145 = torch.prim.ListConstruct %int2_229, %int512_230, %int32_231 : (!torch.int, !torch.int, !torch.int) -> !torch.list<int>
  %int2_232 = torch.constant.int 2
  %int512_233 = torch.constant.int 512
  %int32_234 = torch.constant.int 32
  %146 = torch.prim.ListConstruct %int2_232, %int512_233, %int32_234 : (!torch.int, !torch.int, !torch.int) -> !torch.list<int>
  %147 = torch.aten.reshape %144, %146 : !torch.vtensor<[1024,32],f32>, !torch.list<int> -> !torch.vtensor<[2,512,32],f32>
  %int1_235 = torch.constant.int 1
  %int0_236 = torch.constant.int 0
  %148 = torch.prim.ListConstruct %int1_235, %int0_236 : (!torch.int, !torch.int) -> !torch.list<int>
  %int1_237 = torch.constant.int 1
  %int0_238 = torch.constant.int 0
  %149 = torch.prim.ListConstruct %int1_237, %int0_238 : (!torch.int, !torch.int) -> !torch.list<int>
  %150 = torch.aten.permute %arg46, %149 : !torch.vtensor<[32,32],f32>, !torch.list<int> -> !torch.vtensor<[32,32],f32>
  %int1_239 = torch.constant.int 1
  %int0_240 = torch.constant.int 0
  %151 = torch.prim.ListConstruct %int1_239, %int0_240 : (!torch.int, !torch.int) -> !torch.list<int>
  %int1_241 = torch.constant.int 1
  %int0_242 = torch.constant.int 0
  %152 = torch.prim.ListConstruct %int1_241, %int0_242 : (!torch.int, !torch.int) -> !torch.list<int>
  %153 = torch.aten.permute %150, %152 : !torch.vtensor<[32,32],f32>, !torch.list<int> -> !torch.vtensor<[32,32],f32>
  %int1_243 = torch.constant.int 1
  %int0_244 = torch.constant.int 0
  %154 = torch.prim.ListConstruct %int1_243, %int0_244 : (!torch.int, !torch.int) -> !torch.list<int>
  %int1_245 = torch.constant.int 1
  %int0_246 = torch.constant.int 0
  %155 = torch.prim.ListConstruct %int1_245, %int0_246 : (!torch.int, !torch.int) -> !torch.list<int>
  %156 = torch.aten.permute %arg46, %155 : !torch.vtensor<[32,32],f32>, !torch.list<int> -> !torch.vtensor<[32,32],f32>
  %str = torch.constant.str "none"
  %157 = torch.aten.gelu %147, %str : !torch.vtensor<[2,512,32],f32>, !torch.str -> !torch.vtensor<[2,512,32],f32>
  %int1024_247 = torch.constant.int 1024
  %int32_248 = torch.constant.int 32
  %158 = torch.prim.ListConstruct %int1024_247, %int32_248 : (!torch.int, !torch.int) -> !torch.list<int>
  %int1024_249 = torch.constant.int 1024
  %int32_250 = torch.constant.int 32
  %159 = torch.prim.ListConstruct %int1024_249, %int32_250 : (!torch.int, !torch.int) -> !torch.list<int>
  %160 = torch.aten.reshape %157, %159 : !torch.vtensor<[2,512,32],f32>, !torch.list<int> -> !torch.vtensor<[1024,32],f32>
  %161 = torch.aten.addmm %arg52, %160, %156, %arg51, %arg50 : !torch.vtensor<[32],f32>, !torch.vtensor<[1024,32],f32>, !torch.vtensor<[32,32],f32>, !torch.int, !torch.int -> !torch.vtensor<[1024,32],f32>
  %int2_251 = torch.constant.int 2
  %int512_252 = torch.constant.int 512
  %int32_253 = torch.constant.int 32
  %162 = torch.prim.ListConstruct %int2_251, %int512_252, %int32_253 : (!torch.int, !torch.int, !torch.int) -> !torch.list<int>
  %int2_254 = torch.constant.int 2
  %int512_255 = torch.constant.int 512
  %int32_256 = torch.constant.int 32
  %163 = torch.prim.ListConstruct %int2_254, %int512_255, %int32_256 : (!torch.int, !torch.int, !torch.int) -> !torch.list<int>
  %164 = torch.aten.reshape %161, %163 : !torch.vtensor<[1024,32],f32>, !torch.list<int> -> !torch.vtensor<[2,512,32],f32>
  %165 = torch.aten.add.Tensor %164, %result0_210, %arg49 : !torch.vtensor<[2,512,32],f32>, !torch.vtensor<[2,512,32],f32>, !torch.int -> !torch.vtensor<[2,512,32],f32>
  %int32_257 = torch.constant.int 32
  %166 = torch.prim.ListConstruct %int32_257 : (!torch.int) -> !torch.list<int>
  %float1.000000e-05_258 = torch.constant.float 1.000000e-05
  %result0_259, %result1_260, %result2_261 = torch.aten.native_layer_norm %165, %166, %arg48, %arg47, %float1.000000e-05_258 : !torch.vtensor<[2,512,32],f32>, !torch.list<int>, !torch.vtensor<[32],f32>, !torch.vtensor<[32],f32>, !torch.float -> !torch.vtensor<[2,512,32],f32>, !torch.vtensor<[2,512,1],f32>, !torch.vtensor<[2,512,1],f32>
  %167 = torch.prim.TupleConstruct %result0_259, %result1_260, %result2_261 : !torch.vtensor<[2,512,32],f32>, !torch.vtensor<[2,512,1],f32>, !torch.vtensor<[2,512,1],f32> -> !torch.tuple<vtensor<[2,512,32],f32>, vtensor<[2,512,1],f32>, vtensor<[2,512,1],f32>>
  %168 = torch.aten.zero.functional %arg53 : !torch.vtensor<[2,512,32],f32> -> !torch.vtensor<[2,512,32],f32>
  %int32_262 = torch.constant.int 32
  %169 = torch.prim.ListConstruct %int32_262 : (!torch.int) -> !torch.list<int>
  %true = torch.constant.bool true
  %170 = torch.prim.ListConstruct %true, %true, %true : (!torch.bool, !torch.bool, !torch.bool) -> !torch.list<bool>
  %result0_263, %result1_264, %result2_265 = torch.aten.native_layer_norm_backward %168, %165, %169, %result1_260, %result2_261, %arg48, %arg47, %170 : !torch.vtensor<[2,512,32],f32>, !torch.vtensor<[2,512,32],f32>, !torch.list<int>, !torch.vtensor<[2,512,1],f32>, !torch.vtensor<[2,512,1],f32>, !torch.vtensor<[32],f32>, !torch.vtensor<[32],f32>, !torch.list<bool> -> !torch.vtensor<[2,512,32],f32>, !torch.vtensor<[32],f32>, !torch.vtensor<[32],f32>
  %171 = torch.prim.TupleConstruct %result0_263, %result1_264, %result2_265 : !torch.vtensor<[2,512,32],f32>, !torch.vtensor<[32],f32>, !torch.vtensor<[32],f32> -> !torch.tuple<vtensor<[2,512,32],f32>, vtensor<[32],f32>, vtensor<[32],f32>>
  %int1024_266 = torch.constant.int 1024
  %int32_267 = torch.constant.int 32
  %172 = torch.prim.ListConstruct %int1024_266, %int32_267 : (!torch.int, !torch.int) -> !torch.list<int>
  %int1024_268 = torch.constant.int 1024
  %int32_269 = torch.constant.int 32
  %173 = torch.prim.ListConstruct %int1024_268, %int32_269 : (!torch.int, !torch.int) -> !torch.list<int>
  %174 = torch.aten.reshape %result0_263, %173 : !torch.vtensor<[2,512,32],f32>, !torch.list<int> -> !torch.vtensor<[1024,32],f32>
  %175 = torch.aten.mm %174, %153 : !torch.vtensor<[1024,32],f32>, !torch.vtensor<[32,32],f32> -> !torch.vtensor<[1024,32],f32>
  %int2_270 = torch.constant.int 2
  %int512_271 = torch.constant.int 512
  %int32_272 = torch.constant.int 32
  %176 = torch.prim.ListConstruct %int2_270, %int512_271, %int32_272 : (!torch.int, !torch.int, !torch.int) -> !torch.list<int>
  %int2_273 = torch.constant.int 2
  %int512_274 = torch.constant.int 512
  %int32_275 = torch.constant.int 32
  %177 = torch.prim.ListConstruct %int2_273, %int512_274, %int32_275 : (!torch.int, !torch.int, !torch.int) -> !torch.list<int>
  %178 = torch.aten.reshape %175, %177 : !torch.vtensor<[1024,32],f32>, !torch.list<int> -> !torch.vtensor<[2,512,32],f32>
  %str_276 = torch.constant.str "none"
  %179 = torch.aten.gelu_backward %178, %147, %str_276 : !torch.vtensor<[2,512,32],f32>, !torch.vtensor<[2,512,32],f32>, !torch.str -> !torch.vtensor<[2,512,32],f32>
  %int1024_277 = torch.constant.int 1024
  %int32_278 = torch.constant.int 32
  %180 = torch.prim.ListConstruct %int1024_277, %int32_278 : (!torch.int, !torch.int) -> !torch.list<int>
  %int1024_279 = torch.constant.int 1024
  %int32_280 = torch.constant.int 32
  %181 = torch.prim.ListConstruct %int1024_279, %int32_280 : (!torch.int, !torch.int) -> !torch.list<int>
  %182 = torch.aten.reshape %179, %181 : !torch.vtensor<[2,512,32],f32>, !torch.list<int> -> !torch.vtensor<[1024,32],f32>
  %183 = torch.aten.mm %182, %137 : !torch.vtensor<[1024,32],f32>, !torch.vtensor<[32,32],f32> -> !torch.vtensor<[1024,32],f32>
  %int2_281 = torch.constant.int 2
  %int512_282 = torch.constant.int 512
  %int32_283 = torch.constant.int 32
  %184 = torch.prim.ListConstruct %int2_281, %int512_282, %int32_283 : (!torch.int, !torch.int, !torch.int) -> !torch.list<int>
  %int2_284 = torch.constant.int 2
  %int512_285 = torch.constant.int 512
  %int32_286 = torch.constant.int 32
  %185 = torch.prim.ListConstruct %int2_284, %int512_285, %int32_286 : (!torch.int, !torch.int, !torch.int) -> !torch.list<int>
  %186 = torch.aten.reshape %183, %185 : !torch.vtensor<[1024,32],f32>, !torch.list<int> -> !torch.vtensor<[2,512,32],f32>
  %187 = torch.aten.add.Tensor %result0_263, %186, %arg41 : !torch.vtensor<[2,512,32],f32>, !torch.vtensor<[2,512,32],f32>, !torch.int -> !torch.vtensor<[2,512,32],f32>
  %int32_287 = torch.constant.int 32
  %188 = torch.prim.ListConstruct %int32_287 : (!torch.int) -> !torch.list<int>
  %true_288 = torch.constant.bool true
  %189 = torch.prim.ListConstruct %true_288, %true_288, %true_288 : (!torch.bool, !torch.bool, !torch.bool) -> !torch.list<bool>
  %result0_289, %result1_290, %result2_291 = torch.aten.native_layer_norm_backward %187, %129, %188, %result1_211, %result2_212, %arg36, %arg35, %189 : !torch.vtensor<[2,512,32],f32>, !torch.vtensor<[2,512,32],f32>, !torch.list<int>, !torch.vtensor<[2,512,1],f32>, !torch.vtensor<[2,512,1],f32>, !torch.vtensor<[32],f32>, !torch.vtensor<[32],f32>, !torch.list<bool> -> !torch.vtensor<[2,512,32],f32>, !torch.vtensor<[32],f32>, !torch.vtensor<[32],f32>
  %190 = torch.prim.TupleConstruct %result0_289, %result1_290, %result2_291 : !torch.vtensor<[2,512,32],f32>, !torch.vtensor<[32],f32>, !torch.vtensor<[32],f32> -> !torch.tuple<vtensor<[2,512,32],f32>, vtensor<[32],f32>, vtensor<[32],f32>>
  %int1024_292 = torch.constant.int 1024
  %int32_293 = torch.constant.int 32
  %191 = torch.prim.ListConstruct %int1024_292, %int32_293 : (!torch.int, !torch.int) -> !torch.list<int>
  %int1024_294 = torch.constant.int 1024
  %int32_295 = torch.constant.int 32
  %192 = torch.prim.ListConstruct %int1024_294, %int32_295 : (!torch.int, !torch.int) -> !torch.list<int>
  %193 = torch.aten.reshape %result0_289, %192 : !torch.vtensor<[2,512,32],f32>, !torch.list<int> -> !torch.vtensor<[1024,32],f32>
  %194 = torch.aten.mm %193, %103 : !torch.vtensor<[1024,32],f32>, !torch.vtensor<[32,32],f32> -> !torch.vtensor<[1024,32],f32>
  %int2_296 = torch.constant.int 2
  %int512_297 = torch.constant.int 512
  %int32_298 = torch.constant.int 32
  %195 = torch.prim.ListConstruct %int2_296, %int512_297, %int32_298 : (!torch.int, !torch.int, !torch.int) -> !torch.list<int>
  %int2_299 = torch.constant.int 2
  %int512_300 = torch.constant.int 512
  %int32_301 = torch.constant.int 32
  %196 = torch.prim.ListConstruct %int2_299, %int512_300, %int32_301 : (!torch.int, !torch.int, !torch.int) -> !torch.list<int>
  %197 = torch.aten.reshape %194, %196 : !torch.vtensor<[1024,32],f32>, !torch.list<int> -> !torch.vtensor<[2,512,32],f32>
  %int2_302 = torch.constant.int 2
  %int512_303 = torch.constant.int 512
  %int16_304 = torch.constant.int 16
  %198 = torch.prim.ListConstruct %int2_302, %int512_303, %int2_302, %int16_304 : (!torch.int, !torch.int, !torch.int, !torch.int) -> !torch.list<int>
  %int2_305 = torch.constant.int 2
  %int512_306 = torch.constant.int 512
  %int16_307 = torch.constant.int 16
  %199 = torch.prim.ListConstruct %int2_305, %int512_306, %int2_305, %int16_307 : (!torch.int, !torch.int, !torch.int, !torch.int) -> !torch.list<int>
  %200 = torch.aten.reshape %197, %199 : !torch.vtensor<[2,512,32],f32>, !torch.list<int> -> !torch.vtensor<[2,512,2,16],f32>
  %int0_308 = torch.constant.int 0
  %int2_309 = torch.constant.int 2
  %int1_310 = torch.constant.int 1
  %int3_311 = torch.constant.int 3
  %201 = torch.prim.ListConstruct %int0_308, %int2_309, %int1_310, %int3_311 : (!torch.int, !torch.int, !torch.int, !torch.int) -> !torch.list<int>
  %int0_312 = torch.constant.int 0
  %int2_313 = torch.constant.int 2
  %int1_314 = torch.constant.int 1
  %int3_315 = torch.constant.int 3
  %202 = torch.prim.ListConstruct %int0_312, %int2_313, %int1_314, %int3_315 : (!torch.int, !torch.int, !torch.int, !torch.int) -> !torch.list<int>
  %203 = torch.aten.permute %200, %202 : !torch.vtensor<[2,512,2,16],f32>, !torch.list<int> -> !torch.vtensor<[2,2,512,16],f32>
  %int4_316 = torch.constant.int 4
  %int512_317 = torch.constant.int 512
  %int16_318 = torch.constant.int 16
  %204 = torch.prim.ListConstruct %int4_316, %int512_317, %int16_318 : (!torch.int, !torch.int, !torch.int) -> !torch.list<int>
  %int4_319 = torch.constant.int 4
  %int512_320 = torch.constant.int 512
  %int16_321 = torch.constant.int 16
  %205 = torch.prim.ListConstruct %int4_319, %int512_320, %int16_321 : (!torch.int, !torch.int, !torch.int) -> !torch.list<int>
  %206 = torch.aten.reshape %203, %205 : !torch.vtensor<[2,2,512,16],f32>, !torch.list<int> -> !torch.vtensor<[4,512,16],f32>
  %207 = torch.aten.bmm %206, %97 : !torch.vtensor<[4,512,16],f32>, !torch.vtensor<[4,16,512],f32> -> !torch.vtensor<[4,512,512],f32>
  %int2_322 = torch.constant.int 2
  %int512_323 = torch.constant.int 512
  %208 = torch.prim.ListConstruct %int2_322, %int2_322, %int512_323, %int512_323 : (!torch.int, !torch.int, !torch.int, !torch.int) -> !torch.list<int>
  %int2_324 = torch.constant.int 2
  %int512_325 = torch.constant.int 512
  %209 = torch.prim.ListConstruct %int2_324, %int2_324, %int512_325, %int512_325 : (!torch.int, !torch.int, !torch.int, !torch.int) -> !torch.list<int>
  %210 = torch.aten.reshape %207, %209 : !torch.vtensor<[4,512,512],f32>, !torch.list<int> -> !torch.vtensor<[2,2,512,512],f32>
  %int-1_326 = torch.constant.int -1
  %int6_327 = torch.constant.int 6
  %211 = torch.aten._softmax_backward_data %210, %75, %int-1_326, %int6_327 : !torch.vtensor<[2,2,512,512],f32>, !torch.vtensor<[2,2,512,512],f32>, !torch.int, !torch.int -> !torch.vtensor<[2,2,512,512],f32>
  %212 = torch.aten.div.Tensor %211, %arg21 : !torch.vtensor<[2,2,512,512],f32>, !torch.vtensor<[],f64> -> !torch.vtensor<[2,2,512,512],f32>
  %int4_328 = torch.constant.int 4
  %int512_329 = torch.constant.int 512
  %213 = torch.prim.ListConstruct %int4_328, %int512_329, %int512_329 : (!torch.int, !torch.int, !torch.int) -> !torch.list<int>
  %int4_330 = torch.constant.int 4
  %int512_331 = torch.constant.int 512
  %214 = torch.prim.ListConstruct %int4_330, %int512_331, %int512_331 : (!torch.int, !torch.int, !torch.int) -> !torch.list<int>
  %215 = torch.aten.reshape %212, %214 : !torch.vtensor<[2,2,512,512],f32>, !torch.list<int> -> !torch.vtensor<[4,512,512],f32>
  %216 = torch.aten.bmm %215, %36 : !torch.vtensor<[4,512,512],f32>, !torch.vtensor<[4,512,16],f32> -> !torch.vtensor<[4,512,16],f32>
  %int2_332 = torch.constant.int 2
  %int512_333 = torch.constant.int 512
  %int16_334 = torch.constant.int 16
  %217 = torch.prim.ListConstruct %int2_332, %int2_332, %int512_333, %int16_334 : (!torch.int, !torch.int, !torch.int, !torch.int) -> !torch.list<int>
  %int2_335 = torch.constant.int 2
  %int512_336 = torch.constant.int 512
  %int16_337 = torch.constant.int 16
  %218 = torch.prim.ListConstruct %int2_335, %int2_335, %int512_336, %int16_337 : (!torch.int, !torch.int, !torch.int, !torch.int) -> !torch.list<int>
  %219 = torch.aten.reshape %216, %218 : !torch.vtensor<[4,512,16],f32>, !torch.list<int> -> !torch.vtensor<[2,2,512,16],f32>
  %int0_338 = torch.constant.int 0
  %int2_339 = torch.constant.int 2
  %int1_340 = torch.constant.int 1
  %int3_341 = torch.constant.int 3
  %220 = torch.prim.ListConstruct %int0_338, %int2_339, %int1_340, %int3_341 : (!torch.int, !torch.int, !torch.int, !torch.int) -> !torch.list<int>
  %int0_342 = torch.constant.int 0
  %int2_343 = torch.constant.int 2
  %int1_344 = torch.constant.int 1
  %int3_345 = torch.constant.int 3
  %221 = torch.prim.ListConstruct %int0_342, %int2_343, %int1_344, %int3_345 : (!torch.int, !torch.int, !torch.int, !torch.int) -> !torch.list<int>
  %222 = torch.aten.permute %219, %221 : !torch.vtensor<[2,2,512,16],f32>, !torch.list<int> -> !torch.vtensor<[2,512,2,16],f32>
  %int2_346 = torch.constant.int 2
  %int512_347 = torch.constant.int 512
  %int32_348 = torch.constant.int 32
  %223 = torch.prim.ListConstruct %int2_346, %int512_347, %int32_348 : (!torch.int, !torch.int, !torch.int) -> !torch.list<int>
  %int2_349 = torch.constant.int 2
  %int512_350 = torch.constant.int 512
  %int32_351 = torch.constant.int 32
  %224 = torch.prim.ListConstruct %int2_349, %int512_350, %int32_351 : (!torch.int, !torch.int, !torch.int) -> !torch.list<int>
  %225 = torch.aten.reshape %222, %224 : !torch.vtensor<[2,512,2,16],f32>, !torch.list<int> -> !torch.vtensor<[2,512,32],f32>
  %int1024_352 = torch.constant.int 1024
  %int32_353 = torch.constant.int 32
  %226 = torch.prim.ListConstruct %int1024_352, %int32_353 : (!torch.int, !torch.int) -> !torch.list<int>
  %int1024_354 = torch.constant.int 1024
  %int32_355 = torch.constant.int 32
  %227 = torch.prim.ListConstruct %int1024_354, %int32_355 : (!torch.int, !torch.int) -> !torch.list<int>
  %228 = torch.aten.reshape %225, %227 : !torch.vtensor<[2,512,32],f32>, !torch.list<int> -> !torch.vtensor<[1024,32],f32>
  %229 = torch.aten.mm %228, %13 : !torch.vtensor<[1024,32],f32>, !torch.vtensor<[32,32],f32> -> !torch.vtensor<[1024,32],f32>
  %int2_356 = torch.constant.int 2
  %int512_357 = torch.constant.int 512
  %int32_358 = torch.constant.int 32
  %230 = torch.prim.ListConstruct %int2_356, %int512_357, %int32_358 : (!torch.int, !torch.int, !torch.int) -> !torch.list<int>
  %int2_359 = torch.constant.int 2
  %int512_360 = torch.constant.int 512
  %int32_361 = torch.constant.int 32
  %231 = torch.prim.ListConstruct %int2_359, %int512_360, %int32_361 : (!torch.int, !torch.int, !torch.int) -> !torch.list<int>
  %232 = torch.aten.reshape %229, %231 : !torch.vtensor<[1024,32],f32>, !torch.list<int> -> !torch.vtensor<[2,512,32],f32>
  %int1_362 = torch.constant.int 1
  %int0_363 = torch.constant.int 0
  %233 = torch.prim.ListConstruct %int1_362, %int0_363 : (!torch.int, !torch.int) -> !torch.list<int>
  %int1_364 = torch.constant.int 1
  %int0_365 = torch.constant.int 0
  %234 = torch.prim.ListConstruct %int1_364, %int0_365 : (!torch.int, !torch.int) -> !torch.list<int>
  %235 = torch.aten.permute %arg19, %234 : !torch.vtensor<[32,32],f32>, !torch.list<int> -> !torch.vtensor<[32,32],f32>
  %int1_366 = torch.constant.int 1
  %int0_367 = torch.constant.int 0
  %236 = torch.prim.ListConstruct %int1_366, %int0_367 : (!torch.int, !torch.int) -> !torch.list<int>
  %int1_368 = torch.constant.int 1
  %int0_369 = torch.constant.int 0
  %237 = torch.prim.ListConstruct %int1_368, %int0_369 : (!torch.int, !torch.int) -> !torch.list<int>
  %238 = torch.aten.permute %235, %237 : !torch.vtensor<[32,32],f32>, !torch.list<int> -> !torch.vtensor<[32,32],f32>
  %int1_370 = torch.constant.int 1
  %int2_371 = torch.constant.int 2
  %239 = torch.aten.transpose.int %68, %int1_370, %int2_371 : !torch.vtensor<[4,512,16],f32>, !torch.int, !torch.int -> !torch.vtensor<[4,16,512],f32>
  %240 = torch.aten.bmm %239, %215 : !torch.vtensor<[4,16,512],f32>, !torch.vtensor<[4,512,512],f32> -> !torch.vtensor<[4,16,512],f32>
  %int2_372 = torch.constant.int 2
  %int16_373 = torch.constant.int 16
  %int512_374 = torch.constant.int 512
  %241 = torch.prim.ListConstruct %int2_372, %int2_372, %int16_373, %int512_374 : (!torch.int, !torch.int, !torch.int, !torch.int) -> !torch.list<int>
  %int2_375 = torch.constant.int 2
  %int16_376 = torch.constant.int 16
  %int512_377 = torch.constant.int 512
  %242 = torch.prim.ListConstruct %int2_375, %int2_375, %int16_376, %int512_377 : (!torch.int, !torch.int, !torch.int, !torch.int) -> !torch.list<int>
  %243 = torch.aten.reshape %240, %242 : !torch.vtensor<[4,16,512],f32>, !torch.list<int> -> !torch.vtensor<[2,2,16,512],f32>
  %int-1_378 = torch.constant.int -1
  %int-2_379 = torch.constant.int -2
  %244 = torch.aten.transpose.int %243, %int-1_378, %int-2_379 : !torch.vtensor<[2,2,16,512],f32>, !torch.int, !torch.int -> !torch.vtensor<[2,2,512,16],f32>
  %int0_380 = torch.constant.int 0
  %int2_381 = torch.constant.int 2
  %int1_382 = torch.constant.int 1
  %int3_383 = torch.constant.int 3
  %245 = torch.prim.ListConstruct %int0_380, %int2_381, %int1_382, %int3_383 : (!torch.int, !torch.int, !torch.int, !torch.int) -> !torch.list<int>
  %int0_384 = torch.constant.int 0
  %int2_385 = torch.constant.int 2
  %int1_386 = torch.constant.int 1
  %int3_387 = torch.constant.int 3
  %246 = torch.prim.ListConstruct %int0_384, %int2_385, %int1_386, %int3_387 : (!torch.int, !torch.int, !torch.int, !torch.int) -> !torch.list<int>
  %247 = torch.aten.permute %244, %246 : !torch.vtensor<[2,2,512,16],f32>, !torch.list<int> -> !torch.vtensor<[2,512,2,16],f32>
  %int2_388 = torch.constant.int 2
  %int512_389 = torch.constant.int 512
  %int32_390 = torch.constant.int 32
  %248 = torch.prim.ListConstruct %int2_388, %int512_389, %int32_390 : (!torch.int, !torch.int, !torch.int) -> !torch.list<int>
  %int2_391 = torch.constant.int 2
  %int512_392 = torch.constant.int 512
  %int32_393 = torch.constant.int 32
  %249 = torch.prim.ListConstruct %int2_391, %int512_392, %int32_393 : (!torch.int, !torch.int, !torch.int) -> !torch.list<int>
  %250 = torch.aten.reshape %247, %249 : !torch.vtensor<[2,512,2,16],f32>, !torch.list<int> -> !torch.vtensor<[2,512,32],f32>
  %int1024_394 = torch.constant.int 1024
  %int32_395 = torch.constant.int 32
  %251 = torch.prim.ListConstruct %int1024_394, %int32_395 : (!torch.int, !torch.int) -> !torch.list<int>
  %int1024_396 = torch.constant.int 1024
  %int32_397 = torch.constant.int 32
  %252 = torch.prim.ListConstruct %int1024_396, %int32_397 : (!torch.int, !torch.int) -> !torch.list<int>
  %253 = torch.aten.reshape %250, %252 : !torch.vtensor<[2,512,32],f32>, !torch.list<int> -> !torch.vtensor<[1024,32],f32>
  %254 = torch.aten.mm %253, %238 : !torch.vtensor<[1024,32],f32>, !torch.vtensor<[32,32],f32> -> !torch.vtensor<[1024,32],f32>
  %int2_398 = torch.constant.int 2
  %int512_399 = torch.constant.int 512
  %int32_400 = torch.constant.int 32
  %255 = torch.prim.ListConstruct %int2_398, %int512_399, %int32_400 : (!torch.int, !torch.int, !torch.int) -> !torch.list<int>
  %int2_401 = torch.constant.int 2
  %int512_402 = torch.constant.int 512
  %int32_403 = torch.constant.int 32
  %256 = torch.prim.ListConstruct %int2_401, %int512_402, %int32_403 : (!torch.int, !torch.int, !torch.int) -> !torch.list<int>
  %257 = torch.aten.reshape %254, %256 : !torch.vtensor<[1024,32],f32>, !torch.list<int> -> !torch.vtensor<[2,512,32],f32>
  %int1_404 = torch.constant.int 1
  %int0_405 = torch.constant.int 0
  %258 = torch.prim.ListConstruct %int1_404, %int0_405 : (!torch.int, !torch.int) -> !torch.list<int>
  %int1_406 = torch.constant.int 1
  %int0_407 = torch.constant.int 0
  %259 = torch.prim.ListConstruct %int1_406, %int0_407 : (!torch.int, !torch.int) -> !torch.list<int>
  %260 = torch.aten.permute %arg32, %259 : !torch.vtensor<[32,32],f32>, !torch.list<int> -> !torch.vtensor<[32,32],f32>
  %int1_408 = torch.constant.int 1
  %int0_409 = torch.constant.int 0
  %261 = torch.prim.ListConstruct %int1_408, %int0_409 : (!torch.int, !torch.int) -> !torch.list<int>
  %int1_410 = torch.constant.int 1
  %int0_411 = torch.constant.int 0
  %262 = torch.prim.ListConstruct %int1_410, %int0_411 : (!torch.int, !torch.int) -> !torch.list<int>
  %263 = torch.aten.permute %260, %262 : !torch.vtensor<[32,32],f32>, !torch.list<int> -> !torch.vtensor<[32,32],f32>
  %int1_412 = torch.constant.int 1
  %int2_413 = torch.constant.int 2
  %264 = torch.aten.transpose.int %111, %int1_412, %int2_413 : !torch.vtensor<[4,512,512],f32>, !torch.int, !torch.int -> !torch.vtensor<[4,512,512],f32>
  %265 = torch.aten.bmm %264, %206 : !torch.vtensor<[4,512,512],f32>, !torch.vtensor<[4,512,16],f32> -> !torch.vtensor<[4,512,16],f32>
  %int2_414 = torch.constant.int 2
  %int512_415 = torch.constant.int 512
  %int16_416 = torch.constant.int 16
  %266 = torch.prim.ListConstruct %int2_414, %int2_414, %int512_415, %int16_416 : (!torch.int, !torch.int, !torch.int, !torch.int) -> !torch.list<int>
  %int2_417 = torch.constant.int 2
  %int512_418 = torch.constant.int 512
  %int16_419 = torch.constant.int 16
  %267 = torch.prim.ListConstruct %int2_417, %int2_417, %int512_418, %int16_419 : (!torch.int, !torch.int, !torch.int, !torch.int) -> !torch.list<int>
  %268 = torch.aten.reshape %265, %267 : !torch.vtensor<[4,512,16],f32>, !torch.list<int> -> !torch.vtensor<[2,2,512,16],f32>
  %int0_420 = torch.constant.int 0
  %int2_421 = torch.constant.int 2
  %int1_422 = torch.constant.int 1
  %int3_423 = torch.constant.int 3
  %269 = torch.prim.ListConstruct %int0_420, %int2_421, %int1_422, %int3_423 : (!torch.int, !torch.int, !torch.int, !torch.int) -> !torch.list<int>
  %int0_424 = torch.constant.int 0
  %int2_425 = torch.constant.int 2
  %int1_426 = torch.constant.int 1
  %int3_427 = torch.constant.int 3
  %270 = torch.prim.ListConstruct %int0_424, %int2_425, %int1_426, %int3_427 : (!torch.int, !torch.int, !torch.int, !torch.int) -> !torch.list<int>
  %271 = torch.aten.permute %268, %270 : !torch.vtensor<[2,2,512,16],f32>, !torch.list<int> -> !torch.vtensor<[2,512,2,16],f32>
  %int2_428 = torch.constant.int 2
  %int512_429 = torch.constant.int 512
  %int32_430 = torch.constant.int 32
  %272 = torch.prim.ListConstruct %int2_428, %int512_429, %int32_430 : (!torch.int, !torch.int, !torch.int) -> !torch.list<int>
  %int2_431 = torch.constant.int 2
  %int512_432 = torch.constant.int 512
  %int32_433 = torch.constant.int 32
  %273 = torch.prim.ListConstruct %int2_431, %int512_432, %int32_433 : (!torch.int, !torch.int, !torch.int) -> !torch.list<int>
  %274 = torch.aten.reshape %271, %273 : !torch.vtensor<[2,512,2,16],f32>, !torch.list<int> -> !torch.vtensor<[2,512,32],f32>
  %int1024_434 = torch.constant.int 1024
  %int32_435 = torch.constant.int 32
  %275 = torch.prim.ListConstruct %int1024_434, %int32_435 : (!torch.int, !torch.int) -> !torch.list<int>
  %int1024_436 = torch.constant.int 1024
  %int32_437 = torch.constant.int 32
  %276 = torch.prim.ListConstruct %int1024_436, %int32_437 : (!torch.int, !torch.int) -> !torch.list<int>
  %277 = torch.aten.reshape %274, %276 : !torch.vtensor<[2,512,32],f32>, !torch.list<int> -> !torch.vtensor<[1024,32],f32>
  %278 = torch.aten.mm %277, %263 : !torch.vtensor<[1024,32],f32>, !torch.vtensor<[32,32],f32> -> !torch.vtensor<[1024,32],f32>
  %int2_438 = torch.constant.int 2
  %int512_439 = torch.constant.int 512
  %int32_440 = torch.constant.int 32
  %279 = torch.prim.ListConstruct %int2_438, %int512_439, %int32_440 : (!torch.int, !torch.int, !torch.int) -> !torch.list<int>
  %int2_441 = torch.constant.int 2
  %int512_442 = torch.constant.int 512
  %int32_443 = torch.constant.int 32
  %280 = torch.prim.ListConstruct %int2_441, %int512_442, %int32_443 : (!torch.int, !torch.int, !torch.int) -> !torch.list<int>
  %281 = torch.aten.reshape %278, %280 : !torch.vtensor<[1024,32],f32>, !torch.list<int> -> !torch.vtensor<[2,512,32],f32>
  %282 = torch.aten.add.Tensor %result0_289, %281, %arg55 : !torch.vtensor<[2,512,32],f32>, !torch.vtensor<[2,512,32],f32>, !torch.int -> !torch.vtensor<[2,512,32],f32>
  %283 = torch.aten.add.Tensor %282, %257, %arg54 : !torch.vtensor<[2,512,32],f32>, !torch.vtensor<[2,512,32],f32>, !torch.int -> !torch.vtensor<[2,512,32],f32>
  %284 = torch.aten.add.Tensor %283, %232, %arg15 : !torch.vtensor<[2,512,32],f32>, !torch.vtensor<[2,512,32],f32>, !torch.int -> !torch.vtensor<[2,512,32],f32>
  %int32_444 = torch.constant.int 32
  %285 = torch.prim.ListConstruct %int32_444 : (!torch.int) -> !torch.list<int>
  %true_445 = torch.constant.bool true
  %286 = torch.prim.ListConstruct %true_445, %true_445, %true_445 : (!torch.bool, !torch.bool, !torch.bool) -> !torch.list<bool>
  %result0_446, %result1_447, %result2_448 = torch.aten.native_layer_norm_backward %284, %5, %285, %result1, %result2, %arg7, %arg6, %286 : !torch.vtensor<[2,512,32],f32>, !torch.vtensor<[2,512,32],f32>, !torch.list<int>, !torch.vtensor<[2,512,1],f32>, !torch.vtensor<[2,512,1],f32>, !torch.vtensor<[32],f32>, !torch.vtensor<[32],f32>, !torch.list<bool> -> !torch.vtensor<[2,512,32],f32>, !torch.vtensor<[32],f32>, !torch.vtensor<[32],f32>
  %287 = torch.prim.TupleConstruct %result0_446, %result1_447, %result2_448 : !torch.vtensor<[2,512,32],f32>, !torch.vtensor<[32],f32>, !torch.vtensor<[32],f32> -> !torch.tuple<vtensor<[2,512,32],f32>, vtensor<[32],f32>, vtensor<[32],f32>>
  %int28996 = torch.constant.int 28996
  %int0_449 = torch.constant.int 0
  %false_450 = torch.constant.bool false
  %288 = torch.aten.embedding_dense_backward %result0_446, %arg5, %int28996, %int0_449, %false_450 : !torch.vtensor<[2,512,32],f32>, !torch.vtensor<[2,512],si64>, !torch.int, !torch.int, !torch.bool -> !torch.vtensor<[28996,32],f32>
  %289 = torch.aten.add.Tensor %arg56, %288, %arg4 : !torch.vtensor<[28996,32],f32>, !torch.vtensor<[28996,32],f32>, !torch.int -> !torch.vtensor<[28996,32],f32>
  %290 = torch.aten.mul.Tensor %arg58, %arg57 : !torch.vtensor<[28996,32],f32>, !torch.vtensor<[],f64> -> !torch.vtensor<[28996,32],f32>
  %291 = torch.aten.addcmul %290, %289, %289, %arg3 : !torch.vtensor<[28996,32],f32>, !torch.vtensor<[28996,32],f32>, !torch.vtensor<[28996,32],f32>, !torch.float -> !torch.vtensor<[28996,32],f32>
  %292 = torch.aten.sqrt %291 : !torch.vtensor<[28996,32],f32> -> !torch.vtensor<[28996,32],f32>
  %293 = torch.aten.add.Tensor %292, %arg2, %arg1 : !torch.vtensor<[28996,32],f32>, !torch.vtensor<[],f64>, !torch.int -> !torch.vtensor<[28996,32],f32>
  %294 = torch.aten.mul.Tensor %arg61, %arg60 : !torch.vtensor<[28996,32],f32>, !torch.vtensor<[],f64> -> !torch.vtensor<[28996,32],f32>
  %295 = torch.aten.add.Tensor %294, %289, %arg59 : !torch.vtensor<[28996,32],f32>, !torch.vtensor<[28996,32],f32>, !torch.float -> !torch.vtensor<[28996,32],f32>
  %296 = torch.aten.addcdiv %arg14, %295, %293, %arg0 : !torch.vtensor<[28996,32],f32>, !torch.vtensor<[28996,32],f32>, !torch.vtensor<[28996,32],f32>, !torch.float -> !torch.vtensor<[28996,32],f32>
  %int0_451 = torch.constant.int 0
  %297 = torch.prim.ListConstruct %int0_451 : (!torch.int) -> !torch.list<int>
  %true_452 = torch.constant.bool true
  %none_453 = torch.constant.none
  %298 = torch.aten.sum.dim_IntList %result0_446, %297, %true_452, %none_453 : !torch.vtensor<[2,512,32],f32>, !torch.list<int>, !torch.bool, !torch.none -> !torch.vtensor<[1,512,32],f32>
  %int512_454 = torch.constant.int 512
  %int-1_455 = torch.constant.int -1
  %false_456 = torch.constant.bool false
  %299 = torch.aten.embedding_dense_backward %298, %0, %int512_454, %int-1_455, %false_456 : !torch.vtensor<[1,512,32],f32>, !torch.vtensor<[1,512],si64>, !torch.int, !torch.int, !torch.bool -> !torch.vtensor<[512,32],f32>
  %300 = torch.aten.add.Tensor %arg66, %299, %arg65 : !torch.vtensor<[512,32],f32>, !torch.vtensor<[512,32],f32>, !torch.int -> !torch.vtensor<[512,32],f32>
  %301 = torch.aten.mul.Tensor %arg67, %arg57 : !torch.vtensor<[512,32],f32>, !torch.vtensor<[],f64> -> !torch.vtensor<[512,32],f32>
  %302 = torch.aten.addcmul %301, %300, %300, %arg64 : !torch.vtensor<[512,32],f32>, !torch.vtensor<[512,32],f32>, !torch.vtensor<[512,32],f32>, !torch.float -> !torch.vtensor<[512,32],f32>
  %303 = torch.aten.sqrt %302 : !torch.vtensor<[512,32],f32> -> !torch.vtensor<[512,32],f32>
  %304 = torch.aten.add.Tensor %303, %arg2, %arg63 : !torch.vtensor<[512,32],f32>, !torch.vtensor<[],f64>, !torch.int -> !torch.vtensor<[512,32],f32>
  %305 = torch.aten.mul.Tensor %arg69, %arg60 : !torch.vtensor<[512,32],f32>, !torch.vtensor<[],f64> -> !torch.vtensor<[512,32],f32>
  %306 = torch.aten.add.Tensor %305, %300, %arg68 : !torch.vtensor<[512,32],f32>, !torch.vtensor<[512,32],f32>, !torch.float -> !torch.vtensor<[512,32],f32>
  %307 = torch.aten.addcdiv %arg10, %306, %304, %arg62 : !torch.vtensor<[512,32],f32>, !torch.vtensor<[512,32],f32>, !torch.vtensor<[512,32],f32>, !torch.float -> !torch.vtensor<[512,32],f32>
  %int2_457 = torch.constant.int 2
  %int-1_458 = torch.constant.int -1
  %false_459 = torch.constant.bool false
  %308 = torch.aten.embedding_dense_backward %result0_446, %arg12, %int2_457, %int-1_458, %false_459 : !torch.vtensor<[2,512,32],f32>, !torch.vtensor<[2,512],si64>, !torch.int, !torch.int, !torch.bool -> !torch.vtensor<[2,32],f32>
  %309 = torch.aten.add.Tensor %arg74, %308, %arg73 : !torch.vtensor<[2,32],f32>, !torch.vtensor<[2,32],f32>, !torch.int -> !torch.vtensor<[2,32],f32>
  %310 = torch.aten.mul.Tensor %arg75, %arg57 : !torch.vtensor<[2,32],f32>, !torch.vtensor<[],f64> -> !torch.vtensor<[2,32],f32>
  %311 = torch.aten.addcmul %310, %309, %309, %arg72 : !torch.vtensor<[2,32],f32>, !torch.vtensor<[2,32],f32>, !torch.vtensor<[2,32],f32>, !torch.float -> !torch.vtensor<[2,32],f32>
  %312 = torch.aten.sqrt %311 : !torch.vtensor<[2,32],f32> -> !torch.vtensor<[2,32],f32>
  %313 = torch.aten.add.Tensor %312, %arg2, %arg71 : !torch.vtensor<[2,32],f32>, !torch.vtensor<[],f64>, !torch.int -> !torch.vtensor<[2,32],f32>
  %314 = torch.aten.mul.Tensor %arg77, %arg60 : !torch.vtensor<[2,32],f32>, !torch.vtensor<[],f64> -> !torch.vtensor<[2,32],f32>
  %315 = torch.aten.add.Tensor %314, %309, %arg76 : !torch.vtensor<[2,32],f32>, !torch.vtensor<[2,32],f32>, !torch.float -> !torch.vtensor<[2,32],f32>
  %316 = torch.aten.addcdiv %arg13, %315, %313, %arg70 : !torch.vtensor<[2,32],f32>, !torch.vtensor<[2,32],f32>, !torch.vtensor<[2,32],f32>, !torch.float -> !torch.vtensor<[2,32],f32>
  %317 = torch.aten.add.Tensor %arg82, %result1_447, %arg81 : !torch.vtensor<[32],f32>, !torch.vtensor<[32],f32>, !torch.int -> !torch.vtensor<[32],f32>
  %318 = torch.aten.mul.Tensor %arg83, %arg57 : !torch.vtensor<[32],f32>, !torch.vtensor<[],f64> -> !torch.vtensor<[32],f32>
  %319 = torch.aten.addcmul %318, %317, %317, %arg80 : !torch.vtensor<[32],f32>, !torch.vtensor<[32],f32>, !torch.vtensor<[32],f32>, !torch.float -> !torch.vtensor<[32],f32>
  %320 = torch.aten.sqrt %319 : !torch.vtensor<[32],f32> -> !torch.vtensor<[32],f32>
  %321 = torch.aten.add.Tensor %320, %arg2, %arg79 : !torch.vtensor<[32],f32>, !torch.vtensor<[],f64>, !torch.int -> !torch.vtensor<[32],f32>
  %322 = torch.aten.mul.Tensor %arg85, %arg60 : !torch.vtensor<[32],f32>, !torch.vtensor<[],f64> -> !torch.vtensor<[32],f32>
  %323 = torch.aten.add.Tensor %322, %317, %arg84 : !torch.vtensor<[32],f32>, !torch.vtensor<[32],f32>, !torch.float -> !torch.vtensor<[32],f32>
  %324 = torch.aten.addcdiv %arg7, %323, %321, %arg78 : !torch.vtensor<[32],f32>, !torch.vtensor<[32],f32>, !torch.vtensor<[32],f32>, !torch.float -> !torch.vtensor<[32],f32>
  %325 = torch.aten.add.Tensor %arg90, %result2_448, %arg89 : !torch.vtensor<[32],f32>, !torch.vtensor<[32],f32>, !torch.int -> !torch.vtensor<[32],f32>
  %326 = torch.aten.mul.Tensor %arg91, %arg57 : !torch.vtensor<[32],f32>, !torch.vtensor<[],f64> -> !torch.vtensor<[32],f32>
  %327 = torch.aten.addcmul %326, %325, %325, %arg88 : !torch.vtensor<[32],f32>, !torch.vtensor<[32],f32>, !torch.vtensor<[32],f32>, !torch.float -> !torch.vtensor<[32],f32>
  %328 = torch.aten.sqrt %327 : !torch.vtensor<[32],f32> -> !torch.vtensor<[32],f32>
  %329 = torch.aten.add.Tensor %328, %arg2, %arg87 : !torch.vtensor<[32],f32>, !torch.vtensor<[],f64>, !torch.int -> !torch.vtensor<[32],f32>
  %330 = torch.aten.mul.Tensor %arg93, %arg60 : !torch.vtensor<[32],f32>, !torch.vtensor<[],f64> -> !torch.vtensor<[32],f32>
  %331 = torch.aten.add.Tensor %330, %325, %arg92 : !torch.vtensor<[32],f32>, !torch.vtensor<[32],f32>, !torch.float -> !torch.vtensor<[32],f32>
  %332 = torch.aten.addcdiv %arg6, %331, %329, %arg86 : !torch.vtensor<[32],f32>, !torch.vtensor<[32],f32>, !torch.vtensor<[32],f32>, !torch.float -> !torch.vtensor<[32],f32>
  %int1024_460 = torch.constant.int 1024
  %int32_461 = torch.constant.int 32
  %333 = torch.prim.ListConstruct %int1024_460, %int32_461 : (!torch.int, !torch.int) -> !torch.list<int>
  %int1024_462 = torch.constant.int 1024
  %int32_463 = torch.constant.int 32
  %334 = torch.prim.ListConstruct %int1024_462, %int32_463 : (!torch.int, !torch.int) -> !torch.list<int>
  %335 = torch.aten.reshape %result0, %334 : !torch.vtensor<[2,512,32],f32>, !torch.list<int> -> !torch.vtensor<[1024,32],f32>
  %int1_464 = torch.constant.int 1
  %int0_465 = torch.constant.int 0
  %336 = torch.prim.ListConstruct %int1_464, %int0_465 : (!torch.int, !torch.int) -> !torch.list<int>
  %int1_466 = torch.constant.int 1
  %int0_467 = torch.constant.int 0
  %337 = torch.prim.ListConstruct %int1_466, %int0_467 : (!torch.int, !torch.int) -> !torch.list<int>
  %338 = torch.aten.permute %335, %337 : !torch.vtensor<[1024,32],f32>, !torch.list<int> -> !torch.vtensor<[32,1024],f32>
  %339 = torch.aten.mm %338, %228 : !torch.vtensor<[32,1024],f32>, !torch.vtensor<[1024,32],f32> -> !torch.vtensor<[32,32],f32>
  %int1_468 = torch.constant.int 1
  %int0_469 = torch.constant.int 0
  %340 = torch.prim.ListConstruct %int1_468, %int0_469 : (!torch.int, !torch.int) -> !torch.list<int>
  %int1_470 = torch.constant.int 1
  %int0_471 = torch.constant.int 0
  %341 = torch.prim.ListConstruct %int1_470, %int0_471 : (!torch.int, !torch.int) -> !torch.list<int>
  %342 = torch.aten.permute %339, %341 : !torch.vtensor<[32,32],f32>, !torch.list<int> -> !torch.vtensor<[32,32],f32>
  %343 = torch.aten.add.Tensor %arg98, %342, %arg97 : !torch.vtensor<[32,32],f32>, !torch.vtensor<[32,32],f32>, !torch.int -> !torch.vtensor<[32,32],f32>
  %344 = torch.aten.mul.Tensor %arg99, %arg57 : !torch.vtensor<[32,32],f32>, !torch.vtensor<[],f64> -> !torch.vtensor<[32,32],f32>
  %345 = torch.aten.addcmul %344, %343, %343, %arg96 : !torch.vtensor<[32,32],f32>, !torch.vtensor<[32,32],f32>, !torch.vtensor<[32,32],f32>, !torch.float -> !torch.vtensor<[32,32],f32>
  %346 = torch.aten.sqrt %345 : !torch.vtensor<[32,32],f32> -> !torch.vtensor<[32,32],f32>
  %347 = torch.aten.add.Tensor %346, %arg2, %arg95 : !torch.vtensor<[32,32],f32>, !torch.vtensor<[],f64>, !torch.int -> !torch.vtensor<[32,32],f32>
  %348 = torch.aten.mul.Tensor %arg101, %arg60 : !torch.vtensor<[32,32],f32>, !torch.vtensor<[],f64> -> !torch.vtensor<[32,32],f32>
  %349 = torch.aten.add.Tensor %348, %343, %arg100 : !torch.vtensor<[32,32],f32>, !torch.vtensor<[32,32],f32>, !torch.float -> !torch.vtensor<[32,32],f32>
  %350 = torch.aten.addcdiv %arg16, %349, %347, %arg94 : !torch.vtensor<[32,32],f32>, !torch.vtensor<[32,32],f32>, !torch.vtensor<[32,32],f32>, !torch.float -> !torch.vtensor<[32,32],f32>
  %int0_472 = torch.constant.int 0
  %351 = torch.prim.ListConstruct %int0_472 : (!torch.int) -> !torch.list<int>
  %true_473 = torch.constant.bool true
  %none_474 = torch.constant.none
  %352 = torch.aten.sum.dim_IntList %228, %351, %true_473, %none_474 : !torch.vtensor<[1024,32],f32>, !torch.list<int>, !torch.bool, !torch.none -> !torch.vtensor<[1,32],f32>
  %int32_475 = torch.constant.int 32
  %353 = torch.prim.ListConstruct %int32_475 : (!torch.int) -> !torch.list<int>
  %int32_476 = torch.constant.int 32
  %354 = torch.prim.ListConstruct %int32_476 : (!torch.int) -> !torch.list<int>
  %355 = torch.aten.reshape %352, %354 : !torch.vtensor<[1,32],f32>, !torch.list<int> -> !torch.vtensor<[32],f32>
  %356 = torch.aten.add.Tensor %arg106, %355, %arg105 : !torch.vtensor<[32],f32>, !torch.vtensor<[32],f32>, !torch.int -> !torch.vtensor<[32],f32>
  %357 = torch.aten.mul.Tensor %arg107, %arg57 : !torch.vtensor<[32],f32>, !torch.vtensor<[],f64> -> !torch.vtensor<[32],f32>
  %358 = torch.aten.addcmul %357, %356, %356, %arg104 : !torch.vtensor<[32],f32>, !torch.vtensor<[32],f32>, !torch.vtensor<[32],f32>, !torch.float -> !torch.vtensor<[32],f32>
  %359 = torch.aten.sqrt %358 : !torch.vtensor<[32],f32> -> !torch.vtensor<[32],f32>
  %360 = torch.aten.add.Tensor %359, %arg2, %arg103 : !torch.vtensor<[32],f32>, !torch.vtensor<[],f64>, !torch.int -> !torch.vtensor<[32],f32>
  %361 = torch.aten.mul.Tensor %arg109, %arg60 : !torch.vtensor<[32],f32>, !torch.vtensor<[],f64> -> !torch.vtensor<[32],f32>
  %362 = torch.aten.add.Tensor %361, %356, %arg108 : !torch.vtensor<[32],f32>, !torch.vtensor<[32],f32>, !torch.float -> !torch.vtensor<[32],f32>
  %363 = torch.aten.addcdiv %arg29, %362, %360, %arg102 : !torch.vtensor<[32],f32>, !torch.vtensor<[32],f32>, !torch.vtensor<[32],f32>, !torch.float -> !torch.vtensor<[32],f32>
  %int1024_477 = torch.constant.int 1024
  %int32_478 = torch.constant.int 32
  %364 = torch.prim.ListConstruct %int1024_477, %int32_478 : (!torch.int, !torch.int) -> !torch.list<int>
  %int1024_479 = torch.constant.int 1024
  %int32_480 = torch.constant.int 32
  %365 = torch.prim.ListConstruct %int1024_479, %int32_480 : (!torch.int, !torch.int) -> !torch.list<int>
  %366 = torch.aten.reshape %result0, %365 : !torch.vtensor<[2,512,32],f32>, !torch.list<int> -> !torch.vtensor<[1024,32],f32>
  %int1_481 = torch.constant.int 1
  %int0_482 = torch.constant.int 0
  %367 = torch.prim.ListConstruct %int1_481, %int0_482 : (!torch.int, !torch.int) -> !torch.list<int>
  %int1_483 = torch.constant.int 1
  %int0_484 = torch.constant.int 0
  %368 = torch.prim.ListConstruct %int1_483, %int0_484 : (!torch.int, !torch.int) -> !torch.list<int>
  %369 = torch.aten.permute %366, %368 : !torch.vtensor<[1024,32],f32>, !torch.list<int> -> !torch.vtensor<[32,1024],f32>
  %370 = torch.aten.mm %369, %253 : !torch.vtensor<[32,1024],f32>, !torch.vtensor<[1024,32],f32> -> !torch.vtensor<[32,32],f32>
  %int1_485 = torch.constant.int 1
  %int0_486 = torch.constant.int 0
  %371 = torch.prim.ListConstruct %int1_485, %int0_486 : (!torch.int, !torch.int) -> !torch.list<int>
  %int1_487 = torch.constant.int 1
  %int0_488 = torch.constant.int 0
  %372 = torch.prim.ListConstruct %int1_487, %int0_488 : (!torch.int, !torch.int) -> !torch.list<int>
  %373 = torch.aten.permute %370, %372 : !torch.vtensor<[32,32],f32>, !torch.list<int> -> !torch.vtensor<[32,32],f32>
  %374 = torch.aten.add.Tensor %arg114, %373, %arg113 : !torch.vtensor<[32,32],f32>, !torch.vtensor<[32,32],f32>, !torch.int -> !torch.vtensor<[32,32],f32>
  %375 = torch.aten.mul.Tensor %arg115, %arg57 : !torch.vtensor<[32,32],f32>, !torch.vtensor<[],f64> -> !torch.vtensor<[32,32],f32>
  %376 = torch.aten.addcmul %375, %374, %374, %arg112 : !torch.vtensor<[32,32],f32>, !torch.vtensor<[32,32],f32>, !torch.vtensor<[32,32],f32>, !torch.float -> !torch.vtensor<[32,32],f32>
  %377 = torch.aten.sqrt %376 : !torch.vtensor<[32,32],f32> -> !torch.vtensor<[32,32],f32>
  %378 = torch.aten.add.Tensor %377, %arg2, %arg111 : !torch.vtensor<[32,32],f32>, !torch.vtensor<[],f64>, !torch.int -> !torch.vtensor<[32,32],f32>
  %379 = torch.aten.mul.Tensor %arg117, %arg60 : !torch.vtensor<[32,32],f32>, !torch.vtensor<[],f64> -> !torch.vtensor<[32,32],f32>
  %380 = torch.aten.add.Tensor %379, %374, %arg116 : !torch.vtensor<[32,32],f32>, !torch.vtensor<[32,32],f32>, !torch.float -> !torch.vtensor<[32,32],f32>
  %381 = torch.aten.addcdiv %arg19, %380, %378, %arg110 : !torch.vtensor<[32,32],f32>, !torch.vtensor<[32,32],f32>, !torch.vtensor<[32,32],f32>, !torch.float -> !torch.vtensor<[32,32],f32>
  %int0_489 = torch.constant.int 0
  %382 = torch.prim.ListConstruct %int0_489 : (!torch.int) -> !torch.list<int>
  %true_490 = torch.constant.bool true
  %none_491 = torch.constant.none
  %383 = torch.aten.sum.dim_IntList %253, %382, %true_490, %none_491 : !torch.vtensor<[1024,32],f32>, !torch.list<int>, !torch.bool, !torch.none -> !torch.vtensor<[1,32],f32>
  %int32_492 = torch.constant.int 32
  %384 = torch.prim.ListConstruct %int32_492 : (!torch.int) -> !torch.list<int>
  %int32_493 = torch.constant.int 32
  %385 = torch.prim.ListConstruct %int32_493 : (!torch.int) -> !torch.list<int>
  %386 = torch.aten.reshape %383, %385 : !torch.vtensor<[1,32],f32>, !torch.list<int> -> !torch.vtensor<[32],f32>
  %387 = torch.aten.add.Tensor %arg122, %386, %arg121 : !torch.vtensor<[32],f32>, !torch.vtensor<[32],f32>, !torch.int -> !torch.vtensor<[32],f32>
  %388 = torch.aten.mul.Tensor %arg123, %arg57 : !torch.vtensor<[32],f32>, !torch.vtensor<[],f64> -> !torch.vtensor<[32],f32>
  %389 = torch.aten.addcmul %388, %387, %387, %arg120 : !torch.vtensor<[32],f32>, !torch.vtensor<[32],f32>, !torch.vtensor<[32],f32>, !torch.float -> !torch.vtensor<[32],f32>
  %390 = torch.aten.sqrt %389 : !torch.vtensor<[32],f32> -> !torch.vtensor<[32],f32>
  %391 = torch.aten.add.Tensor %390, %arg2, %arg119 : !torch.vtensor<[32],f32>, !torch.vtensor<[],f64>, !torch.int -> !torch.vtensor<[32],f32>
  %392 = torch.aten.mul.Tensor %arg125, %arg60 : !torch.vtensor<[32],f32>, !torch.vtensor<[],f64> -> !torch.vtensor<[32],f32>
  %393 = torch.aten.add.Tensor %392, %387, %arg124 : !torch.vtensor<[32],f32>, !torch.vtensor<[32],f32>, !torch.float -> !torch.vtensor<[32],f32>
  %394 = torch.aten.addcdiv %arg20, %393, %391, %arg118 : !torch.vtensor<[32],f32>, !torch.vtensor<[32],f32>, !torch.vtensor<[32],f32>, !torch.float -> !torch.vtensor<[32],f32>
  %int1024_494 = torch.constant.int 1024
  %int32_495 = torch.constant.int 32
  %395 = torch.prim.ListConstruct %int1024_494, %int32_495 : (!torch.int, !torch.int) -> !torch.list<int>
  %int1024_496 = torch.constant.int 1024
  %int32_497 = torch.constant.int 32
  %396 = torch.prim.ListConstruct %int1024_496, %int32_497 : (!torch.int, !torch.int) -> !torch.list<int>
  %397 = torch.aten.reshape %result0, %396 : !torch.vtensor<[2,512,32],f32>, !torch.list<int> -> !torch.vtensor<[1024,32],f32>
  %int1_498 = torch.constant.int 1
  %int0_499 = torch.constant.int 0
  %398 = torch.prim.ListConstruct %int1_498, %int0_499 : (!torch.int, !torch.int) -> !torch.list<int>
  %int1_500 = torch.constant.int 1
  %int0_501 = torch.constant.int 0
  %399 = torch.prim.ListConstruct %int1_500, %int0_501 : (!torch.int, !torch.int) -> !torch.list<int>
  %400 = torch.aten.permute %397, %399 : !torch.vtensor<[1024,32],f32>, !torch.list<int> -> !torch.vtensor<[32,1024],f32>
  %401 = torch.aten.mm %400, %277 : !torch.vtensor<[32,1024],f32>, !torch.vtensor<[1024,32],f32> -> !torch.vtensor<[32,32],f32>
  %int1_502 = torch.constant.int 1
  %int0_503 = torch.constant.int 0
  %402 = torch.prim.ListConstruct %int1_502, %int0_503 : (!torch.int, !torch.int) -> !torch.list<int>
  %int1_504 = torch.constant.int 1
  %int0_505 = torch.constant.int 0
  %403 = torch.prim.ListConstruct %int1_504, %int0_505 : (!torch.int, !torch.int) -> !torch.list<int>
  %404 = torch.aten.permute %401, %403 : !torch.vtensor<[32,32],f32>, !torch.list<int> -> !torch.vtensor<[32,32],f32>
  %405 = torch.aten.add.Tensor %arg130, %404, %arg129 : !torch.vtensor<[32,32],f32>, !torch.vtensor<[32,32],f32>, !torch.int -> !torch.vtensor<[32,32],f32>
  %406 = torch.aten.mul.Tensor %arg131, %arg57 : !torch.vtensor<[32,32],f32>, !torch.vtensor<[],f64> -> !torch.vtensor<[32,32],f32>
  %407 = torch.aten.addcmul %406, %405, %405, %arg128 : !torch.vtensor<[32,32],f32>, !torch.vtensor<[32,32],f32>, !torch.vtensor<[32,32],f32>, !torch.float -> !torch.vtensor<[32,32],f32>
  %408 = torch.aten.sqrt %407 : !torch.vtensor<[32,32],f32> -> !torch.vtensor<[32,32],f32>
  %409 = torch.aten.add.Tensor %408, %arg2, %arg127 : !torch.vtensor<[32,32],f32>, !torch.vtensor<[],f64>, !torch.int -> !torch.vtensor<[32,32],f32>
  %410 = torch.aten.mul.Tensor %arg133, %arg60 : !torch.vtensor<[32,32],f32>, !torch.vtensor<[],f64> -> !torch.vtensor<[32,32],f32>
  %411 = torch.aten.add.Tensor %410, %405, %arg132 : !torch.vtensor<[32,32],f32>, !torch.vtensor<[32,32],f32>, !torch.float -> !torch.vtensor<[32,32],f32>
  %412 = torch.aten.addcdiv %arg32, %411, %409, %arg126 : !torch.vtensor<[32,32],f32>, !torch.vtensor<[32,32],f32>, !torch.vtensor<[32,32],f32>, !torch.float -> !torch.vtensor<[32,32],f32>
  %int0_506 = torch.constant.int 0
  %413 = torch.prim.ListConstruct %int0_506 : (!torch.int) -> !torch.list<int>
  %true_507 = torch.constant.bool true
  %none_508 = torch.constant.none
  %414 = torch.aten.sum.dim_IntList %277, %413, %true_507, %none_508 : !torch.vtensor<[1024,32],f32>, !torch.list<int>, !torch.bool, !torch.none -> !torch.vtensor<[1,32],f32>
  %int32_509 = torch.constant.int 32
  %415 = torch.prim.ListConstruct %int32_509 : (!torch.int) -> !torch.list<int>
  %int32_510 = torch.constant.int 32
  %416 = torch.prim.ListConstruct %int32_510 : (!torch.int) -> !torch.list<int>
  %417 = torch.aten.reshape %414, %416 : !torch.vtensor<[1,32],f32>, !torch.list<int> -> !torch.vtensor<[32],f32>
  %418 = torch.aten.add.Tensor %arg138, %417, %arg137 : !torch.vtensor<[32],f32>, !torch.vtensor<[32],f32>, !torch.int -> !torch.vtensor<[32],f32>
  %419 = torch.aten.mul.Tensor %arg139, %arg57 : !torch.vtensor<[32],f32>, !torch.vtensor<[],f64> -> !torch.vtensor<[32],f32>
  %420 = torch.aten.addcmul %419, %418, %418, %arg136 : !torch.vtensor<[32],f32>, !torch.vtensor<[32],f32>, !torch.vtensor<[32],f32>, !torch.float -> !torch.vtensor<[32],f32>
  %421 = torch.aten.sqrt %420 : !torch.vtensor<[32],f32> -> !torch.vtensor<[32],f32>
  %422 = torch.aten.add.Tensor %421, %arg2, %arg135 : !torch.vtensor<[32],f32>, !torch.vtensor<[],f64>, !torch.int -> !torch.vtensor<[32],f32>
  %423 = torch.aten.mul.Tensor %arg141, %arg60 : !torch.vtensor<[32],f32>, !torch.vtensor<[],f64> -> !torch.vtensor<[32],f32>
  %424 = torch.aten.add.Tensor %423, %418, %arg140 : !torch.vtensor<[32],f32>, !torch.vtensor<[32],f32>, !torch.float -> !torch.vtensor<[32],f32>
  %425 = torch.aten.addcdiv %arg33, %424, %422, %arg134 : !torch.vtensor<[32],f32>, !torch.vtensor<[32],f32>, !torch.vtensor<[32],f32>, !torch.float -> !torch.vtensor<[32],f32>
  %int0_511 = torch.constant.int 0
  %int2_512 = torch.constant.int 2
  %int1_513 = torch.constant.int 1
  %int3_514 = torch.constant.int 3
  %426 = torch.prim.ListConstruct %int0_511, %int2_512, %int1_513, %int3_514 : (!torch.int, !torch.int, !torch.int, !torch.int) -> !torch.list<int>
  %int0_515 = torch.constant.int 0
  %int2_516 = torch.constant.int 2
  %int1_517 = torch.constant.int 1
  %int3_518 = torch.constant.int 3
  %427 = torch.prim.ListConstruct %int0_515, %int2_516, %int1_517, %int3_518 : (!torch.int, !torch.int, !torch.int, !torch.int) -> !torch.list<int>
  %428 = torch.aten.permute %115, %427 : !torch.vtensor<[2,2,512,16],f32>, !torch.list<int> -> !torch.vtensor<[2,512,2,16],f32>
  %int2_519 = torch.constant.int 2
  %int512_520 = torch.constant.int 512
  %int32_521 = torch.constant.int 32
  %429 = torch.prim.ListConstruct %int2_519, %int512_520, %int32_521 : (!torch.int, !torch.int, !torch.int) -> !torch.list<int>
  %int2_522 = torch.constant.int 2
  %int512_523 = torch.constant.int 512
  %int32_524 = torch.constant.int 32
  %430 = torch.prim.ListConstruct %int2_522, %int512_523, %int32_524 : (!torch.int, !torch.int, !torch.int) -> !torch.list<int>
  %431 = torch.aten.reshape %428, %430 : !torch.vtensor<[2,512,2,16],f32>, !torch.list<int> -> !torch.vtensor<[2,512,32],f32>
  %int1024_525 = torch.constant.int 1024
  %int32_526 = torch.constant.int 32
  %432 = torch.prim.ListConstruct %int1024_525, %int32_526 : (!torch.int, !torch.int) -> !torch.list<int>
  %int1024_527 = torch.constant.int 1024
  %int32_528 = torch.constant.int 32
  %433 = torch.prim.ListConstruct %int1024_527, %int32_528 : (!torch.int, !torch.int) -> !torch.list<int>
  %434 = torch.aten.reshape %431, %433 : !torch.vtensor<[2,512,32],f32>, !torch.list<int> -> !torch.vtensor<[1024,32],f32>
  %int1_529 = torch.constant.int 1
  %int0_530 = torch.constant.int 0
  %435 = torch.prim.ListConstruct %int1_529, %int0_530 : (!torch.int, !torch.int) -> !torch.list<int>
  %int1_531 = torch.constant.int 1
  %int0_532 = torch.constant.int 0
  %436 = torch.prim.ListConstruct %int1_531, %int0_532 : (!torch.int, !torch.int) -> !torch.list<int>
  %437 = torch.aten.permute %434, %436 : !torch.vtensor<[1024,32],f32>, !torch.list<int> -> !torch.vtensor<[32,1024],f32>
  %438 = torch.aten.mm %437, %193 : !torch.vtensor<[32,1024],f32>, !torch.vtensor<[1024,32],f32> -> !torch.vtensor<[32,32],f32>
  %int1_533 = torch.constant.int 1
  %int0_534 = torch.constant.int 0
  %439 = torch.prim.ListConstruct %int1_533, %int0_534 : (!torch.int, !torch.int) -> !torch.list<int>
  %int1_535 = torch.constant.int 1
  %int0_536 = torch.constant.int 0
  %440 = torch.prim.ListConstruct %int1_535, %int0_536 : (!torch.int, !torch.int) -> !torch.list<int>
  %441 = torch.aten.permute %438, %440 : !torch.vtensor<[32,32],f32>, !torch.list<int> -> !torch.vtensor<[32,32],f32>
  %442 = torch.aten.add.Tensor %arg146, %441, %arg145 : !torch.vtensor<[32,32],f32>, !torch.vtensor<[32,32],f32>, !torch.int -> !torch.vtensor<[32,32],f32>
  %443 = torch.aten.mul.Tensor %arg147, %arg57 : !torch.vtensor<[32,32],f32>, !torch.vtensor<[],f64> -> !torch.vtensor<[32,32],f32>
  %444 = torch.aten.addcmul %443, %442, %442, %arg144 : !torch.vtensor<[32,32],f32>, !torch.vtensor<[32,32],f32>, !torch.vtensor<[32,32],f32>, !torch.float -> !torch.vtensor<[32,32],f32>
  %445 = torch.aten.sqrt %444 : !torch.vtensor<[32,32],f32> -> !torch.vtensor<[32,32],f32>
  %446 = torch.aten.add.Tensor %445, %arg2, %arg143 : !torch.vtensor<[32,32],f32>, !torch.vtensor<[],f64>, !torch.int -> !torch.vtensor<[32,32],f32>
  %447 = torch.aten.mul.Tensor %arg149, %arg60 : !torch.vtensor<[32,32],f32>, !torch.vtensor<[],f64> -> !torch.vtensor<[32,32],f32>
  %448 = torch.aten.add.Tensor %447, %442, %arg148 : !torch.vtensor<[32,32],f32>, !torch.vtensor<[32,32],f32>, !torch.float -> !torch.vtensor<[32,32],f32>
  %449 = torch.aten.addcdiv %arg34, %448, %446, %arg142 : !torch.vtensor<[32,32],f32>, !torch.vtensor<[32,32],f32>, !torch.vtensor<[32,32],f32>, !torch.float -> !torch.vtensor<[32,32],f32>
  %int0_537 = torch.constant.int 0
  %450 = torch.prim.ListConstruct %int0_537 : (!torch.int) -> !torch.list<int>
  %true_538 = torch.constant.bool true
  %none_539 = torch.constant.none
  %451 = torch.aten.sum.dim_IntList %193, %450, %true_538, %none_539 : !torch.vtensor<[1024,32],f32>, !torch.list<int>, !torch.bool, !torch.none -> !torch.vtensor<[1,32],f32>
  %int32_540 = torch.constant.int 32
  %452 = torch.prim.ListConstruct %int32_540 : (!torch.int) -> !torch.list<int>
  %int32_541 = torch.constant.int 32
  %453 = torch.prim.ListConstruct %int32_541 : (!torch.int) -> !torch.list<int>
  %454 = torch.aten.reshape %451, %453 : !torch.vtensor<[1,32],f32>, !torch.list<int> -> !torch.vtensor<[32],f32>
  %455 = torch.aten.add.Tensor %arg154, %454, %arg153 : !torch.vtensor<[32],f32>, !torch.vtensor<[32],f32>, !torch.int -> !torch.vtensor<[32],f32>
  %456 = torch.aten.mul.Tensor %arg155, %arg57 : !torch.vtensor<[32],f32>, !torch.vtensor<[],f64> -> !torch.vtensor<[32],f32>
  %457 = torch.aten.addcmul %456, %455, %455, %arg152 : !torch.vtensor<[32],f32>, !torch.vtensor<[32],f32>, !torch.vtensor<[32],f32>, !torch.float -> !torch.vtensor<[32],f32>
  %458 = torch.aten.sqrt %457 : !torch.vtensor<[32],f32> -> !torch.vtensor<[32],f32>
  %459 = torch.aten.add.Tensor %458, %arg2, %arg151 : !torch.vtensor<[32],f32>, !torch.vtensor<[],f64>, !torch.int -> !torch.vtensor<[32],f32>
  %460 = torch.aten.mul.Tensor %arg157, %arg60 : !torch.vtensor<[32],f32>, !torch.vtensor<[],f64> -> !torch.vtensor<[32],f32>
  %461 = torch.aten.add.Tensor %460, %455, %arg156 : !torch.vtensor<[32],f32>, !torch.vtensor<[32],f32>, !torch.float -> !torch.vtensor<[32],f32>
  %462 = torch.aten.addcdiv %arg40, %461, %459, %arg150 : !torch.vtensor<[32],f32>, !torch.vtensor<[32],f32>, !torch.vtensor<[32],f32>, !torch.float -> !torch.vtensor<[32],f32>
  %463 = torch.aten.add.Tensor %arg162, %result1_290, %arg161 : !torch.vtensor<[32],f32>, !torch.vtensor<[32],f32>, !torch.int -> !torch.vtensor<[32],f32>
  %464 = torch.aten.mul.Tensor %arg163, %arg57 : !torch.vtensor<[32],f32>, !torch.vtensor<[],f64> -> !torch.vtensor<[32],f32>
  %465 = torch.aten.addcmul %464, %463, %463, %arg160 : !torch.vtensor<[32],f32>, !torch.vtensor<[32],f32>, !torch.vtensor<[32],f32>, !torch.float -> !torch.vtensor<[32],f32>
  %466 = torch.aten.sqrt %465 : !torch.vtensor<[32],f32> -> !torch.vtensor<[32],f32>
  %467 = torch.aten.add.Tensor %466, %arg2, %arg159 : !torch.vtensor<[32],f32>, !torch.vtensor<[],f64>, !torch.int -> !torch.vtensor<[32],f32>
  %468 = torch.aten.mul.Tensor %arg165, %arg60 : !torch.vtensor<[32],f32>, !torch.vtensor<[],f64> -> !torch.vtensor<[32],f32>
  %469 = torch.aten.add.Tensor %468, %463, %arg164 : !torch.vtensor<[32],f32>, !torch.vtensor<[32],f32>, !torch.float -> !torch.vtensor<[32],f32>
  %470 = torch.aten.addcdiv %arg36, %469, %467, %arg158 : !torch.vtensor<[32],f32>, !torch.vtensor<[32],f32>, !torch.vtensor<[32],f32>, !torch.float -> !torch.vtensor<[32],f32>
  %471 = torch.aten.add.Tensor %arg170, %result2_291, %arg169 : !torch.vtensor<[32],f32>, !torch.vtensor<[32],f32>, !torch.int -> !torch.vtensor<[32],f32>
  %472 = torch.aten.mul.Tensor %arg171, %arg57 : !torch.vtensor<[32],f32>, !torch.vtensor<[],f64> -> !torch.vtensor<[32],f32>
  %473 = torch.aten.addcmul %472, %471, %471, %arg168 : !torch.vtensor<[32],f32>, !torch.vtensor<[32],f32>, !torch.vtensor<[32],f32>, !torch.float -> !torch.vtensor<[32],f32>
  %474 = torch.aten.sqrt %473 : !torch.vtensor<[32],f32> -> !torch.vtensor<[32],f32>
  %475 = torch.aten.add.Tensor %474, %arg2, %arg167 : !torch.vtensor<[32],f32>, !torch.vtensor<[],f64>, !torch.int -> !torch.vtensor<[32],f32>
  %476 = torch.aten.mul.Tensor %arg173, %arg60 : !torch.vtensor<[32],f32>, !torch.vtensor<[],f64> -> !torch.vtensor<[32],f32>
  %477 = torch.aten.add.Tensor %476, %471, %arg172 : !torch.vtensor<[32],f32>, !torch.vtensor<[32],f32>, !torch.float -> !torch.vtensor<[32],f32>
  %478 = torch.aten.addcdiv %arg35, %477, %475, %arg166 : !torch.vtensor<[32],f32>, !torch.vtensor<[32],f32>, !torch.vtensor<[32],f32>, !torch.float -> !torch.vtensor<[32],f32>
  %int1024_542 = torch.constant.int 1024
  %int32_543 = torch.constant.int 32
  %479 = torch.prim.ListConstruct %int1024_542, %int32_543 : (!torch.int, !torch.int) -> !torch.list<int>
  %int1024_544 = torch.constant.int 1024
  %int32_545 = torch.constant.int 32
  %480 = torch.prim.ListConstruct %int1024_544, %int32_545 : (!torch.int, !torch.int) -> !torch.list<int>
  %481 = torch.aten.reshape %result0_210, %480 : !torch.vtensor<[2,512,32],f32>, !torch.list<int> -> !torch.vtensor<[1024,32],f32>
  %int1_546 = torch.constant.int 1
  %int0_547 = torch.constant.int 0
  %482 = torch.prim.ListConstruct %int1_546, %int0_547 : (!torch.int, !torch.int) -> !torch.list<int>
  %int1_548 = torch.constant.int 1
  %int0_549 = torch.constant.int 0
  %483 = torch.prim.ListConstruct %int1_548, %int0_549 : (!torch.int, !torch.int) -> !torch.list<int>
  %484 = torch.aten.permute %481, %483 : !torch.vtensor<[1024,32],f32>, !torch.list<int> -> !torch.vtensor<[32,1024],f32>
  %485 = torch.aten.mm %484, %182 : !torch.vtensor<[32,1024],f32>, !torch.vtensor<[1024,32],f32> -> !torch.vtensor<[32,32],f32>
  %int1_550 = torch.constant.int 1
  %int0_551 = torch.constant.int 0
  %486 = torch.prim.ListConstruct %int1_550, %int0_551 : (!torch.int, !torch.int) -> !torch.list<int>
  %int1_552 = torch.constant.int 1
  %int0_553 = torch.constant.int 0
  %487 = torch.prim.ListConstruct %int1_552, %int0_553 : (!torch.int, !torch.int) -> !torch.list<int>
  %488 = torch.aten.permute %485, %487 : !torch.vtensor<[32,32],f32>, !torch.list<int> -> !torch.vtensor<[32,32],f32>
  %489 = torch.aten.add.Tensor %arg178, %488, %arg177 : !torch.vtensor<[32,32],f32>, !torch.vtensor<[32,32],f32>, !torch.int -> !torch.vtensor<[32,32],f32>
  %490 = torch.aten.mul.Tensor %arg179, %arg57 : !torch.vtensor<[32,32],f32>, !torch.vtensor<[],f64> -> !torch.vtensor<[32,32],f32>
  %491 = torch.aten.addcmul %490, %489, %489, %arg176 : !torch.vtensor<[32,32],f32>, !torch.vtensor<[32,32],f32>, !torch.vtensor<[32,32],f32>, !torch.float -> !torch.vtensor<[32,32],f32>
  %492 = torch.aten.sqrt %491 : !torch.vtensor<[32,32],f32> -> !torch.vtensor<[32,32],f32>
  %493 = torch.aten.add.Tensor %492, %arg2, %arg175 : !torch.vtensor<[32,32],f32>, !torch.vtensor<[],f64>, !torch.int -> !torch.vtensor<[32,32],f32>
  %494 = torch.aten.mul.Tensor %arg181, %arg60 : !torch.vtensor<[32,32],f32>, !torch.vtensor<[],f64> -> !torch.vtensor<[32,32],f32>
  %495 = torch.aten.add.Tensor %494, %489, %arg180 : !torch.vtensor<[32,32],f32>, !torch.vtensor<[32,32],f32>, !torch.float -> !torch.vtensor<[32,32],f32>
  %496 = torch.aten.addcdiv %arg42, %495, %493, %arg174 : !torch.vtensor<[32,32],f32>, !torch.vtensor<[32,32],f32>, !torch.vtensor<[32,32],f32>, !torch.float -> !torch.vtensor<[32,32],f32>
  %int0_554 = torch.constant.int 0
  %497 = torch.prim.ListConstruct %int0_554 : (!torch.int) -> !torch.list<int>
  %true_555 = torch.constant.bool true
  %none_556 = torch.constant.none
  %498 = torch.aten.sum.dim_IntList %182, %497, %true_555, %none_556 : !torch.vtensor<[1024,32],f32>, !torch.list<int>, !torch.bool, !torch.none -> !torch.vtensor<[1,32],f32>
  %int32_557 = torch.constant.int 32
  %499 = torch.prim.ListConstruct %int32_557 : (!torch.int) -> !torch.list<int>
  %int32_558 = torch.constant.int 32
  %500 = torch.prim.ListConstruct %int32_558 : (!torch.int) -> !torch.list<int>
  %501 = torch.aten.reshape %498, %500 : !torch.vtensor<[1,32],f32>, !torch.list<int> -> !torch.vtensor<[32],f32>
  %502 = torch.aten.add.Tensor %arg186, %501, %arg185 : !torch.vtensor<[32],f32>, !torch.vtensor<[32],f32>, !torch.int -> !torch.vtensor<[32],f32>
  %503 = torch.aten.mul.Tensor %arg187, %arg57 : !torch.vtensor<[32],f32>, !torch.vtensor<[],f64> -> !torch.vtensor<[32],f32>
  %504 = torch.aten.addcmul %503, %502, %502, %arg184 : !torch.vtensor<[32],f32>, !torch.vtensor<[32],f32>, !torch.vtensor<[32],f32>, !torch.float -> !torch.vtensor<[32],f32>
  %505 = torch.aten.sqrt %504 : !torch.vtensor<[32],f32> -> !torch.vtensor<[32],f32>
  %506 = torch.aten.add.Tensor %505, %arg2, %arg183 : !torch.vtensor<[32],f32>, !torch.vtensor<[],f64>, !torch.int -> !torch.vtensor<[32],f32>
  %507 = torch.aten.mul.Tensor %arg189, %arg60 : !torch.vtensor<[32],f32>, !torch.vtensor<[],f64> -> !torch.vtensor<[32],f32>
  %508 = torch.aten.add.Tensor %507, %502, %arg188 : !torch.vtensor<[32],f32>, !torch.vtensor<[32],f32>, !torch.float -> !torch.vtensor<[32],f32>
  %509 = torch.aten.addcdiv %arg45, %508, %506, %arg182 : !torch.vtensor<[32],f32>, !torch.vtensor<[32],f32>, !torch.vtensor<[32],f32>, !torch.float -> !torch.vtensor<[32],f32>
  %int1024_559 = torch.constant.int 1024
  %int32_560 = torch.constant.int 32
  %510 = torch.prim.ListConstruct %int1024_559, %int32_560 : (!torch.int, !torch.int) -> !torch.list<int>
  %int1024_561 = torch.constant.int 1024
  %int32_562 = torch.constant.int 32
  %511 = torch.prim.ListConstruct %int1024_561, %int32_562 : (!torch.int, !torch.int) -> !torch.list<int>
  %512 = torch.aten.reshape %157, %511 : !torch.vtensor<[2,512,32],f32>, !torch.list<int> -> !torch.vtensor<[1024,32],f32>
  %int1_563 = torch.constant.int 1
  %int0_564 = torch.constant.int 0
  %513 = torch.prim.ListConstruct %int1_563, %int0_564 : (!torch.int, !torch.int) -> !torch.list<int>
  %int1_565 = torch.constant.int 1
  %int0_566 = torch.constant.int 0
  %514 = torch.prim.ListConstruct %int1_565, %int0_566 : (!torch.int, !torch.int) -> !torch.list<int>
  %515 = torch.aten.permute %512, %514 : !torch.vtensor<[1024,32],f32>, !torch.list<int> -> !torch.vtensor<[32,1024],f32>
  %516 = torch.aten.mm %515, %174 : !torch.vtensor<[32,1024],f32>, !torch.vtensor<[1024,32],f32> -> !torch.vtensor<[32,32],f32>
  %int1_567 = torch.constant.int 1
  %int0_568 = torch.constant.int 0
  %517 = torch.prim.ListConstruct %int1_567, %int0_568 : (!torch.int, !torch.int) -> !torch.list<int>
  %int1_569 = torch.constant.int 1
  %int0_570 = torch.constant.int 0
  %518 = torch.prim.ListConstruct %int1_569, %int0_570 : (!torch.int, !torch.int) -> !torch.list<int>
  %519 = torch.aten.permute %516, %518 : !torch.vtensor<[32,32],f32>, !torch.list<int> -> !torch.vtensor<[32,32],f32>
  %520 = torch.aten.add.Tensor %arg194, %519, %arg193 : !torch.vtensor<[32,32],f32>, !torch.vtensor<[32,32],f32>, !torch.int -> !torch.vtensor<[32,32],f32>
  %521 = torch.aten.mul.Tensor %arg195, %arg57 : !torch.vtensor<[32,32],f32>, !torch.vtensor<[],f64> -> !torch.vtensor<[32,32],f32>
  %522 = torch.aten.addcmul %521, %520, %520, %arg192 : !torch.vtensor<[32,32],f32>, !torch.vtensor<[32,32],f32>, !torch.vtensor<[32,32],f32>, !torch.float -> !torch.vtensor<[32,32],f32>
  %523 = torch.aten.sqrt %522 : !torch.vtensor<[32,32],f32> -> !torch.vtensor<[32,32],f32>
  %524 = torch.aten.add.Tensor %523, %arg2, %arg191 : !torch.vtensor<[32,32],f32>, !torch.vtensor<[],f64>, !torch.int -> !torch.vtensor<[32,32],f32>
  %525 = torch.aten.mul.Tensor %arg197, %arg60 : !torch.vtensor<[32,32],f32>, !torch.vtensor<[],f64> -> !torch.vtensor<[32,32],f32>
  %526 = torch.aten.add.Tensor %525, %520, %arg196 : !torch.vtensor<[32,32],f32>, !torch.vtensor<[32,32],f32>, !torch.float -> !torch.vtensor<[32,32],f32>
  %527 = torch.aten.addcdiv %arg46, %526, %524, %arg190 : !torch.vtensor<[32,32],f32>, !torch.vtensor<[32,32],f32>, !torch.vtensor<[32,32],f32>, !torch.float -> !torch.vtensor<[32,32],f32>
  %int0_571 = torch.constant.int 0
  %528 = torch.prim.ListConstruct %int0_571 : (!torch.int) -> !torch.list<int>
  %true_572 = torch.constant.bool true
  %none_573 = torch.constant.none
  %529 = torch.aten.sum.dim_IntList %174, %528, %true_572, %none_573 : !torch.vtensor<[1024,32],f32>, !torch.list<int>, !torch.bool, !torch.none -> !torch.vtensor<[1,32],f32>
  %int32_574 = torch.constant.int 32
  %530 = torch.prim.ListConstruct %int32_574 : (!torch.int) -> !torch.list<int>
  %int32_575 = torch.constant.int 32
  %531 = torch.prim.ListConstruct %int32_575 : (!torch.int) -> !torch.list<int>
  %532 = torch.aten.reshape %529, %531 : !torch.vtensor<[1,32],f32>, !torch.list<int> -> !torch.vtensor<[32],f32>
  %533 = torch.aten.add.Tensor %arg202, %532, %arg201 : !torch.vtensor<[32],f32>, !torch.vtensor<[32],f32>, !torch.int -> !torch.vtensor<[32],f32>
  %534 = torch.aten.mul.Tensor %arg203, %arg57 : !torch.vtensor<[32],f32>, !torch.vtensor<[],f64> -> !torch.vtensor<[32],f32>
  %535 = torch.aten.addcmul %534, %533, %533, %arg200 : !torch.vtensor<[32],f32>, !torch.vtensor<[32],f32>, !torch.vtensor<[32],f32>, !torch.float -> !torch.vtensor<[32],f32>
  %536 = torch.aten.sqrt %535 : !torch.vtensor<[32],f32> -> !torch.vtensor<[32],f32>
  %537 = torch.aten.add.Tensor %536, %arg2, %arg199 : !torch.vtensor<[32],f32>, !torch.vtensor<[],f64>, !torch.int -> !torch.vtensor<[32],f32>
  %538 = torch.aten.mul.Tensor %arg205, %arg60 : !torch.vtensor<[32],f32>, !torch.vtensor<[],f64> -> !torch.vtensor<[32],f32>
  %539 = torch.aten.add.Tensor %538, %533, %arg204 : !torch.vtensor<[32],f32>, !torch.vtensor<[32],f32>, !torch.float -> !torch.vtensor<[32],f32>
  %540 = torch.aten.addcdiv %arg52, %539, %537, %arg198 : !torch.vtensor<[32],f32>, !torch.vtensor<[32],f32>, !torch.vtensor<[32],f32>, !torch.float -> !torch.vtensor<[32],f32>
  %541 = torch.aten.add.Tensor %arg210, %result1_264, %arg209 : !torch.vtensor<[32],f32>, !torch.vtensor<[32],f32>, !torch.int -> !torch.vtensor<[32],f32>
  %542 = torch.aten.mul.Tensor %arg211, %arg57 : !torch.vtensor<[32],f32>, !torch.vtensor<[],f64> -> !torch.vtensor<[32],f32>
  %543 = torch.aten.addcmul %542, %541, %541, %arg208 : !torch.vtensor<[32],f32>, !torch.vtensor<[32],f32>, !torch.vtensor<[32],f32>, !torch.float -> !torch.vtensor<[32],f32>
  %544 = torch.aten.sqrt %543 : !torch.vtensor<[32],f32> -> !torch.vtensor<[32],f32>
  %545 = torch.aten.add.Tensor %544, %arg2, %arg207 : !torch.vtensor<[32],f32>, !torch.vtensor<[],f64>, !torch.int -> !torch.vtensor<[32],f32>
  %546 = torch.aten.mul.Tensor %arg213, %arg60 : !torch.vtensor<[32],f32>, !torch.vtensor<[],f64> -> !torch.vtensor<[32],f32>
  %547 = torch.aten.add.Tensor %546, %541, %arg212 : !torch.vtensor<[32],f32>, !torch.vtensor<[32],f32>, !torch.float -> !torch.vtensor<[32],f32>
  %548 = torch.aten.addcdiv %arg48, %547, %545, %arg206 : !torch.vtensor<[32],f32>, !torch.vtensor<[32],f32>, !torch.vtensor<[32],f32>, !torch.float -> !torch.vtensor<[32],f32>
  %549 = torch.aten.add.Tensor %arg218, %result2_265, %arg217 : !torch.vtensor<[32],f32>, !torch.vtensor<[32],f32>, !torch.int -> !torch.vtensor<[32],f32>
  %550 = torch.aten.mul.Tensor %arg219, %arg57 : !torch.vtensor<[32],f32>, !torch.vtensor<[],f64> -> !torch.vtensor<[32],f32>
  %551 = torch.aten.addcmul %550, %549, %549, %arg216 : !torch.vtensor<[32],f32>, !torch.vtensor<[32],f32>, !torch.vtensor<[32],f32>, !torch.float -> !torch.vtensor<[32],f32>
  %552 = torch.aten.sqrt %551 : !torch.vtensor<[32],f32> -> !torch.vtensor<[32],f32>
  %553 = torch.aten.add.Tensor %552, %arg2, %arg215 : !torch.vtensor<[32],f32>, !torch.vtensor<[],f64>, !torch.int -> !torch.vtensor<[32],f32>
  %554 = torch.aten.mul.Tensor %arg221, %arg60 : !torch.vtensor<[32],f32>, !torch.vtensor<[],f64> -> !torch.vtensor<[32],f32>
  %555 = torch.aten.add.Tensor %554, %549, %arg220 : !torch.vtensor<[32],f32>, !torch.vtensor<[32],f32>, !torch.float -> !torch.vtensor<[32],f32>
  %556 = torch.aten.addcdiv %arg47, %555, %553, %arg214 : !torch.vtensor<[32],f32>, !torch.vtensor<[32],f32>, !torch.vtensor<[32],f32>, !torch.float -> !torch.vtensor<[32],f32>
  %int1_576 = torch.constant.int 1
  %int0_577 = torch.constant.int 0
  %557 = torch.prim.ListConstruct %int1_576, %int0_577 : (!torch.int, !torch.int) -> !torch.list<int>
  %int1_578 = torch.constant.int 1
  %int0_579 = torch.constant.int 0
  %558 = torch.prim.ListConstruct %int1_578, %int0_579 : (!torch.int, !torch.int) -> !torch.list<int>
  %559 = torch.aten.permute %arg228, %558 : !torch.vtensor<[32,32],f32>, !torch.list<int> -> !torch.vtensor<[32,32],f32>
  %int0_580 = torch.constant.int 0
  %int0_581 = torch.constant.int 0
  %int9223372036854775807_582 = torch.constant.int 9223372036854775807
  %int1_583 = torch.constant.int 1
  %560 = torch.aten.slice.Tensor %result0_259, %int0_580, %int0_581, %int9223372036854775807_582, %int1_583 : !torch.vtensor<[2,512,32],f32>, !torch.int, !torch.int, !torch.int, !torch.int -> !torch.vtensor<[2,512,32],f32>
  %int1_584 = torch.constant.int 1
  %int0_585 = torch.constant.int 0
  %561 = torch.aten.select.int %560, %int1_584, %int0_585 : !torch.vtensor<[2,512,32],f32>, !torch.int, !torch.int -> !torch.vtensor<[2,32],f32>
  %562 = torch.aten.addmm %arg229, %561, %559, %arg227, %arg226 : !torch.vtensor<[32],f32>, !torch.vtensor<[2,32],f32>, !torch.vtensor<[32,32],f32>, !torch.int, !torch.int -> !torch.vtensor<[2,32],f32>
  %563 = torch.aten.tanh %562 : !torch.vtensor<[2,32],f32> -> !torch.vtensor<[2,32],f32>
  %int1_586 = torch.constant.int 1
  %int0_587 = torch.constant.int 0
  %564 = torch.prim.ListConstruct %int1_586, %int0_587 : (!torch.int, !torch.int) -> !torch.list<int>
  %int1_588 = torch.constant.int 1
  %int0_589 = torch.constant.int 0
  %565 = torch.prim.ListConstruct %int1_588, %int0_589 : (!torch.int, !torch.int) -> !torch.list<int>
  %566 = torch.aten.permute %arg230, %565 : !torch.vtensor<[2,32],f32>, !torch.list<int> -> !torch.vtensor<[32,2],f32>
  %int1_590 = torch.constant.int 1
  %int0_591 = torch.constant.int 0
  %567 = torch.prim.ListConstruct %int1_590, %int0_591 : (!torch.int, !torch.int) -> !torch.list<int>
  %int1_592 = torch.constant.int 1
  %int0_593 = torch.constant.int 0
  %568 = torch.prim.ListConstruct %int1_592, %int0_593 : (!torch.int, !torch.int) -> !torch.list<int>
  %569 = torch.aten.permute %566, %568 : !torch.vtensor<[32,2],f32>, !torch.list<int> -> !torch.vtensor<[2,32],f32>
  %int1_594 = torch.constant.int 1
  %int0_595 = torch.constant.int 0
  %570 = torch.prim.ListConstruct %int1_594, %int0_595 : (!torch.int, !torch.int) -> !torch.list<int>
  %int1_596 = torch.constant.int 1
  %int0_597 = torch.constant.int 0
  %571 = torch.prim.ListConstruct %int1_596, %int0_597 : (!torch.int, !torch.int) -> !torch.list<int>
  %572 = torch.aten.permute %arg230, %571 : !torch.vtensor<[2,32],f32>, !torch.list<int> -> !torch.vtensor<[32,2],f32>
  %573 = torch.aten.addmm %arg233, %563, %572, %arg232, %arg231 : !torch.vtensor<[2],f32>, !torch.vtensor<[2,32],f32>, !torch.vtensor<[32,2],f32>, !torch.int, !torch.int -> !torch.vtensor<[2,2],f32>
  %int2_598 = torch.constant.int 2
  %574 = torch.prim.ListConstruct %int2_598, %int2_598 : (!torch.int, !torch.int) -> !torch.list<int>
  %int2_599 = torch.constant.int 2
  %575 = torch.prim.ListConstruct %int2_599, %int2_599 : (!torch.int, !torch.int) -> !torch.list<int>
  %576 = torch.aten.reshape %573, %575 : !torch.vtensor<[2,2],f32>, !torch.list<int> -> !torch.vtensor<[2,2],f32>
  %int1_600 = torch.constant.int 1
  %false_601 = torch.constant.bool false
  %577 = torch.aten._log_softmax %576, %int1_600, %false_601 : !torch.vtensor<[2,2],f32>, !torch.int, !torch.bool -> !torch.vtensor<[2,2],f32>
  %int2_602 = torch.constant.int 2
  %578 = torch.prim.ListConstruct %int2_602 : (!torch.int) -> !torch.list<int>
  %int2_603 = torch.constant.int 2
  %579 = torch.prim.ListConstruct %int2_603 : (!torch.int) -> !torch.list<int>
  %580 = torch.aten.reshape %arg234, %579 : !torch.vtensor<[2],si64>, !torch.list<int> -> !torch.vtensor<[2],si64>
  %none_604 = torch.constant.none
  %int1_605 = torch.constant.int 1
  %int-100 = torch.constant.int -100
  %output, %total_weight = torch.aten.nll_loss_forward %577, %580, %none_604, %int1_605, %int-100 : !torch.vtensor<[2,2],f32>, !torch.vtensor<[2],si64>, !torch.none, !torch.int, !torch.int -> !torch.vtensor<[],f32>, !torch.vtensor<[],f32>
  %581 = torch.prim.TupleConstruct %output, %total_weight : !torch.vtensor<[],f32>, !torch.vtensor<[],f32> -> !torch.tuple<vtensor<[],f32>, vtensor<[],f32>>
  %none_606 = torch.constant.none
  %int1_607 = torch.constant.int 1
  %int-100_608 = torch.constant.int -100
  %582 = torch.aten.nll_loss_backward %arg235, %577, %580, %none_606, %int1_607, %int-100_608, %total_weight : !torch.vtensor<[],f32>, !torch.vtensor<[2,2],f32>, !torch.vtensor<[2],si64>, !torch.none, !torch.int, !torch.int, !torch.vtensor<[],f32> -> !torch.vtensor<[2,2],f32>
  %int1_609 = torch.constant.int 1
  %int6_610 = torch.constant.int 6
  %583 = torch.aten._log_softmax_backward_data %582, %577, %int1_609, %int6_610 : !torch.vtensor<[2,2],f32>, !torch.vtensor<[2,2],f32>, !torch.int, !torch.int -> !torch.vtensor<[2,2],f32>
  %int2_611 = torch.constant.int 2
  %584 = torch.prim.ListConstruct %int2_611, %int2_611 : (!torch.int, !torch.int) -> !torch.list<int>
  %int2_612 = torch.constant.int 2
  %585 = torch.prim.ListConstruct %int2_612, %int2_612 : (!torch.int, !torch.int) -> !torch.list<int>
  %586 = torch.aten.reshape %583, %585 : !torch.vtensor<[2,2],f32>, !torch.list<int> -> !torch.vtensor<[2,2],f32>
  %587 = torch.aten.mm %586, %569 : !torch.vtensor<[2,2],f32>, !torch.vtensor<[2,32],f32> -> !torch.vtensor<[2,32],f32>
  %588 = torch.aten.tanh_backward %587, %563 : !torch.vtensor<[2,32],f32>, !torch.vtensor<[2,32],f32> -> !torch.vtensor<[2,32],f32>
  %int1_613 = torch.constant.int 1
  %int0_614 = torch.constant.int 0
  %589 = torch.prim.ListConstruct %int1_613, %int0_614 : (!torch.int, !torch.int) -> !torch.list<int>
  %int1_615 = torch.constant.int 1
  %int0_616 = torch.constant.int 0
  %590 = torch.prim.ListConstruct %int1_615, %int0_616 : (!torch.int, !torch.int) -> !torch.list<int>
  %591 = torch.aten.permute %561, %590 : !torch.vtensor<[2,32],f32>, !torch.list<int> -> !torch.vtensor<[32,2],f32>
  %592 = torch.aten.mm %591, %588 : !torch.vtensor<[32,2],f32>, !torch.vtensor<[2,32],f32> -> !torch.vtensor<[32,32],f32>
  %int1_617 = torch.constant.int 1
  %int0_618 = torch.constant.int 0
  %593 = torch.prim.ListConstruct %int1_617, %int0_618 : (!torch.int, !torch.int) -> !torch.list<int>
  %int1_619 = torch.constant.int 1
  %int0_620 = torch.constant.int 0
  %594 = torch.prim.ListConstruct %int1_619, %int0_620 : (!torch.int, !torch.int) -> !torch.list<int>
  %595 = torch.aten.permute %592, %594 : !torch.vtensor<[32,32],f32>, !torch.list<int> -> !torch.vtensor<[32,32],f32>
  %596 = torch.aten.add.Tensor %arg236, %595, %arg225 : !torch.vtensor<[32,32],f32>, !torch.vtensor<[32,32],f32>, !torch.int -> !torch.vtensor<[32,32],f32>
  %597 = torch.aten.mul.Tensor %arg237, %arg57 : !torch.vtensor<[32,32],f32>, !torch.vtensor<[],f64> -> !torch.vtensor<[32,32],f32>
  %598 = torch.aten.addcmul %597, %596, %596, %arg224 : !torch.vtensor<[32,32],f32>, !torch.vtensor<[32,32],f32>, !torch.vtensor<[32,32],f32>, !torch.float -> !torch.vtensor<[32,32],f32>
  %599 = torch.aten.sqrt %598 : !torch.vtensor<[32,32],f32> -> !torch.vtensor<[32,32],f32>
  %600 = torch.aten.add.Tensor %599, %arg2, %arg223 : !torch.vtensor<[32,32],f32>, !torch.vtensor<[],f64>, !torch.int -> !torch.vtensor<[32,32],f32>
  %601 = torch.aten.mul.Tensor %arg239, %arg60 : !torch.vtensor<[32,32],f32>, !torch.vtensor<[],f64> -> !torch.vtensor<[32,32],f32>
  %602 = torch.aten.add.Tensor %601, %596, %arg238 : !torch.vtensor<[32,32],f32>, !torch.vtensor<[32,32],f32>, !torch.float -> !torch.vtensor<[32,32],f32>
  %603 = torch.aten.addcdiv %arg228, %602, %600, %arg222 : !torch.vtensor<[32,32],f32>, !torch.vtensor<[32,32],f32>, !torch.vtensor<[32,32],f32>, !torch.float -> !torch.vtensor<[32,32],f32>
  %int0_621 = torch.constant.int 0
  %604 = torch.prim.ListConstruct %int0_621 : (!torch.int) -> !torch.list<int>
  %true_622 = torch.constant.bool true
  %none_623 = torch.constant.none
  %605 = torch.aten.sum.dim_IntList %588, %604, %true_622, %none_623 : !torch.vtensor<[2,32],f32>, !torch.list<int>, !torch.bool, !torch.none -> !torch.vtensor<[1,32],f32>
  %int32_624 = torch.constant.int 32
  %606 = torch.prim.ListConstruct %int32_624 : (!torch.int) -> !torch.list<int>
  %int32_625 = torch.constant.int 32
  %607 = torch.prim.ListConstruct %int32_625 : (!torch.int) -> !torch.list<int>
  %608 = torch.aten.reshape %605, %607 : !torch.vtensor<[1,32],f32>, !torch.list<int> -> !torch.vtensor<[32],f32>
  %609 = torch.aten.add.Tensor %arg244, %608, %arg243 : !torch.vtensor<[32],f32>, !torch.vtensor<[32],f32>, !torch.int -> !torch.vtensor<[32],f32>
  %610 = torch.aten.mul.Tensor %arg245, %arg57 : !torch.vtensor<[32],f32>, !torch.vtensor<[],f64> -> !torch.vtensor<[32],f32>
  %611 = torch.aten.addcmul %610, %609, %609, %arg242 : !torch.vtensor<[32],f32>, !torch.vtensor<[32],f32>, !torch.vtensor<[32],f32>, !torch.float -> !torch.vtensor<[32],f32>
  %612 = torch.aten.sqrt %611 : !torch.vtensor<[32],f32> -> !torch.vtensor<[32],f32>
  %613 = torch.aten.add.Tensor %612, %arg2, %arg241 : !torch.vtensor<[32],f32>, !torch.vtensor<[],f64>, !torch.int -> !torch.vtensor<[32],f32>
  %614 = torch.aten.mul.Tensor %arg247, %arg60 : !torch.vtensor<[32],f32>, !torch.vtensor<[],f64> -> !torch.vtensor<[32],f32>
  %615 = torch.aten.add.Tensor %614, %609, %arg246 : !torch.vtensor<[32],f32>, !torch.vtensor<[32],f32>, !torch.float -> !torch.vtensor<[32],f32>
  %616 = torch.aten.addcdiv %arg229, %615, %613, %arg240 : !torch.vtensor<[32],f32>, !torch.vtensor<[32],f32>, !torch.vtensor<[32],f32>, !torch.float -> !torch.vtensor<[32],f32>
  %int1_626 = torch.constant.int 1
  %int0_627 = torch.constant.int 0
  %617 = torch.prim.ListConstruct %int1_626, %int0_627 : (!torch.int, !torch.int) -> !torch.list<int>
  %int1_628 = torch.constant.int 1
  %int0_629 = torch.constant.int 0
  %618 = torch.prim.ListConstruct %int1_628, %int0_629 : (!torch.int, !torch.int) -> !torch.list<int>
  %619 = torch.aten.permute %563, %618 : !torch.vtensor<[2,32],f32>, !torch.list<int> -> !torch.vtensor<[32,2],f32>
  %620 = torch.aten.mm %619, %586 : !torch.vtensor<[32,2],f32>, !torch.vtensor<[2,2],f32> -> !torch.vtensor<[32,2],f32>
  %int1_630 = torch.constant.int 1
  %int0_631 = torch.constant.int 0
  %621 = torch.prim.ListConstruct %int1_630, %int0_631 : (!torch.int, !torch.int) -> !torch.list<int>
  %int1_632 = torch.constant.int 1
  %int0_633 = torch.constant.int 0
  %622 = torch.prim.ListConstruct %int1_632, %int0_633 : (!torch.int, !torch.int) -> !torch.list<int>
  %623 = torch.aten.permute %620, %622 : !torch.vtensor<[32,2],f32>, !torch.list<int> -> !torch.vtensor<[2,32],f32>
  %624 = torch.aten.add.Tensor %arg252, %623, %arg251 : !torch.vtensor<[2,32],f32>, !torch.vtensor<[2,32],f32>, !torch.int -> !torch.vtensor<[2,32],f32>
  %625 = torch.aten.mul.Tensor %arg253, %arg57 : !torch.vtensor<[2,32],f32>, !torch.vtensor<[],f64> -> !torch.vtensor<[2,32],f32>
  %626 = torch.aten.addcmul %625, %624, %624, %arg250 : !torch.vtensor<[2,32],f32>, !torch.vtensor<[2,32],f32>, !torch.vtensor<[2,32],f32>, !torch.float -> !torch.vtensor<[2,32],f32>
  %627 = torch.aten.sqrt %626 : !torch.vtensor<[2,32],f32> -> !torch.vtensor<[2,32],f32>
  %628 = torch.aten.add.Tensor %627, %arg2, %arg249 : !torch.vtensor<[2,32],f32>, !torch.vtensor<[],f64>, !torch.int -> !torch.vtensor<[2,32],f32>
  %629 = torch.aten.mul.Tensor %arg255, %arg60 : !torch.vtensor<[2,32],f32>, !torch.vtensor<[],f64> -> !torch.vtensor<[2,32],f32>
  %630 = torch.aten.add.Tensor %629, %624, %arg254 : !torch.vtensor<[2,32],f32>, !torch.vtensor<[2,32],f32>, !torch.float -> !torch.vtensor<[2,32],f32>
  %631 = torch.aten.addcdiv %arg230, %630, %628, %arg248 : !torch.vtensor<[2,32],f32>, !torch.vtensor<[2,32],f32>, !torch.vtensor<[2,32],f32>, !torch.float -> !torch.vtensor<[2,32],f32>
  %int0_634 = torch.constant.int 0
  %632 = torch.prim.ListConstruct %int0_634 : (!torch.int) -> !torch.list<int>
  %true_635 = torch.constant.bool true
  %none_636 = torch.constant.none
  %633 = torch.aten.sum.dim_IntList %586, %632, %true_635, %none_636 : !torch.vtensor<[2,2],f32>, !torch.list<int>, !torch.bool, !torch.none -> !torch.vtensor<[1,2],f32>
  %int2_637 = torch.constant.int 2
  %634 = torch.prim.ListConstruct %int2_637 : (!torch.int) -> !torch.list<int>
  %int2_638 = torch.constant.int 2
  %635 = torch.prim.ListConstruct %int2_638 : (!torch.int) -> !torch.list<int>
  %636 = torch.aten.reshape %633, %635 : !torch.vtensor<[1,2],f32>, !torch.list<int> -> !torch.vtensor<[2],f32>
  %637 = torch.aten.add.Tensor %arg260, %636, %arg259 : !torch.vtensor<[2],f32>, !torch.vtensor<[2],f32>, !torch.int -> !torch.vtensor<[2],f32>
  %638 = torch.aten.mul.Tensor %arg261, %arg57 : !torch.vtensor<[2],f32>, !torch.vtensor<[],f64> -> !torch.vtensor<[2],f32>
  %639 = torch.aten.addcmul %638, %637, %637, %arg258 : !torch.vtensor<[2],f32>, !torch.vtensor<[2],f32>, !torch.vtensor<[2],f32>, !torch.float -> !torch.vtensor<[2],f32>
  %640 = torch.aten.sqrt %639 : !torch.vtensor<[2],f32> -> !torch.vtensor<[2],f32>
  %641 = torch.aten.add.Tensor %640, %arg2, %arg257 : !torch.vtensor<[2],f32>, !torch.vtensor<[],f64>, !torch.int -> !torch.vtensor<[2],f32>
  %642 = torch.aten.mul.Tensor %arg263, %arg60 : !torch.vtensor<[2],f32>, !torch.vtensor<[],f64> -> !torch.vtensor<[2],f32>
  %643 = torch.aten.add.Tensor %642, %637, %arg262 : !torch.vtensor<[2],f32>, !torch.vtensor<[2],f32>, !torch.float -> !torch.vtensor<[2],f32>
  %644 = torch.aten.addcdiv %arg233, %643, %641, %arg256 : !torch.vtensor<[2],f32>, !torch.vtensor<[2],f32>, !torch.vtensor<[2],f32>, !torch.float -> !torch.vtensor<[2],f32>
  %645 = torch.aten.zero.functional %637 : !torch.vtensor<[2],f32> -> !torch.vtensor<[2],f32>
  %646 = torch.aten.zero.functional %624 : !torch.vtensor<[2,32],f32> -> !torch.vtensor<[2,32],f32>
  %647 = torch.aten.zero.functional %609 : !torch.vtensor<[32],f32> -> !torch.vtensor<[32],f32>
  %648 = torch.aten.zero.functional %596 : !torch.vtensor<[32,32],f32> -> !torch.vtensor<[32,32],f32>
  %649 = torch.aten.zero.functional %541 : !torch.vtensor<[32],f32> -> !torch.vtensor<[32],f32>
  %650 = torch.aten.zero.functional %549 : !torch.vtensor<[32],f32> -> !torch.vtensor<[32],f32>
  %651 = torch.aten.zero.functional %533 : !torch.vtensor<[32],f32> -> !torch.vtensor<[32],f32>
  %652 = torch.aten.zero.functional %520 : !torch.vtensor<[32,32],f32> -> !torch.vtensor<[32,32],f32>
  %653 = torch.aten.zero.functional %502 : !torch.vtensor<[32],f32> -> !torch.vtensor<[32],f32>
  %654 = torch.aten.zero.functional %489 : !torch.vtensor<[32,32],f32> -> !torch.vtensor<[32,32],f32>
  %655 = torch.aten.zero.functional %463 : !torch.vtensor<[32],f32> -> !torch.vtensor<[32],f32>
  %656 = torch.aten.zero.functional %471 : !torch.vtensor<[32],f32> -> !torch.vtensor<[32],f32>
  %657 = torch.aten.zero.functional %455 : !torch.vtensor<[32],f32> -> !torch.vtensor<[32],f32>
  %658 = torch.aten.zero.functional %442 : !torch.vtensor<[32,32],f32> -> !torch.vtensor<[32,32],f32>
  %659 = torch.aten.zero.functional %418 : !torch.vtensor<[32],f32> -> !torch.vtensor<[32],f32>
  %660 = torch.aten.zero.functional %405 : !torch.vtensor<[32,32],f32> -> !torch.vtensor<[32,32],f32>
  %661 = torch.aten.zero.functional %387 : !torch.vtensor<[32],f32> -> !torch.vtensor<[32],f32>
  %662 = torch.aten.zero.functional %374 : !torch.vtensor<[32,32],f32> -> !torch.vtensor<[32,32],f32>
  %663 = torch.aten.zero.functional %356 : !torch.vtensor<[32],f32> -> !torch.vtensor<[32],f32>
  %664 = torch.aten.zero.functional %343 : !torch.vtensor<[32,32],f32> -> !torch.vtensor<[32,32],f32>
  %665 = torch.aten.zero.functional %317 : !torch.vtensor<[32],f32> -> !torch.vtensor<[32],f32>
  %666 = torch.aten.zero.functional %325 : !torch.vtensor<[32],f32> -> !torch.vtensor<[32],f32>
  %667 = torch.aten.zero.functional %300 : !torch.vtensor<[512,32],f32> -> !torch.vtensor<[512,32],f32>
  %668 = torch.aten.zero.functional %309 : !torch.vtensor<[2,32],f32> -> !torch.vtensor<[2,32],f32>
  %669 = torch.aten.zero.functional %289 : !torch.vtensor<[28996,32],f32> -> !torch.vtensor<[28996,32],f32>
  return %296, %307, %316, %324, %332, %350, %363, %381, %394, %412, %425, %449, %462, %470, %478, %496, %509, %527, %540, %548, %556, %603, %616, %631, %644, %645, %646, %647, %648, %649, %650, %651, %652, %653, %654, %655, %656, %657, %658, %659, %660, %661, %662, %663, %664, %665, %666, %667, %668, %669, %295, %291, %306, %302, %315, %311, %323, %319, %331, %327, %349, %345, %362, %358, %380, %376, %393, %389, %411, %407, %424, %420, %448, %444, %461, %457, %469, %465, %477, %473, %495, %491, %508, %504, %526, %522, %539, %535, %547, %543, %555, %551, %602, %598, %615, %611, %630, %626, %643, %639, %arg234, %arg5, %arg12, %arg26, %573, %output : !torch.vtensor<[28996,32],f32>, !torch.vtensor<[512,32],f32>, !torch.vtensor<[2,32],f32>, !torch.vtensor<[32],f32>, !torch.vtensor<[32],f32>, !torch.vtensor<[32,32],f32>, !torch.vtensor<[32],f32>, !torch.vtensor<[32,32],f32>, !torch.vtensor<[32],f32>, !torch.vtensor<[32,32],f32>, !torch.vtensor<[32],f32>, !torch.vtensor<[32,32],f32>, !torch.vtensor<[32],f32>, !torch.vtensor<[32],f32>, !torch.vtensor<[32],f32>, !torch.vtensor<[32,32],f32>, !torch.vtensor<[32],f32>, !torch.vtensor<[32,32],f32>, !torch.vtensor<[32],f32>, !torch.vtensor<[32],f32>, !torch.vtensor<[32],f32>, !torch.vtensor<[32,32],f32>, !torch.vtensor<[32],f32>, !torch.vtensor<[2,32],f32>, !torch.vtensor<[2],f32>, !torch.vtensor<[2],f32>, !torch.vtensor<[2,32],f32>, !torch.vtensor<[32],f32>, !torch.vtensor<[32,32],f32>, !torch.vtensor<[32],f32>, !torch.vtensor<[32],f32>, !torch.vtensor<[32],f32>, !torch.vtensor<[32,32],f32>, !torch.vtensor<[32],f32>, !torch.vtensor<[32,32],f32>, !torch.vtensor<[32],f32>, !torch.vtensor<[32],f32>, !torch.vtensor<[32],f32>, !torch.vtensor<[32,32],f32>, !torch.vtensor<[32],f32>, !torch.vtensor<[32,32],f32>, !torch.vtensor<[32],f32>, !torch.vtensor<[32,32],f32>, !torch.vtensor<[32],f32>, !torch.vtensor<[32,32],f32>, !torch.vtensor<[32],f32>, !torch.vtensor<[32],f32>, !torch.vtensor<[512,32],f32>, !torch.vtensor<[2,32],f32>, !torch.vtensor<[28996,32],f32>, !torch.vtensor<[28996,32],f32>, !torch.vtensor<[28996,32],f32>, !torch.vtensor<[512,32],f32>, !torch.vtensor<[512,32],f32>, !torch.vtensor<[2,32],f32>, !torch.vtensor<[2,32],f32>, !torch.vtensor<[32],f32>, !torch.vtensor<[32],f32>, !torch.vtensor<[32],f32>, !torch.vtensor<[32],f32>, !torch.vtensor<[32,32],f32>, !torch.vtensor<[32,32],f32>, !torch.vtensor<[32],f32>, !torch.vtensor<[32],f32>, !torch.vtensor<[32,32],f32>, !torch.vtensor<[32,32],f32>, !torch.vtensor<[32],f32>, !torch.vtensor<[32],f32>, !torch.vtensor<[32,32],f32>, !torch.vtensor<[32,32],f32>, !torch.vtensor<[32],f32>, !torch.vtensor<[32],f32>, !torch.vtensor<[32,32],f32>, !torch.vtensor<[32,32],f32>, !torch.vtensor<[32],f32>, !torch.vtensor<[32],f32>, !torch.vtensor<[32],f32>, !torch.vtensor<[32],f32>, !torch.vtensor<[32],f32>, !torch.vtensor<[32],f32>, !torch.vtensor<[32,32],f32>, !torch.vtensor<[32,32],f32>, !torch.vtensor<[32],f32>, !torch.vtensor<[32],f32>, !torch.vtensor<[32,32],f32>, !torch.vtensor<[32,32],f32>, !torch.vtensor<[32],f32>, !torch.vtensor<[32],f32>, !torch.vtensor<[32],f32>, !torch.vtensor<[32],f32>, !torch.vtensor<[32],f32>, !torch.vtensor<[32],f32>, !torch.vtensor<[32,32],f32>, !torch.vtensor<[32,32],f32>, !torch.vtensor<[32],f32>, !torch.vtensor<[32],f32>, !torch.vtensor<[2,32],f32>, !torch.vtensor<[2,32],f32>, !torch.vtensor<[2],f32>, !torch.vtensor<[2],f32>, !torch.vtensor<[2],si64>, !torch.vtensor<[2,512],si64>, !torch.vtensor<[2,512],si64>, !torch.vtensor<[2,512],si64>, !torch.vtensor<[2,2],f32>, !torch.vtensor<[],f32>
}
