func.func @graph(%arg0: !torch.float, %arg1: !torch.int, %arg2: !torch.vtensor<[],f64>, %arg3: !torch.float, %arg4: !torch.int, %arg5: !torch.vtensor<[2,512],si64>, %arg6: !torch.vtensor<[32],f32>, %arg7: !torch.vtensor<[32],f32>, %arg8: !torch.int, %arg9: !torch.vtensor<[1,512],si64>, %arg10: !torch.vtensor<[512,32],f32>, %arg11: !torch.int, %arg12: !torch.vtensor<[2,512],si64>, %arg13: !torch.vtensor<[2,32],f32>, %arg14: !torch.vtensor<[28996,32],f32>, %arg15: !torch.int, %arg16: !torch.vtensor<[32,32],f32>, %arg17: !torch.int, %arg18: !torch.int, %arg19: !torch.vtensor<[32,32],f32>, %arg20: !torch.vtensor<[32],f32>, %arg21: !torch.vtensor<[],f64>, %arg22: !torch.int, %arg23: !torch.vtensor<[],f64>, %arg24: !torch.int, %arg25: !torch.vtensor<[2,512],si64>, %arg26: !torch.vtensor<[],f64>, %arg27: !torch.int, %arg28: !torch.int, %arg29: !torch.vtensor<[32],f32>, %arg30: !torch.int, %arg31: !torch.int, %arg32: !torch.vtensor<[32,32],f32>, %arg33: !torch.vtensor<[32],f32>, %arg34: !torch.vtensor<[32,32],f32>, %arg35: !torch.vtensor<[32],f32>, %arg36: !torch.vtensor<[32],f32>, %arg37: !torch.int, %arg38: !torch.int, %arg39: !torch.int, %arg40: !torch.vtensor<[32],f32>, %arg41: !torch.int, %arg42: !torch.vtensor<[32,32],f32>, %arg43: !torch.int, %arg44: !torch.int, %arg45: !torch.vtensor<[32],f32>, %arg46: !torch.vtensor<[32,32],f32>, %arg47: !torch.vtensor<[32],f32>, %arg48: !torch.vtensor<[32],f32>, %arg49: !torch.int, %arg50: !torch.int, %arg51: !torch.int, %arg52: !torch.vtensor<[32],f32>, %arg53: !torch.vtensor<[32,32],f32>, %arg54: !torch.int, %arg55: !torch.int, %arg56: !torch.vtensor<[32],f32>, %arg57: !torch.vtensor<[2,32],f32>, %arg58: !torch.int, %arg59: !torch.int, %arg60: !torch.vtensor<[2],f32>, %arg61: !torch.vtensor<[2],si64>, %arg62: !torch.vtensor<[],f32>, %arg63: !torch.vtensor<[2,512,32],f32>, %arg64: !torch.vtensor<[2,512,32],f32>, %arg65: !torch.int, %arg66: !torch.int, %arg67: !torch.vtensor<[28996,32],f32>, %arg68: !torch.vtensor<[],f64>, %arg69: !torch.vtensor<[28996,32],f32>, %arg70: !torch.float, %arg71: !torch.vtensor<[],f64>, %arg72: !torch.vtensor<[28996,32],f32>, %arg73: !torch.float, %arg74: !torch.int, %arg75: !torch.float, %arg76: !torch.int, %arg77: !torch.vtensor<[512,32],f32>, %arg78: !torch.vtensor<[512,32],f32>, %arg79: !torch.float, %arg80: !torch.vtensor<[512,32],f32>, %arg81: !torch.float, %arg82: !torch.int, %arg83: !torch.float, %arg84: !torch.int, %arg85: !torch.vtensor<[2,32],f32>, %arg86: !torch.vtensor<[2,32],f32>, %arg87: !torch.float, %arg88: !torch.vtensor<[2,32],f32>, %arg89: !torch.float, %arg90: !torch.int, %arg91: !torch.float, %arg92: !torch.int, %arg93: !torch.vtensor<[32],f32>, %arg94: !torch.vtensor<[32],f32>, %arg95: !torch.float, %arg96: !torch.vtensor<[32],f32>, %arg97: !torch.float, %arg98: !torch.int, %arg99: !torch.float, %arg100: !torch.int, %arg101: !torch.vtensor<[32],f32>, %arg102: !torch.vtensor<[32],f32>, %arg103: !torch.float, %arg104: !torch.vtensor<[32],f32>, %arg105: !torch.float, %arg106: !torch.int, %arg107: !torch.float, %arg108: !torch.int, %arg109: !torch.vtensor<[32,32],f32>, %arg110: !torch.vtensor<[32,32],f32>, %arg111: !torch.float, %arg112: !torch.vtensor<[32,32],f32>, %arg113: !torch.float, %arg114: !torch.int, %arg115: !torch.float, %arg116: !torch.int, %arg117: !torch.vtensor<[32],f32>, %arg118: !torch.vtensor<[32],f32>, %arg119: !torch.float, %arg120: !torch.vtensor<[32],f32>, %arg121: !torch.float, %arg122: !torch.int, %arg123: !torch.float, %arg124: !torch.int, %arg125: !torch.vtensor<[32,32],f32>, %arg126: !torch.vtensor<[32,32],f32>, %arg127: !torch.float, %arg128: !torch.vtensor<[32,32],f32>, %arg129: !torch.float, %arg130: !torch.int, %arg131: !torch.float, %arg132: !torch.int, %arg133: !torch.vtensor<[32],f32>, %arg134: !torch.vtensor<[32],f32>, %arg135: !torch.float, %arg136: !torch.vtensor<[32],f32>, %arg137: !torch.float, %arg138: !torch.int, %arg139: !torch.float, %arg140: !torch.int, %arg141: !torch.vtensor<[32,32],f32>, %arg142: !torch.vtensor<[32,32],f32>, %arg143: !torch.float, %arg144: !torch.vtensor<[32,32],f32>, %arg145: !torch.float, %arg146: !torch.int, %arg147: !torch.float, %arg148: !torch.int, %arg149: !torch.vtensor<[32],f32>, %arg150: !torch.vtensor<[32],f32>, %arg151: !torch.float, %arg152: !torch.vtensor<[32],f32>, %arg153: !torch.float, %arg154: !torch.int, %arg155: !torch.float, %arg156: !torch.int, %arg157: !torch.vtensor<[32,32],f32>, %arg158: !torch.vtensor<[32,32],f32>, %arg159: !torch.float, %arg160: !torch.vtensor<[32,32],f32>, %arg161: !torch.float, %arg162: !torch.int, %arg163: !torch.float, %arg164: !torch.int, %arg165: !torch.vtensor<[32],f32>, %arg166: !torch.vtensor<[32],f32>, %arg167: !torch.float, %arg168: !torch.vtensor<[32],f32>, %arg169: !torch.float, %arg170: !torch.int, %arg171: !torch.float, %arg172: !torch.int, %arg173: !torch.vtensor<[32],f32>, %arg174: !torch.vtensor<[32],f32>, %arg175: !torch.float, %arg176: !torch.vtensor<[32],f32>, %arg177: !torch.float, %arg178: !torch.int, %arg179: !torch.float, %arg180: !torch.int, %arg181: !torch.vtensor<[32],f32>, %arg182: !torch.vtensor<[32],f32>, %arg183: !torch.float, %arg184: !torch.vtensor<[32],f32>, %arg185: !torch.float, %arg186: !torch.int, %arg187: !torch.float, %arg188: !torch.int, %arg189: !torch.vtensor<[32,32],f32>, %arg190: !torch.vtensor<[32,32],f32>, %arg191: !torch.float, %arg192: !torch.vtensor<[32,32],f32>, %arg193: !torch.float, %arg194: !torch.int, %arg195: !torch.float, %arg196: !torch.int, %arg197: !torch.vtensor<[32],f32>, %arg198: !torch.vtensor<[32],f32>, %arg199: !torch.float, %arg200: !torch.vtensor<[32],f32>, %arg201: !torch.float, %arg202: !torch.int, %arg203: !torch.float, %arg204: !torch.int, %arg205: !torch.vtensor<[32,32],f32>, %arg206: !torch.vtensor<[32,32],f32>, %arg207: !torch.float, %arg208: !torch.vtensor<[32,32],f32>, %arg209: !torch.float, %arg210: !torch.int, %arg211: !torch.float, %arg212: !torch.int, %arg213: !torch.vtensor<[32],f32>, %arg214: !torch.vtensor<[32],f32>, %arg215: !torch.float, %arg216: !torch.vtensor<[32],f32>, %arg217: !torch.float, %arg218: !torch.int, %arg219: !torch.float, %arg220: !torch.int, %arg221: !torch.vtensor<[32],f32>, %arg222: !torch.vtensor<[32],f32>, %arg223: !torch.float, %arg224: !torch.vtensor<[32],f32>, %arg225: !torch.float, %arg226: !torch.int, %arg227: !torch.float, %arg228: !torch.int, %arg229: !torch.vtensor<[32],f32>, %arg230: !torch.vtensor<[32],f32>, %arg231: !torch.float, %arg232: !torch.vtensor<[32],f32>, %arg233: !torch.float, %arg234: !torch.int, %arg235: !torch.float, %arg236: !torch.int, %arg237: !torch.vtensor<[32,32],f32>, %arg238: !torch.vtensor<[32,32],f32>, %arg239: !torch.float, %arg240: !torch.vtensor<[32,32],f32>, %arg241: !torch.float, %arg242: !torch.int, %arg243: !torch.float, %arg244: !torch.int, %arg245: !torch.vtensor<[32],f32>, %arg246: !torch.vtensor<[32],f32>, %arg247: !torch.float, %arg248: !torch.vtensor<[32],f32>, %arg249: !torch.float, %arg250: !torch.int, %arg251: !torch.float, %arg252: !torch.int, %arg253: !torch.vtensor<[2,32],f32>, %arg254: !torch.vtensor<[2,32],f32>, %arg255: !torch.float, %arg256: !torch.vtensor<[2,32],f32>, %arg257: !torch.float, %arg258: !torch.int, %arg259: !torch.float, %arg260: !torch.int, %arg261: !torch.vtensor<[2],f32>, %arg262: !torch.vtensor<[2],f32>, %arg263: !torch.float, %arg264: !torch.vtensor<[2],f32>) -> (!torch.vtensor<[28996,32],f32>, !torch.vtensor<[512,32],f32>, !torch.vtensor<[2,32],f32>, !torch.vtensor<[32],f32>, !torch.vtensor<[32],f32>, !torch.vtensor<[32,32],f32>, !torch.vtensor<[32],f32>, !torch.vtensor<[32,32],f32>, !torch.vtensor<[32],f32>, !torch.vtensor<[32,32],f32>, !torch.vtensor<[32],f32>, !torch.vtensor<[32,32],f32>, !torch.vtensor<[32],f32>, !torch.vtensor<[32],f32>, !torch.vtensor<[32],f32>, !torch.vtensor<[32,32],f32>, !torch.vtensor<[32],f32>, !torch.vtensor<[32,32],f32>, !torch.vtensor<[32],f32>, !torch.vtensor<[32],f32>, !torch.vtensor<[32],f32>, !torch.vtensor<[32,32],f32>, !torch.vtensor<[32],f32>, !torch.vtensor<[2,32],f32>, !torch.vtensor<[2],f32>, !torch.vtensor<[2],f32>, !torch.vtensor<[2,32],f32>, !torch.vtensor<[32],f32>, !torch.vtensor<[32,32],f32>, !torch.vtensor<[32],f32>, !torch.vtensor<[32],f32>, !torch.vtensor<[32],f32>, !torch.vtensor<[32,32],f32>, !torch.vtensor<[32],f32>, !torch.vtensor<[32,32],f32>, !torch.vtensor<[32],f32>, !torch.vtensor<[32],f32>, !torch.vtensor<[32],f32>, !torch.vtensor<[32,32],f32>, !torch.vtensor<[32],f32>, !torch.vtensor<[32,32],f32>, !torch.vtensor<[32],f32>, !torch.vtensor<[32,32],f32>, !torch.vtensor<[32],f32>, !torch.vtensor<[32,32],f32>, !torch.vtensor<[32],f32>, !torch.vtensor<[32],f32>, !torch.vtensor<[512,32],f32>, !torch.vtensor<[2,32],f32>, !torch.vtensor<[28996,32],f32>, !torch.vtensor<[28996,32],f32>, !torch.vtensor<[28996,32],f32>, !torch.vtensor<[512,32],f32>, !torch.vtensor<[512,32],f32>, !torch.vtensor<[2,32],f32>, !torch.vtensor<[2,32],f32>, !torch.vtensor<[32],f32>, !torch.vtensor<[32],f32>, !torch.vtensor<[32],f32>, !torch.vtensor<[32],f32>, !torch.vtensor<[32,32],f32>, !torch.vtensor<[32,32],f32>, !torch.vtensor<[32],f32>, !torch.vtensor<[32],f32>, !torch.vtensor<[32,32],f32>, !torch.vtensor<[32,32],f32>, !torch.vtensor<[32],f32>, !torch.vtensor<[32],f32>, !torch.vtensor<[32,32],f32>, !torch.vtensor<[32,32],f32>, !torch.vtensor<[32],f32>, !torch.vtensor<[32],f32>, !torch.vtensor<[32,32],f32>, !torch.vtensor<[32,32],f32>, !torch.vtensor<[32],f32>, !torch.vtensor<[32],f32>, !torch.vtensor<[32],f32>, !torch.vtensor<[32],f32>, !torch.vtensor<[32],f32>, !torch.vtensor<[32],f32>, !torch.vtensor<[32,32],f32>, !torch.vtensor<[32,32],f32>, !torch.vtensor<[32],f32>, !torch.vtensor<[32],f32>, !torch.vtensor<[32,32],f32>, !torch.vtensor<[32,32],f32>, !torch.vtensor<[32],f32>, !torch.vtensor<[32],f32>, !torch.vtensor<[32],f32>, !torch.vtensor<[32],f32>, !torch.vtensor<[32],f32>, !torch.vtensor<[32],f32>, !torch.vtensor<[32,32],f32>, !torch.vtensor<[32,32],f32>, !torch.vtensor<[32],f32>, !torch.vtensor<[32],f32>, !torch.vtensor<[2,32],f32>, !torch.vtensor<[2,32],f32>, !torch.vtensor<[2],f32>, !torch.vtensor<[2],f32>, !torch.vtensor<[2],si64>, !torch.vtensor<[2,512],si64>, !torch.vtensor<[2,512],si64>, !torch.vtensor<[2,512],si64>, !torch.vtensor<[2,2],f32>, !torch.vtensor<[],f32>) {
  %int0 = torch.constant.int 0
  %int0_0 = torch.constant.int 0
  %int1 = torch.constant.int 1
  %int1_1 = torch.constant.int 1
  %0 = torch.aten.slice.Tensor %arg9, %int0, %int0_0, %int1, %int1_1 : !torch.vtensor<[1,512],si64>, !torch.int, !torch.int, !torch.int, !torch.int -> !torch.vtensor<[1,512],si64>
  %int-1 = torch.constant.int -1
  %false = torch.constant.bool false
  %false_2 = torch.constant.bool false
  %1 = torch.aten.embedding %arg10, %0, %int-1, %false, %false_2 : !torch.vtensor<[512,32],f32>, !torch.vtensor<[1,512],si64>, !torch.int, !torch.bool, !torch.bool -> !torch.vtensor<[1,512,32],f32>
  %int-1_3 = torch.constant.int -1
  %false_4 = torch.constant.bool false
  %false_5 = torch.constant.bool false
  %2 = torch.aten.embedding %arg13, %arg12, %int-1_3, %false_4, %false_5 : !torch.vtensor<[2,32],f32>, !torch.vtensor<[2,512],si64>, !torch.int, !torch.bool, !torch.bool -> !torch.vtensor<[2,512,32],f32>
  %int0_6 = torch.constant.int 0
  %false_7 = torch.constant.bool false
  %false_8 = torch.constant.bool false
  %3 = torch.aten.embedding %arg14, %arg5, %int0_6, %false_7, %false_8 : !torch.vtensor<[28996,32],f32>, !torch.vtensor<[2,512],si64>, !torch.int, !torch.bool, !torch.bool -> !torch.vtensor<[2,512,32],f32>
  %4 = torch.aten.add.Tensor %3, %2, %arg11 : !torch.vtensor<[2,512,32],f32>, !torch.vtensor<[2,512,32],f32>, !torch.int -> !torch.vtensor<[2,512,32],f32>
  %5 = torch.aten.add.Tensor %4, %1, %arg8 : !torch.vtensor<[2,512,32],f32>, !torch.vtensor<[1,512,32],f32>, !torch.int -> !torch.vtensor<[2,512,32],f32>
  %int32 = torch.constant.int 32
  %6 = torch.prim.ListConstruct %int32 : (!torch.int) -> !torch.list<int>
  %float1.000000e-05 = torch.constant.float 1.000000e-05
  %result0, %result1, %result2 = torch.aten.native_layer_norm %5, %6, %arg7, %arg6, %float1.000000e-05 : !torch.vtensor<[2,512,32],f32>, !torch.list<int>, !torch.vtensor<[32],f32>, !torch.vtensor<[32],f32>, !torch.float -> !torch.vtensor<[2,512,32],f32>, !torch.vtensor<[2,512,1],f32>, !torch.vtensor<[2,512,1],f32>
  %7 = torch.prim.TupleConstruct %result0, %result1, %result2 : !torch.vtensor<[2,512,32],f32>, !torch.vtensor<[2,512,1],f32>, !torch.vtensor<[2,512,1],f32> -> !torch.tuple<vtensor<[2,512,32],f32>, vtensor<[2,512,1],f32>, vtensor<[2,512,1],f32>>
  %int1_9 = torch.constant.int 1
  %int0_10 = torch.constant.int 0
  %8 = torch.prim.ListConstruct %int1_9, %int0_10 : (!torch.int, !torch.int) -> !torch.list<int>
  %int1_11 = torch.constant.int 1
  %int0_12 = torch.constant.int 0
  %9 = torch.prim.ListConstruct %int1_11, %int0_12 : (!torch.int, !torch.int) -> !torch.list<int>
  %10 = torch.aten.permute %arg16, %9 : !torch.vtensor<[32,32],f32>, !torch.list<int> -> !torch.vtensor<[32,32],f32>
  %int1_13 = torch.constant.int 1
  %int0_14 = torch.constant.int 0
  %11 = torch.prim.ListConstruct %int1_13, %int0_14 : (!torch.int, !torch.int) -> !torch.list<int>
  %int1_15 = torch.constant.int 1
  %int0_16 = torch.constant.int 0
  %12 = torch.prim.ListConstruct %int1_15, %int0_16 : (!torch.int, !torch.int) -> !torch.list<int>
  %13 = torch.aten.permute %10, %12 : !torch.vtensor<[32,32],f32>, !torch.list<int> -> !torch.vtensor<[32,32],f32>
  %int1_17 = torch.constant.int 1
  %int0_18 = torch.constant.int 0
  %14 = torch.prim.ListConstruct %int1_17, %int0_18 : (!torch.int, !torch.int) -> !torch.list<int>
  %int1_19 = torch.constant.int 1
  %int0_20 = torch.constant.int 0
  %15 = torch.prim.ListConstruct %int1_19, %int0_20 : (!torch.int, !torch.int) -> !torch.list<int>
  %16 = torch.aten.permute %arg19, %15 : !torch.vtensor<[32,32],f32>, !torch.list<int> -> !torch.vtensor<[32,32],f32>
  %int1024 = torch.constant.int 1024
  %int32_21 = torch.constant.int 32
  %17 = torch.prim.ListConstruct %int1024, %int32_21 : (!torch.int, !torch.int) -> !torch.list<int>
  %int1024_22 = torch.constant.int 1024
  %int32_23 = torch.constant.int 32
  %18 = torch.prim.ListConstruct %int1024_22, %int32_23 : (!torch.int, !torch.int) -> !torch.list<int>
  %19 = torch.aten.reshape %result0, %18 : !torch.vtensor<[2,512,32],f32>, !torch.list<int> -> !torch.vtensor<[1024,32],f32>
  %20 = torch.aten.addmm %arg20, %19, %16, %arg18, %arg17 : !torch.vtensor<[32],f32>, !torch.vtensor<[1024,32],f32>, !torch.vtensor<[32,32],f32>, !torch.int, !torch.int -> !torch.vtensor<[1024,32],f32>
  %int2 = torch.constant.int 2
  %int512 = torch.constant.int 512
  %int32_24 = torch.constant.int 32
  %21 = torch.prim.ListConstruct %int2, %int512, %int32_24 : (!torch.int, !torch.int, !torch.int) -> !torch.list<int>
  %int2_25 = torch.constant.int 2
  %int512_26 = torch.constant.int 512
  %int32_27 = torch.constant.int 32
  %22 = torch.prim.ListConstruct %int2_25, %int512_26, %int32_27 : (!torch.int, !torch.int, !torch.int) -> !torch.list<int>
  %23 = torch.aten.reshape %20, %22 : !torch.vtensor<[1024,32],f32>, !torch.list<int> -> !torch.vtensor<[2,512,32],f32>
  %int2_28 = torch.constant.int 2
  %int512_29 = torch.constant.int 512
  %int16 = torch.constant.int 16
  %24 = torch.prim.ListConstruct %int2_28, %int512_29, %int2_28, %int16 : (!torch.int, !torch.int, !torch.int, !torch.int) -> !torch.list<int>
  %int2_30 = torch.constant.int 2
  %int512_31 = torch.constant.int 512
  %int16_32 = torch.constant.int 16
  %25 = torch.prim.ListConstruct %int2_30, %int512_31, %int2_30, %int16_32 : (!torch.int, !torch.int, !torch.int, !torch.int) -> !torch.list<int>
  %26 = torch.aten.reshape %23, %25 : !torch.vtensor<[2,512,32],f32>, !torch.list<int> -> !torch.vtensor<[2,512,2,16],f32>
  %int0_33 = torch.constant.int 0
  %int2_34 = torch.constant.int 2
  %int1_35 = torch.constant.int 1
  %int3 = torch.constant.int 3
  %27 = torch.prim.ListConstruct %int0_33, %int2_34, %int1_35, %int3 : (!torch.int, !torch.int, !torch.int, !torch.int) -> !torch.list<int>
  %int0_36 = torch.constant.int 0
  %int2_37 = torch.constant.int 2
  %int1_38 = torch.constant.int 1
  %int3_39 = torch.constant.int 3
  %28 = torch.prim.ListConstruct %int0_36, %int2_37, %int1_38, %int3_39 : (!torch.int, !torch.int, !torch.int, !torch.int) -> !torch.list<int>
  %29 = torch.aten.permute %26, %28 : !torch.vtensor<[2,512,2,16],f32>, !torch.list<int> -> !torch.vtensor<[2,2,512,16],f32>
  %int0_40 = torch.constant.int 0
  %int1_41 = torch.constant.int 1
  %int3_42 = torch.constant.int 3
  %int2_43 = torch.constant.int 2
  %30 = torch.prim.ListConstruct %int0_40, %int1_41, %int3_42, %int2_43 : (!torch.int, !torch.int, !torch.int, !torch.int) -> !torch.list<int>
  %int0_44 = torch.constant.int 0
  %int1_45 = torch.constant.int 1
  %int3_46 = torch.constant.int 3
  %int2_47 = torch.constant.int 2
  %31 = torch.prim.ListConstruct %int0_44, %int1_45, %int3_46, %int2_47 : (!torch.int, !torch.int, !torch.int, !torch.int) -> !torch.list<int>
  %32 = torch.aten.permute %29, %31 : !torch.vtensor<[2,2,512,16],f32>, !torch.list<int> -> !torch.vtensor<[2,2,16,512],f32>
  %int2_48 = torch.constant.int 2
  %int16_49 = torch.constant.int 16
  %int512_50 = torch.constant.int 512
  %33 = torch.prim.ListConstruct %int2_48, %int2_48, %int16_49, %int512_50 : (!torch.int, !torch.int, !torch.int, !torch.int) -> !torch.list<int>
  %false_51 = torch.constant.bool false
  %34 = torch.aten.expand %32, %33, %false_51 : !torch.vtensor<[2,2,16,512],f32>, !torch.list<int>, !torch.bool -> !torch.vtensor<[2,2,16,512],f32>
  %int4 = torch.constant.int 4
  %int16_52 = torch.constant.int 16
  %int512_53 = torch.constant.int 512
  %35 = torch.prim.ListConstruct %int4, %int16_52, %int512_53 : (!torch.int, !torch.int, !torch.int) -> !torch.list<int>
  %int4_54 = torch.constant.int 4
  %int16_55 = torch.constant.int 16
  %int512_56 = torch.constant.int 512
  %36 = torch.prim.ListConstruct %int4_54, %int16_55, %int512_56 : (!torch.int, !torch.int, !torch.int) -> !torch.list<int>
  %37 = torch.aten.reshape %34, %36 : !torch.vtensor<[2,2,16,512],f32>, !torch.list<int> -> !torch.vtensor<[4,16,512],f32>
  %int0_57 = torch.constant.int 0
  %int2_58 = torch.constant.int 2
  %int1_59 = torch.constant.int 1
  %38 = torch.prim.ListConstruct %int0_57, %int2_58, %int1_59 : (!torch.int, !torch.int, !torch.int) -> !torch.list<int>
  %int0_60 = torch.constant.int 0
  %int2_61 = torch.constant.int 2
  %int1_62 = torch.constant.int 1
  %39 = torch.prim.ListConstruct %int0_60, %int2_61, %int1_62 : (!torch.int, !torch.int, !torch.int) -> !torch.list<int>
  %40 = torch.aten.permute %37, %39 : !torch.vtensor<[4,16,512],f32>, !torch.list<int> -> !torch.vtensor<[4,512,16],f32>
  %int0_63 = torch.constant.int 0
  %int0_64 = torch.constant.int 0
  %int2_65 = torch.constant.int 2
  %int1_66 = torch.constant.int 1
  %41 = torch.aten.slice.Tensor %arg25, %int0_63, %int0_64, %int2_65, %int1_66 : !torch.vtensor<[2,512],si64>, !torch.int, !torch.int, !torch.int, !torch.int -> !torch.vtensor<[2,512],si64>
  %int2_67 = torch.constant.int 2
  %int1_68 = torch.constant.int 1
  %int512_69 = torch.constant.int 512
  %42 = torch.prim.ListConstruct %int2_67, %int1_68, %int512_69 : (!torch.int, !torch.int, !torch.int) -> !torch.list<int>
  %int2_70 = torch.constant.int 2
  %int1_71 = torch.constant.int 1
  %int512_72 = torch.constant.int 512
  %43 = torch.prim.ListConstruct %int2_70, %int1_71, %int512_72 : (!torch.int, !torch.int, !torch.int) -> !torch.list<int>
  %44 = torch.aten.reshape %41, %43 : !torch.vtensor<[2,512],si64>, !torch.list<int> -> !torch.vtensor<[2,1,512],si64>
  %int2_73 = torch.constant.int 2
  %int1_74 = torch.constant.int 1
  %int512_75 = torch.constant.int 512
  %45 = torch.prim.ListConstruct %int2_73, %int1_74, %int1_74, %int512_75 : (!torch.int, !torch.int, !torch.int, !torch.int) -> !torch.list<int>
  %int2_76 = torch.constant.int 2
  %int1_77 = torch.constant.int 1
  %int512_78 = torch.constant.int 512
  %46 = torch.prim.ListConstruct %int2_76, %int1_77, %int1_77, %int512_78 : (!torch.int, !torch.int, !torch.int, !torch.int) -> !torch.list<int>
  %47 = torch.aten.reshape %44, %46 : !torch.vtensor<[2,1,512],si64>, !torch.list<int> -> !torch.vtensor<[2,1,1,512],si64>
  %int3_79 = torch.constant.int 3
  %int0_80 = torch.constant.int 0
  %int512_81 = torch.constant.int 512
  %int1_82 = torch.constant.int 1
  %48 = torch.aten.slice.Tensor %47, %int3_79, %int0_80, %int512_81, %int1_82 : !torch.vtensor<[2,1,1,512],si64>, !torch.int, !torch.int, !torch.int, !torch.int -> !torch.vtensor<[2,1,1,512],si64>
  %int6 = torch.constant.int 6
  %none = torch.constant.none
  %none_83 = torch.constant.none
  %none_84 = torch.constant.none
  %false_85 = torch.constant.bool false
  %none_86 = torch.constant.none
  %49 = torch.aten._to_copy %48, %int6, %none, %none_83, %none_84, %false_85, %none_86 : !torch.vtensor<[2,1,1,512],si64>, !torch.int, !torch.none, !torch.none, !torch.none, !torch.bool, !torch.none -> !torch.vtensor<[2,1,1,512],f32>
  %50 = torch.aten.sub.Tensor %arg26, %49, %arg24 : !torch.vtensor<[],f64>, !torch.vtensor<[2,1,1,512],f32>, !torch.int -> !torch.vtensor<[2,1,1,512],f32>
  %51 = torch.aten.mul.Tensor %50, %arg23 : !torch.vtensor<[2,1,1,512],f32>, !torch.vtensor<[],f64> -> !torch.vtensor<[2,1,1,512],f32>
  %int4_87 = torch.constant.int 4
  %int16_88 = torch.constant.int 16
  %int512_89 = torch.constant.int 512
  %52 = torch.prim.ListConstruct %int4_87, %int16_88, %int512_89 : (!torch.int, !torch.int, !torch.int) -> !torch.list<int>
  %int4_90 = torch.constant.int 4
  %int16_91 = torch.constant.int 16
  %int512_92 = torch.constant.int 512
  %53 = torch.prim.ListConstruct %int4_90, %int16_91, %int512_92 : (!torch.int, !torch.int, !torch.int) -> !torch.list<int>
  %54 = torch.aten.reshape %34, %53 : !torch.vtensor<[2,2,16,512],f32>, !torch.list<int> -> !torch.vtensor<[4,16,512],f32>
  %int1_93 = torch.constant.int 1
  %int0_94 = torch.constant.int 0
  %55 = torch.prim.ListConstruct %int1_93, %int0_94 : (!torch.int, !torch.int) -> !torch.list<int>
  %int1_95 = torch.constant.int 1
  %int0_96 = torch.constant.int 0
  %56 = torch.prim.ListConstruct %int1_95, %int0_96 : (!torch.int, !torch.int) -> !torch.list<int>
  %57 = torch.aten.permute %arg16, %56 : !torch.vtensor<[32,32],f32>, !torch.list<int> -> !torch.vtensor<[32,32],f32>
  %int1024_97 = torch.constant.int 1024
  %int32_98 = torch.constant.int 32
  %58 = torch.prim.ListConstruct %int1024_97, %int32_98 : (!torch.int, !torch.int) -> !torch.list<int>
  %int1024_99 = torch.constant.int 1024
  %int32_100 = torch.constant.int 32
  %59 = torch.prim.ListConstruct %int1024_99, %int32_100 : (!torch.int, !torch.int) -> !torch.list<int>
  %60 = torch.aten.reshape %result0, %59 : !torch.vtensor<[2,512,32],f32>, !torch.list<int> -> !torch.vtensor<[1024,32],f32>
  %61 = torch.aten.addmm %arg29, %60, %57, %arg28, %arg27 : !torch.vtensor<[32],f32>, !torch.vtensor<[1024,32],f32>, !torch.vtensor<[32,32],f32>, !torch.int, !torch.int -> !torch.vtensor<[1024,32],f32>
  %int2_101 = torch.constant.int 2
  %int512_102 = torch.constant.int 512
  %int32_103 = torch.constant.int 32
  %62 = torch.prim.ListConstruct %int2_101, %int512_102, %int32_103 : (!torch.int, !torch.int, !torch.int) -> !torch.list<int>
  %int2_104 = torch.constant.int 2
  %int512_105 = torch.constant.int 512
  %int32_106 = torch.constant.int 32
  %63 = torch.prim.ListConstruct %int2_104, %int512_105, %int32_106 : (!torch.int, !torch.int, !torch.int) -> !torch.list<int>
  %64 = torch.aten.reshape %61, %63 : !torch.vtensor<[1024,32],f32>, !torch.list<int> -> !torch.vtensor<[2,512,32],f32>
  %int2_107 = torch.constant.int 2
  %int512_108 = torch.constant.int 512
  %int16_109 = torch.constant.int 16
  %65 = torch.prim.ListConstruct %int2_107, %int512_108, %int2_107, %int16_109 : (!torch.int, !torch.int, !torch.int, !torch.int) -> !torch.list<int>
  %int2_110 = torch.constant.int 2
  %int512_111 = torch.constant.int 512
  %int16_112 = torch.constant.int 16
  %66 = torch.prim.ListConstruct %int2_110, %int512_111, %int2_110, %int16_112 : (!torch.int, !torch.int, !torch.int, !torch.int) -> !torch.list<int>
  %67 = torch.aten.reshape %64, %66 : !torch.vtensor<[2,512,32],f32>, !torch.list<int> -> !torch.vtensor<[2,512,2,16],f32>
  %int0_113 = torch.constant.int 0
  %int2_114 = torch.constant.int 2
  %int1_115 = torch.constant.int 1
  %int3_116 = torch.constant.int 3
  %68 = torch.prim.ListConstruct %int0_113, %int2_114, %int1_115, %int3_116 : (!torch.int, !torch.int, !torch.int, !torch.int) -> !torch.list<int>
  %int0_117 = torch.constant.int 0
  %int2_118 = torch.constant.int 2
  %int1_119 = torch.constant.int 1
  %int3_120 = torch.constant.int 3
  %69 = torch.prim.ListConstruct %int0_117, %int2_118, %int1_119, %int3_120 : (!torch.int, !torch.int, !torch.int, !torch.int) -> !torch.list<int>
  %70 = torch.aten.permute %67, %69 : !torch.vtensor<[2,512,2,16],f32>, !torch.list<int> -> !torch.vtensor<[2,2,512,16],f32>
  %int2_121 = torch.constant.int 2
  %int512_122 = torch.constant.int 512
  %int16_123 = torch.constant.int 16
  %71 = torch.prim.ListConstruct %int2_121, %int2_121, %int512_122, %int16_123 : (!torch.int, !torch.int, !torch.int, !torch.int) -> !torch.list<int>
  %false_124 = torch.constant.bool false
  %72 = torch.aten.expand %70, %71, %false_124 : !torch.vtensor<[2,2,512,16],f32>, !torch.list<int>, !torch.bool -> !torch.vtensor<[2,2,512,16],f32>
  %int4_125 = torch.constant.int 4
  %int512_126 = torch.constant.int 512
  %int16_127 = torch.constant.int 16
  %73 = torch.prim.ListConstruct %int4_125, %int512_126, %int16_127 : (!torch.int, !torch.int, !torch.int) -> !torch.list<int>
  %int4_128 = torch.constant.int 4
  %int512_129 = torch.constant.int 512
  %int16_130 = torch.constant.int 16
  %74 = torch.prim.ListConstruct %int4_128, %int512_129, %int16_130 : (!torch.int, !torch.int, !torch.int) -> !torch.list<int>
  %75 = torch.aten.reshape %72, %74 : !torch.vtensor<[2,2,512,16],f32>, !torch.list<int> -> !torch.vtensor<[4,512,16],f32>
  %76 = torch.aten.bmm %75, %54 : !torch.vtensor<[4,512,16],f32>, !torch.vtensor<[4,16,512],f32> -> !torch.vtensor<[4,512,512],f32>
  %int2_131 = torch.constant.int 2
  %int512_132 = torch.constant.int 512
  %77 = torch.prim.ListConstruct %int2_131, %int2_131, %int512_132, %int512_132 : (!torch.int, !torch.int, !torch.int, !torch.int) -> !torch.list<int>
  %int2_133 = torch.constant.int 2
  %int512_134 = torch.constant.int 512
  %78 = torch.prim.ListConstruct %int2_133, %int2_133, %int512_134, %int512_134 : (!torch.int, !torch.int, !torch.int, !torch.int) -> !torch.list<int>
  %79 = torch.aten.reshape %76, %78 : !torch.vtensor<[4,512,512],f32>, !torch.list<int> -> !torch.vtensor<[2,2,512,512],f32>
  %80 = torch.aten.div.Tensor %79, %arg21 : !torch.vtensor<[2,2,512,512],f32>, !torch.vtensor<[],f64> -> !torch.vtensor<[2,2,512,512],f32>
  %81 = torch.aten.add.Tensor %80, %51, %arg22 : !torch.vtensor<[2,2,512,512],f32>, !torch.vtensor<[2,1,1,512],f32>, !torch.int -> !torch.vtensor<[2,2,512,512],f32>
  %int-1_135 = torch.constant.int -1
  %false_136 = torch.constant.bool false
  %82 = torch.aten._softmax %81, %int-1_135, %false_136 : !torch.vtensor<[2,2,512,512],f32>, !torch.int, !torch.bool -> !torch.vtensor<[2,2,512,512],f32>
  %int1_137 = torch.constant.int 1
  %int0_138 = torch.constant.int 0
  %83 = torch.prim.ListConstruct %int1_137, %int0_138 : (!torch.int, !torch.int) -> !torch.list<int>
  %int1_139 = torch.constant.int 1
  %int0_140 = torch.constant.int 0
  %84 = torch.prim.ListConstruct %int1_139, %int0_140 : (!torch.int, !torch.int) -> !torch.list<int>
  %85 = torch.aten.permute %arg32, %84 : !torch.vtensor<[32,32],f32>, !torch.list<int> -> !torch.vtensor<[32,32],f32>
  %int1024_141 = torch.constant.int 1024
  %int32_142 = torch.constant.int 32
  %86 = torch.prim.ListConstruct %int1024_141, %int32_142 : (!torch.int, !torch.int) -> !torch.list<int>
  %int1024_143 = torch.constant.int 1024
  %int32_144 = torch.constant.int 32
  %87 = torch.prim.ListConstruct %int1024_143, %int32_144 : (!torch.int, !torch.int) -> !torch.list<int>
  %88 = torch.aten.reshape %result0, %87 : !torch.vtensor<[2,512,32],f32>, !torch.list<int> -> !torch.vtensor<[1024,32],f32>
  %89 = torch.aten.addmm %arg33, %88, %85, %arg31, %arg30 : !torch.vtensor<[32],f32>, !torch.vtensor<[1024,32],f32>, !torch.vtensor<[32,32],f32>, !torch.int, !torch.int -> !torch.vtensor<[1024,32],f32>
  %int2_145 = torch.constant.int 2
  %int512_146 = torch.constant.int 512
  %int32_147 = torch.constant.int 32
  %90 = torch.prim.ListConstruct %int2_145, %int512_146, %int32_147 : (!torch.int, !torch.int, !torch.int) -> !torch.list<int>
  %int2_148 = torch.constant.int 2
  %int512_149 = torch.constant.int 512
  %int32_150 = torch.constant.int 32
  %91 = torch.prim.ListConstruct %int2_148, %int512_149, %int32_150 : (!torch.int, !torch.int, !torch.int) -> !torch.list<int>
  %92 = torch.aten.reshape %89, %91 : !torch.vtensor<[1024,32],f32>, !torch.list<int> -> !torch.vtensor<[2,512,32],f32>
  %int2_151 = torch.constant.int 2
  %int512_152 = torch.constant.int 512
  %int16_153 = torch.constant.int 16
  %93 = torch.prim.ListConstruct %int2_151, %int512_152, %int2_151, %int16_153 : (!torch.int, !torch.int, !torch.int, !torch.int) -> !torch.list<int>
  %int2_154 = torch.constant.int 2
  %int512_155 = torch.constant.int 512
  %int16_156 = torch.constant.int 16
  %94 = torch.prim.ListConstruct %int2_154, %int512_155, %int2_154, %int16_156 : (!torch.int, !torch.int, !torch.int, !torch.int) -> !torch.list<int>
  %95 = torch.aten.reshape %92, %94 : !torch.vtensor<[2,512,32],f32>, !torch.list<int> -> !torch.vtensor<[2,512,2,16],f32>
  %int0_157 = torch.constant.int 0
  %int2_158 = torch.constant.int 2
  %int1_159 = torch.constant.int 1
  %int3_160 = torch.constant.int 3
  %96 = torch.prim.ListConstruct %int0_157, %int2_158, %int1_159, %int3_160 : (!torch.int, !torch.int, !torch.int, !torch.int) -> !torch.list<int>
  %int0_161 = torch.constant.int 0
  %int2_162 = torch.constant.int 2
  %int1_163 = torch.constant.int 1
  %int3_164 = torch.constant.int 3
  %97 = torch.prim.ListConstruct %int0_161, %int2_162, %int1_163, %int3_164 : (!torch.int, !torch.int, !torch.int, !torch.int) -> !torch.list<int>
  %98 = torch.aten.permute %95, %97 : !torch.vtensor<[2,512,2,16],f32>, !torch.list<int> -> !torch.vtensor<[2,2,512,16],f32>
  %int2_165 = torch.constant.int 2
  %int512_166 = torch.constant.int 512
  %int16_167 = torch.constant.int 16
  %99 = torch.prim.ListConstruct %int2_165, %int2_165, %int512_166, %int16_167 : (!torch.int, !torch.int, !torch.int, !torch.int) -> !torch.list<int>
  %false_168 = torch.constant.bool false
  %100 = torch.aten.expand %98, %99, %false_168 : !torch.vtensor<[2,2,512,16],f32>, !torch.list<int>, !torch.bool -> !torch.vtensor<[2,2,512,16],f32>
  %int4_169 = torch.constant.int 4
  %int512_170 = torch.constant.int 512
  %int16_171 = torch.constant.int 16
  %101 = torch.prim.ListConstruct %int4_169, %int512_170, %int16_171 : (!torch.int, !torch.int, !torch.int) -> !torch.list<int>
  %int4_172 = torch.constant.int 4
  %int512_173 = torch.constant.int 512
  %int16_174 = torch.constant.int 16
  %102 = torch.prim.ListConstruct %int4_172, %int512_173, %int16_174 : (!torch.int, !torch.int, !torch.int) -> !torch.list<int>
  %103 = torch.aten.reshape %100, %102 : !torch.vtensor<[2,2,512,16],f32>, !torch.list<int> -> !torch.vtensor<[4,512,16],f32>
  %int0_175 = torch.constant.int 0
  %int2_176 = torch.constant.int 2
  %int1_177 = torch.constant.int 1
  %104 = torch.prim.ListConstruct %int0_175, %int2_176, %int1_177 : (!torch.int, !torch.int, !torch.int) -> !torch.list<int>
  %int0_178 = torch.constant.int 0
  %int2_179 = torch.constant.int 2
  %int1_180 = torch.constant.int 1
  %105 = torch.prim.ListConstruct %int0_178, %int2_179, %int1_180 : (!torch.int, !torch.int, !torch.int) -> !torch.list<int>
  %106 = torch.aten.permute %103, %105 : !torch.vtensor<[4,512,16],f32>, !torch.list<int> -> !torch.vtensor<[4,16,512],f32>
  %int1_181 = torch.constant.int 1
  %int0_182 = torch.constant.int 0
  %107 = torch.prim.ListConstruct %int1_181, %int0_182 : (!torch.int, !torch.int) -> !torch.list<int>
  %int1_183 = torch.constant.int 1
  %int0_184 = torch.constant.int 0
  %108 = torch.prim.ListConstruct %int1_183, %int0_184 : (!torch.int, !torch.int) -> !torch.list<int>
  %109 = torch.aten.permute %arg34, %108 : !torch.vtensor<[32,32],f32>, !torch.list<int> -> !torch.vtensor<[32,32],f32>
  %int1_185 = torch.constant.int 1
  %int0_186 = torch.constant.int 0
  %110 = torch.prim.ListConstruct %int1_185, %int0_186 : (!torch.int, !torch.int) -> !torch.list<int>
  %int1_187 = torch.constant.int 1
  %int0_188 = torch.constant.int 0
  %111 = torch.prim.ListConstruct %int1_187, %int0_188 : (!torch.int, !torch.int) -> !torch.list<int>
  %112 = torch.aten.permute %109, %111 : !torch.vtensor<[32,32],f32>, !torch.list<int> -> !torch.vtensor<[32,32],f32>
  %int1_189 = torch.constant.int 1
  %int0_190 = torch.constant.int 0
  %113 = torch.prim.ListConstruct %int1_189, %int0_190 : (!torch.int, !torch.int) -> !torch.list<int>
  %int1_191 = torch.constant.int 1
  %int0_192 = torch.constant.int 0
  %114 = torch.prim.ListConstruct %int1_191, %int0_192 : (!torch.int, !torch.int) -> !torch.list<int>
  %115 = torch.aten.permute %arg34, %114 : !torch.vtensor<[32,32],f32>, !torch.list<int> -> !torch.vtensor<[32,32],f32>
  %int4_193 = torch.constant.int 4
  %int512_194 = torch.constant.int 512
  %int16_195 = torch.constant.int 16
  %116 = torch.prim.ListConstruct %int4_193, %int512_194, %int16_195 : (!torch.int, !torch.int, !torch.int) -> !torch.list<int>
  %int4_196 = torch.constant.int 4
  %int512_197 = torch.constant.int 512
  %int16_198 = torch.constant.int 16
  %117 = torch.prim.ListConstruct %int4_196, %int512_197, %int16_198 : (!torch.int, !torch.int, !torch.int) -> !torch.list<int>
  %118 = torch.aten.reshape %100, %117 : !torch.vtensor<[2,2,512,16],f32>, !torch.list<int> -> !torch.vtensor<[4,512,16],f32>
  %int2_199 = torch.constant.int 2
  %int512_200 = torch.constant.int 512
  %119 = torch.prim.ListConstruct %int2_199, %int2_199, %int512_200, %int512_200 : (!torch.int, !torch.int, !torch.int, !torch.int) -> !torch.list<int>
  %false_201 = torch.constant.bool false
  %120 = torch.aten.expand %82, %119, %false_201 : !torch.vtensor<[2,2,512,512],f32>, !torch.list<int>, !torch.bool -> !torch.vtensor<[2,2,512,512],f32>
  %int4_202 = torch.constant.int 4
  %int512_203 = torch.constant.int 512
  %121 = torch.prim.ListConstruct %int4_202, %int512_203, %int512_203 : (!torch.int, !torch.int, !torch.int) -> !torch.list<int>
  %int4_204 = torch.constant.int 4
  %int512_205 = torch.constant.int 512
  %122 = torch.prim.ListConstruct %int4_204, %int512_205, %int512_205 : (!torch.int, !torch.int, !torch.int) -> !torch.list<int>
  %123 = torch.aten.reshape %120, %122 : !torch.vtensor<[2,2,512,512],f32>, !torch.list<int> -> !torch.vtensor<[4,512,512],f32>
  %124 = torch.aten.bmm %123, %118 : !torch.vtensor<[4,512,512],f32>, !torch.vtensor<[4,512,16],f32> -> !torch.vtensor<[4,512,16],f32>
  %int2_206 = torch.constant.int 2
  %int512_207 = torch.constant.int 512
  %int16_208 = torch.constant.int 16
  %125 = torch.prim.ListConstruct %int2_206, %int2_206, %int512_207, %int16_208 : (!torch.int, !torch.int, !torch.int, !torch.int) -> !torch.list<int>
  %int2_209 = torch.constant.int 2
  %int512_210 = torch.constant.int 512
  %int16_211 = torch.constant.int 16
  %126 = torch.prim.ListConstruct %int2_209, %int2_209, %int512_210, %int16_211 : (!torch.int, !torch.int, !torch.int, !torch.int) -> !torch.list<int>
  %127 = torch.aten.reshape %124, %126 : !torch.vtensor<[4,512,16],f32>, !torch.list<int> -> !torch.vtensor<[2,2,512,16],f32>
  %int0_212 = torch.constant.int 0
  %int2_213 = torch.constant.int 2
  %int1_214 = torch.constant.int 1
  %int3_215 = torch.constant.int 3
  %128 = torch.prim.ListConstruct %int0_212, %int2_213, %int1_214, %int3_215 : (!torch.int, !torch.int, !torch.int, !torch.int) -> !torch.list<int>
  %int0_216 = torch.constant.int 0
  %int2_217 = torch.constant.int 2
  %int1_218 = torch.constant.int 1
  %int3_219 = torch.constant.int 3
  %129 = torch.prim.ListConstruct %int0_216, %int2_217, %int1_218, %int3_219 : (!torch.int, !torch.int, !torch.int, !torch.int) -> !torch.list<int>
  %130 = torch.aten.permute %127, %129 : !torch.vtensor<[2,2,512,16],f32>, !torch.list<int> -> !torch.vtensor<[2,512,2,16],f32>
  %int2_220 = torch.constant.int 2
  %int512_221 = torch.constant.int 512
  %int32_222 = torch.constant.int 32
  %131 = torch.prim.ListConstruct %int2_220, %int512_221, %int32_222 : (!torch.int, !torch.int, !torch.int) -> !torch.list<int>
  %int2_223 = torch.constant.int 2
  %int512_224 = torch.constant.int 512
  %int32_225 = torch.constant.int 32
  %132 = torch.prim.ListConstruct %int2_223, %int512_224, %int32_225 : (!torch.int, !torch.int, !torch.int) -> !torch.list<int>
  %133 = torch.aten.reshape %130, %132 : !torch.vtensor<[2,512,2,16],f32>, !torch.list<int> -> !torch.vtensor<[2,512,32],f32>
  %int1024_226 = torch.constant.int 1024
  %int32_227 = torch.constant.int 32
  %134 = torch.prim.ListConstruct %int1024_226, %int32_227 : (!torch.int, !torch.int) -> !torch.list<int>
  %int1024_228 = torch.constant.int 1024
  %int32_229 = torch.constant.int 32
  %135 = torch.prim.ListConstruct %int1024_228, %int32_229 : (!torch.int, !torch.int) -> !torch.list<int>
  %136 = torch.aten.reshape %133, %135 : !torch.vtensor<[2,512,32],f32>, !torch.list<int> -> !torch.vtensor<[1024,32],f32>
  %137 = torch.aten.addmm %arg40, %136, %115, %arg39, %arg38 : !torch.vtensor<[32],f32>, !torch.vtensor<[1024,32],f32>, !torch.vtensor<[32,32],f32>, !torch.int, !torch.int -> !torch.vtensor<[1024,32],f32>
  %int2_230 = torch.constant.int 2
  %int512_231 = torch.constant.int 512
  %int32_232 = torch.constant.int 32
  %138 = torch.prim.ListConstruct %int2_230, %int512_231, %int32_232 : (!torch.int, !torch.int, !torch.int) -> !torch.list<int>
  %int2_233 = torch.constant.int 2
  %int512_234 = torch.constant.int 512
  %int32_235 = torch.constant.int 32
  %139 = torch.prim.ListConstruct %int2_233, %int512_234, %int32_235 : (!torch.int, !torch.int, !torch.int) -> !torch.list<int>
  %140 = torch.aten.reshape %137, %139 : !torch.vtensor<[1024,32],f32>, !torch.list<int> -> !torch.vtensor<[2,512,32],f32>
  %141 = torch.aten.add.Tensor %140, %result0, %arg37 : !torch.vtensor<[2,512,32],f32>, !torch.vtensor<[2,512,32],f32>, !torch.int -> !torch.vtensor<[2,512,32],f32>
  %int32_236 = torch.constant.int 32
  %142 = torch.prim.ListConstruct %int32_236 : (!torch.int) -> !torch.list<int>
  %float1.000000e-05_237 = torch.constant.float 1.000000e-05
  %result0_238, %result1_239, %result2_240 = torch.aten.native_layer_norm %141, %142, %arg36, %arg35, %float1.000000e-05_237 : !torch.vtensor<[2,512,32],f32>, !torch.list<int>, !torch.vtensor<[32],f32>, !torch.vtensor<[32],f32>, !torch.float -> !torch.vtensor<[2,512,32],f32>, !torch.vtensor<[2,512,1],f32>, !torch.vtensor<[2,512,1],f32>
  %143 = torch.prim.TupleConstruct %result0_238, %result1_239, %result2_240 : !torch.vtensor<[2,512,32],f32>, !torch.vtensor<[2,512,1],f32>, !torch.vtensor<[2,512,1],f32> -> !torch.tuple<vtensor<[2,512,32],f32>, vtensor<[2,512,1],f32>, vtensor<[2,512,1],f32>>
  %int1_241 = torch.constant.int 1
  %int0_242 = torch.constant.int 0
  %144 = torch.prim.ListConstruct %int1_241, %int0_242 : (!torch.int, !torch.int) -> !torch.list<int>
  %int1_243 = torch.constant.int 1
  %int0_244 = torch.constant.int 0
  %145 = torch.prim.ListConstruct %int1_243, %int0_244 : (!torch.int, !torch.int) -> !torch.list<int>
  %146 = torch.aten.permute %arg42, %145 : !torch.vtensor<[32,32],f32>, !torch.list<int> -> !torch.vtensor<[32,32],f32>
  %int1_245 = torch.constant.int 1
  %int0_246 = torch.constant.int 0
  %147 = torch.prim.ListConstruct %int1_245, %int0_246 : (!torch.int, !torch.int) -> !torch.list<int>
  %int1_247 = torch.constant.int 1
  %int0_248 = torch.constant.int 0
  %148 = torch.prim.ListConstruct %int1_247, %int0_248 : (!torch.int, !torch.int) -> !torch.list<int>
  %149 = torch.aten.permute %146, %148 : !torch.vtensor<[32,32],f32>, !torch.list<int> -> !torch.vtensor<[32,32],f32>
  %int1_249 = torch.constant.int 1
  %int0_250 = torch.constant.int 0
  %150 = torch.prim.ListConstruct %int1_249, %int0_250 : (!torch.int, !torch.int) -> !torch.list<int>
  %int1_251 = torch.constant.int 1
  %int0_252 = torch.constant.int 0
  %151 = torch.prim.ListConstruct %int1_251, %int0_252 : (!torch.int, !torch.int) -> !torch.list<int>
  %152 = torch.aten.permute %arg42, %151 : !torch.vtensor<[32,32],f32>, !torch.list<int> -> !torch.vtensor<[32,32],f32>
  %int1024_253 = torch.constant.int 1024
  %int32_254 = torch.constant.int 32
  %153 = torch.prim.ListConstruct %int1024_253, %int32_254 : (!torch.int, !torch.int) -> !torch.list<int>
  %int1024_255 = torch.constant.int 1024
  %int32_256 = torch.constant.int 32
  %154 = torch.prim.ListConstruct %int1024_255, %int32_256 : (!torch.int, !torch.int) -> !torch.list<int>
  %155 = torch.aten.reshape %result0_238, %154 : !torch.vtensor<[2,512,32],f32>, !torch.list<int> -> !torch.vtensor<[1024,32],f32>
  %156 = torch.aten.addmm %arg45, %155, %152, %arg44, %arg43 : !torch.vtensor<[32],f32>, !torch.vtensor<[1024,32],f32>, !torch.vtensor<[32,32],f32>, !torch.int, !torch.int -> !torch.vtensor<[1024,32],f32>
  %int2_257 = torch.constant.int 2
  %int512_258 = torch.constant.int 512
  %int32_259 = torch.constant.int 32
  %157 = torch.prim.ListConstruct %int2_257, %int512_258, %int32_259 : (!torch.int, !torch.int, !torch.int) -> !torch.list<int>
  %int2_260 = torch.constant.int 2
  %int512_261 = torch.constant.int 512
  %int32_262 = torch.constant.int 32
  %158 = torch.prim.ListConstruct %int2_260, %int512_261, %int32_262 : (!torch.int, !torch.int, !torch.int) -> !torch.list<int>
  %159 = torch.aten.reshape %156, %158 : !torch.vtensor<[1024,32],f32>, !torch.list<int> -> !torch.vtensor<[2,512,32],f32>
  %int1_263 = torch.constant.int 1
  %int0_264 = torch.constant.int 0
  %160 = torch.prim.ListConstruct %int1_263, %int0_264 : (!torch.int, !torch.int) -> !torch.list<int>
  %int1_265 = torch.constant.int 1
  %int0_266 = torch.constant.int 0
  %161 = torch.prim.ListConstruct %int1_265, %int0_266 : (!torch.int, !torch.int) -> !torch.list<int>
  %162 = torch.aten.permute %arg46, %161 : !torch.vtensor<[32,32],f32>, !torch.list<int> -> !torch.vtensor<[32,32],f32>
  %int1_267 = torch.constant.int 1
  %int0_268 = torch.constant.int 0
  %163 = torch.prim.ListConstruct %int1_267, %int0_268 : (!torch.int, !torch.int) -> !torch.list<int>
  %int1_269 = torch.constant.int 1
  %int0_270 = torch.constant.int 0
  %164 = torch.prim.ListConstruct %int1_269, %int0_270 : (!torch.int, !torch.int) -> !torch.list<int>
  %165 = torch.aten.permute %162, %164 : !torch.vtensor<[32,32],f32>, !torch.list<int> -> !torch.vtensor<[32,32],f32>
  %int1_271 = torch.constant.int 1
  %int0_272 = torch.constant.int 0
  %166 = torch.prim.ListConstruct %int1_271, %int0_272 : (!torch.int, !torch.int) -> !torch.list<int>
  %int1_273 = torch.constant.int 1
  %int0_274 = torch.constant.int 0
  %167 = torch.prim.ListConstruct %int1_273, %int0_274 : (!torch.int, !torch.int) -> !torch.list<int>
  %168 = torch.aten.permute %arg46, %167 : !torch.vtensor<[32,32],f32>, !torch.list<int> -> !torch.vtensor<[32,32],f32>
  %str = torch.constant.str "none"
  %169 = torch.aten.gelu %159, %str : !torch.vtensor<[2,512,32],f32>, !torch.str -> !torch.vtensor<[2,512,32],f32>
  %int1024_275 = torch.constant.int 1024
  %int32_276 = torch.constant.int 32
  %170 = torch.prim.ListConstruct %int1024_275, %int32_276 : (!torch.int, !torch.int) -> !torch.list<int>
  %int1024_277 = torch.constant.int 1024
  %int32_278 = torch.constant.int 32
  %171 = torch.prim.ListConstruct %int1024_277, %int32_278 : (!torch.int, !torch.int) -> !torch.list<int>
  %172 = torch.aten.reshape %169, %171 : !torch.vtensor<[2,512,32],f32>, !torch.list<int> -> !torch.vtensor<[1024,32],f32>
  %173 = torch.aten.addmm %arg52, %172, %168, %arg51, %arg50 : !torch.vtensor<[32],f32>, !torch.vtensor<[1024,32],f32>, !torch.vtensor<[32,32],f32>, !torch.int, !torch.int -> !torch.vtensor<[1024,32],f32>
  %int2_279 = torch.constant.int 2
  %int512_280 = torch.constant.int 512
  %int32_281 = torch.constant.int 32
  %174 = torch.prim.ListConstruct %int2_279, %int512_280, %int32_281 : (!torch.int, !torch.int, !torch.int) -> !torch.list<int>
  %int2_282 = torch.constant.int 2
  %int512_283 = torch.constant.int 512
  %int32_284 = torch.constant.int 32
  %175 = torch.prim.ListConstruct %int2_282, %int512_283, %int32_284 : (!torch.int, !torch.int, !torch.int) -> !torch.list<int>
  %176 = torch.aten.reshape %173, %175 : !torch.vtensor<[1024,32],f32>, !torch.list<int> -> !torch.vtensor<[2,512,32],f32>
  %177 = torch.aten.add.Tensor %176, %result0_238, %arg49 : !torch.vtensor<[2,512,32],f32>, !torch.vtensor<[2,512,32],f32>, !torch.int -> !torch.vtensor<[2,512,32],f32>
  %int32_285 = torch.constant.int 32
  %178 = torch.prim.ListConstruct %int32_285 : (!torch.int) -> !torch.list<int>
  %float1.000000e-05_286 = torch.constant.float 1.000000e-05
  %result0_287, %result1_288, %result2_289 = torch.aten.native_layer_norm %177, %178, %arg48, %arg47, %float1.000000e-05_286 : !torch.vtensor<[2,512,32],f32>, !torch.list<int>, !torch.vtensor<[32],f32>, !torch.vtensor<[32],f32>, !torch.float -> !torch.vtensor<[2,512,32],f32>, !torch.vtensor<[2,512,1],f32>, !torch.vtensor<[2,512,1],f32>
  %179 = torch.prim.TupleConstruct %result0_287, %result1_288, %result2_289 : !torch.vtensor<[2,512,32],f32>, !torch.vtensor<[2,512,1],f32>, !torch.vtensor<[2,512,1],f32> -> !torch.tuple<vtensor<[2,512,32],f32>, vtensor<[2,512,1],f32>, vtensor<[2,512,1],f32>>
  %int1_290 = torch.constant.int 1
  %int0_291 = torch.constant.int 0
  %180 = torch.prim.ListConstruct %int1_290, %int0_291 : (!torch.int, !torch.int) -> !torch.list<int>
  %int1_292 = torch.constant.int 1
  %int0_293 = torch.constant.int 0
  %181 = torch.prim.ListConstruct %int1_292, %int0_293 : (!torch.int, !torch.int) -> !torch.list<int>
  %182 = torch.aten.permute %arg53, %181 : !torch.vtensor<[32,32],f32>, !torch.list<int> -> !torch.vtensor<[32,32],f32>
  %int1_294 = torch.constant.int 1
  %int0_295 = torch.constant.int 0
  %183 = torch.prim.ListConstruct %int1_294, %int0_295 : (!torch.int, !torch.int) -> !torch.list<int>
  %int1_296 = torch.constant.int 1
  %int0_297 = torch.constant.int 0
  %184 = torch.prim.ListConstruct %int1_296, %int0_297 : (!torch.int, !torch.int) -> !torch.list<int>
  %185 = torch.aten.permute %182, %184 : !torch.vtensor<[32,32],f32>, !torch.list<int> -> !torch.vtensor<[32,32],f32>
  %int1_298 = torch.constant.int 1
  %int0_299 = torch.constant.int 0
  %186 = torch.prim.ListConstruct %int1_298, %int0_299 : (!torch.int, !torch.int) -> !torch.list<int>
  %int1_300 = torch.constant.int 1
  %int0_301 = torch.constant.int 0
  %187 = torch.prim.ListConstruct %int1_300, %int0_301 : (!torch.int, !torch.int) -> !torch.list<int>
  %188 = torch.aten.permute %arg53, %187 : !torch.vtensor<[32,32],f32>, !torch.list<int> -> !torch.vtensor<[32,32],f32>
  %int0_302 = torch.constant.int 0
  %int0_303 = torch.constant.int 0
  %int2_304 = torch.constant.int 2
  %int1_305 = torch.constant.int 1
  %189 = torch.aten.slice.Tensor %result0_287, %int0_302, %int0_303, %int2_304, %int1_305 : !torch.vtensor<[2,512,32],f32>, !torch.int, !torch.int, !torch.int, !torch.int -> !torch.vtensor<[2,512,32],f32>
  %int0_306 = torch.constant.int 0
  %int0_307 = torch.constant.int 0
  %int2_308 = torch.constant.int 2
  %int1_309 = torch.constant.int 1
  %190 = torch.aten.slice.Tensor %189, %int0_306, %int0_307, %int2_308, %int1_309 : !torch.vtensor<[2,512,32],f32>, !torch.int, !torch.int, !torch.int, !torch.int -> !torch.vtensor<[2,512,32],f32>
  %int1_310 = torch.constant.int 1
  %int0_311 = torch.constant.int 0
  %int1_312 = torch.constant.int 1
  %int1_313 = torch.constant.int 1
  %191 = torch.aten.slice.Tensor %190, %int1_310, %int0_311, %int1_312, %int1_313 : !torch.vtensor<[2,512,32],f32>, !torch.int, !torch.int, !torch.int, !torch.int -> !torch.vtensor<[2,1,32],f32>
  %int2_314 = torch.constant.int 2
  %int0_315 = torch.constant.int 0
  %int32_316 = torch.constant.int 32
  %int1_317 = torch.constant.int 1
  %192 = torch.aten.slice.Tensor %191, %int2_314, %int0_315, %int32_316, %int1_317 : !torch.vtensor<[2,1,32],f32>, !torch.int, !torch.int, !torch.int, !torch.int -> !torch.vtensor<[2,1,32],f32>
  %int2_318 = torch.constant.int 2
  %int32_319 = torch.constant.int 32
  %193 = torch.prim.ListConstruct %int2_318, %int32_319 : (!torch.int, !torch.int) -> !torch.list<int>
  %int2_320 = torch.constant.int 2
  %int32_321 = torch.constant.int 32
  %194 = torch.prim.ListConstruct %int2_320, %int32_321 : (!torch.int, !torch.int) -> !torch.list<int>
  %195 = torch.aten.reshape %192, %194 : !torch.vtensor<[2,1,32],f32>, !torch.list<int> -> !torch.vtensor<[2,32],f32>
  %196 = torch.aten.addmm %arg56, %195, %188, %arg55, %arg54 : !torch.vtensor<[32],f32>, !torch.vtensor<[2,32],f32>, !torch.vtensor<[32,32],f32>, !torch.int, !torch.int -> !torch.vtensor<[2,32],f32>
  %197 = torch.aten.tanh %196 : !torch.vtensor<[2,32],f32> -> !torch.vtensor<[2,32],f32>
  %int1_322 = torch.constant.int 1
  %int0_323 = torch.constant.int 0
  %198 = torch.prim.ListConstruct %int1_322, %int0_323 : (!torch.int, !torch.int) -> !torch.list<int>
  %int1_324 = torch.constant.int 1
  %int0_325 = torch.constant.int 0
  %199 = torch.prim.ListConstruct %int1_324, %int0_325 : (!torch.int, !torch.int) -> !torch.list<int>
  %200 = torch.aten.permute %arg57, %199 : !torch.vtensor<[2,32],f32>, !torch.list<int> -> !torch.vtensor<[32,2],f32>
  %int1_326 = torch.constant.int 1
  %int0_327 = torch.constant.int 0
  %201 = torch.prim.ListConstruct %int1_326, %int0_327 : (!torch.int, !torch.int) -> !torch.list<int>
  %int1_328 = torch.constant.int 1
  %int0_329 = torch.constant.int 0
  %202 = torch.prim.ListConstruct %int1_328, %int0_329 : (!torch.int, !torch.int) -> !torch.list<int>
  %203 = torch.aten.permute %200, %202 : !torch.vtensor<[32,2],f32>, !torch.list<int> -> !torch.vtensor<[2,32],f32>
  %int1_330 = torch.constant.int 1
  %int0_331 = torch.constant.int 0
  %204 = torch.prim.ListConstruct %int1_330, %int0_331 : (!torch.int, !torch.int) -> !torch.list<int>
  %int1_332 = torch.constant.int 1
  %int0_333 = torch.constant.int 0
  %205 = torch.prim.ListConstruct %int1_332, %int0_333 : (!torch.int, !torch.int) -> !torch.list<int>
  %206 = torch.aten.permute %arg57, %205 : !torch.vtensor<[2,32],f32>, !torch.list<int> -> !torch.vtensor<[32,2],f32>
  %207 = torch.aten.addmm %arg60, %197, %206, %arg59, %arg58 : !torch.vtensor<[2],f32>, !torch.vtensor<[2,32],f32>, !torch.vtensor<[32,2],f32>, !torch.int, !torch.int -> !torch.vtensor<[2,2],f32>
  %int2_334 = torch.constant.int 2
  %208 = torch.prim.ListConstruct %int2_334, %int2_334 : (!torch.int, !torch.int) -> !torch.list<int>
  %int2_335 = torch.constant.int 2
  %209 = torch.prim.ListConstruct %int2_335, %int2_335 : (!torch.int, !torch.int) -> !torch.list<int>
  %210 = torch.aten.reshape %207, %209 : !torch.vtensor<[2,2],f32>, !torch.list<int> -> !torch.vtensor<[2,2],f32>
  %int1_336 = torch.constant.int 1
  %false_337 = torch.constant.bool false
  %211 = torch.aten._log_softmax %210, %int1_336, %false_337 : !torch.vtensor<[2,2],f32>, !torch.int, !torch.bool -> !torch.vtensor<[2,2],f32>
  %int2_338 = torch.constant.int 2
  %212 = torch.prim.ListConstruct %int2_338 : (!torch.int) -> !torch.list<int>
  %int2_339 = torch.constant.int 2
  %213 = torch.prim.ListConstruct %int2_339 : (!torch.int) -> !torch.list<int>
  %214 = torch.aten.reshape %arg61, %213 : !torch.vtensor<[2],si64>, !torch.list<int> -> !torch.vtensor<[2],si64>
  %none_340 = torch.constant.none
  %int1_341 = torch.constant.int 1
  %int-100 = torch.constant.int -100
  %output, %total_weight = torch.aten.nll_loss_forward %211, %214, %none_340, %int1_341, %int-100 : !torch.vtensor<[2,2],f32>, !torch.vtensor<[2],si64>, !torch.none, !torch.int, !torch.int -> !torch.vtensor<[],f32>, !torch.vtensor<[],f32>
  %215 = torch.prim.TupleConstruct %output, %total_weight : !torch.vtensor<[],f32>, !torch.vtensor<[],f32> -> !torch.tuple<vtensor<[],f32>, vtensor<[],f32>>
  %none_342 = torch.constant.none
  %int1_343 = torch.constant.int 1
  %int-100_344 = torch.constant.int -100
  %216 = torch.aten.nll_loss_backward %arg62, %211, %214, %none_342, %int1_343, %int-100_344, %total_weight : !torch.vtensor<[],f32>, !torch.vtensor<[2,2],f32>, !torch.vtensor<[2],si64>, !torch.none, !torch.int, !torch.int, !torch.vtensor<[],f32> -> !torch.vtensor<[2,2],f32>
  %int1_345 = torch.constant.int 1
  %int6_346 = torch.constant.int 6
  %217 = torch.aten._log_softmax_backward_data %216, %211, %int1_345, %int6_346 : !torch.vtensor<[2,2],f32>, !torch.vtensor<[2,2],f32>, !torch.int, !torch.int -> !torch.vtensor<[2,2],f32>
  %int2_347 = torch.constant.int 2
  %218 = torch.prim.ListConstruct %int2_347, %int2_347 : (!torch.int, !torch.int) -> !torch.list<int>
  %int2_348 = torch.constant.int 2
  %219 = torch.prim.ListConstruct %int2_348, %int2_348 : (!torch.int, !torch.int) -> !torch.list<int>
  %220 = torch.aten.reshape %217, %219 : !torch.vtensor<[2,2],f32>, !torch.list<int> -> !torch.vtensor<[2,2],f32>
  %221 = torch.aten.mm %220, %203 : !torch.vtensor<[2,2],f32>, !torch.vtensor<[2,32],f32> -> !torch.vtensor<[2,32],f32>
  %222 = torch.aten.tanh_backward %221, %197 : !torch.vtensor<[2,32],f32>, !torch.vtensor<[2,32],f32> -> !torch.vtensor<[2,32],f32>
  %223 = torch.aten.mm %222, %185 : !torch.vtensor<[2,32],f32>, !torch.vtensor<[32,32],f32> -> !torch.vtensor<[2,32],f32>
  %int2_349 = torch.constant.int 2
  %int1_350 = torch.constant.int 1
  %int32_351 = torch.constant.int 32
  %224 = torch.prim.ListConstruct %int2_349, %int1_350, %int32_351 : (!torch.int, !torch.int, !torch.int) -> !torch.list<int>
  %int2_352 = torch.constant.int 2
  %int1_353 = torch.constant.int 1
  %int32_354 = torch.constant.int 32
  %225 = torch.prim.ListConstruct %int2_352, %int1_353, %int32_354 : (!torch.int, !torch.int, !torch.int) -> !torch.list<int>
  %226 = torch.aten.reshape %223, %225 : !torch.vtensor<[2,32],f32>, !torch.list<int> -> !torch.vtensor<[2,1,32],f32>
  %227 = torch.aten.zero.functional %arg63 : !torch.vtensor<[2,512,32],f32> -> !torch.vtensor<[2,512,32],f32>
  %none_355 = torch.constant.none
  %228 = torch.aten.clone %227, %none_355 : !torch.vtensor<[2,512,32],f32>, !torch.none -> !torch.vtensor<[2,512,32],f32>
  %int0_356 = torch.constant.int 0
  %int0_357 = torch.constant.int 0
  %int2_358 = torch.constant.int 2
  %int1_359 = torch.constant.int 1
  %229 = torch.aten.slice.Tensor %228, %int0_356, %int0_357, %int2_358, %int1_359 : !torch.vtensor<[2,512,32],f32>, !torch.int, !torch.int, !torch.int, !torch.int -> !torch.vtensor<[2,512,32],f32>
  %int1_360 = torch.constant.int 1
  %int0_361 = torch.constant.int 0
  %int1_362 = torch.constant.int 1
  %int1_363 = torch.constant.int 1
  %230 = torch.aten.slice.Tensor %229, %int1_360, %int0_361, %int1_362, %int1_363 : !torch.vtensor<[2,512,32],f32>, !torch.int, !torch.int, !torch.int, !torch.int -> !torch.vtensor<[2,1,32],f32>
  %int2_364 = torch.constant.int 2
  %int0_365 = torch.constant.int 0
  %int32_366 = torch.constant.int 32
  %int1_367 = torch.constant.int 1
  %231 = torch.aten.slice.Tensor %230, %int2_364, %int0_365, %int32_366, %int1_367 : !torch.vtensor<[2,1,32],f32>, !torch.int, !torch.int, !torch.int, !torch.int -> !torch.vtensor<[2,1,32],f32>
  %false_368 = torch.constant.bool false
  %232 = torch.aten.copy_ %231, %226, %false_368 : !torch.vtensor<[2,1,32],f32>, !torch.vtensor<[2,1,32],f32>, !torch.bool -> !torch.vtensor<[2,1,32],f32>
  %233 = torch.aten.zero.functional %arg64 : !torch.vtensor<[2,512,32],f32> -> !torch.vtensor<[2,512,32],f32>
  %none_369 = torch.constant.none
  %234 = torch.aten.clone %233, %none_369 : !torch.vtensor<[2,512,32],f32>, !torch.none -> !torch.vtensor<[2,512,32],f32>
  %int0_370 = torch.constant.int 0
  %int0_371 = torch.constant.int 0
  %int2_372 = torch.constant.int 2
  %int1_373 = torch.constant.int 1
  %235 = torch.aten.slice.Tensor %234, %int0_370, %int0_371, %int2_372, %int1_373 : !torch.vtensor<[2,512,32],f32>, !torch.int, !torch.int, !torch.int, !torch.int -> !torch.vtensor<[2,512,32],f32>
  %false_374 = torch.constant.bool false
  %236 = torch.aten.copy_ %235, %228, %false_374 : !torch.vtensor<[2,512,32],f32>, !torch.vtensor<[2,512,32],f32>, !torch.bool -> !torch.vtensor<[2,512,32],f32>
  %int32_375 = torch.constant.int 32
  %237 = torch.prim.ListConstruct %int32_375 : (!torch.int) -> !torch.list<int>
  %true = torch.constant.bool true
  %238 = torch.prim.ListConstruct %true, %true, %true : (!torch.bool, !torch.bool, !torch.bool) -> !torch.list<bool>
  %result0_376, %result1_377, %result2_378 = torch.aten.native_layer_norm_backward %234, %177, %237, %result1_288, %result2_289, %arg48, %arg47, %238 : !torch.vtensor<[2,512,32],f32>, !torch.vtensor<[2,512,32],f32>, !torch.list<int>, !torch.vtensor<[2,512,1],f32>, !torch.vtensor<[2,512,1],f32>, !torch.vtensor<[32],f32>, !torch.vtensor<[32],f32>, !torch.list<bool> -> !torch.vtensor<[2,512,32],f32>, !torch.vtensor<[32],f32>, !torch.vtensor<[32],f32>
  %239 = torch.prim.TupleConstruct %result0_376, %result1_377, %result2_378 : !torch.vtensor<[2,512,32],f32>, !torch.vtensor<[32],f32>, !torch.vtensor<[32],f32> -> !torch.tuple<vtensor<[2,512,32],f32>, vtensor<[32],f32>, vtensor<[32],f32>>
  %int1024_379 = torch.constant.int 1024
  %int32_380 = torch.constant.int 32
  %240 = torch.prim.ListConstruct %int1024_379, %int32_380 : (!torch.int, !torch.int) -> !torch.list<int>
  %int1024_381 = torch.constant.int 1024
  %int32_382 = torch.constant.int 32
  %241 = torch.prim.ListConstruct %int1024_381, %int32_382 : (!torch.int, !torch.int) -> !torch.list<int>
  %242 = torch.aten.reshape %result0_376, %241 : !torch.vtensor<[2,512,32],f32>, !torch.list<int> -> !torch.vtensor<[1024,32],f32>
  %243 = torch.aten.mm %242, %165 : !torch.vtensor<[1024,32],f32>, !torch.vtensor<[32,32],f32> -> !torch.vtensor<[1024,32],f32>
  %int2_383 = torch.constant.int 2
  %int512_384 = torch.constant.int 512
  %int32_385 = torch.constant.int 32
  %244 = torch.prim.ListConstruct %int2_383, %int512_384, %int32_385 : (!torch.int, !torch.int, !torch.int) -> !torch.list<int>
  %int2_386 = torch.constant.int 2
  %int512_387 = torch.constant.int 512
  %int32_388 = torch.constant.int 32
  %245 = torch.prim.ListConstruct %int2_386, %int512_387, %int32_388 : (!torch.int, !torch.int, !torch.int) -> !torch.list<int>
  %246 = torch.aten.reshape %243, %245 : !torch.vtensor<[1024,32],f32>, !torch.list<int> -> !torch.vtensor<[2,512,32],f32>
  %str_389 = torch.constant.str "none"
  %247 = torch.aten.gelu_backward %246, %159, %str_389 : !torch.vtensor<[2,512,32],f32>, !torch.vtensor<[2,512,32],f32>, !torch.str -> !torch.vtensor<[2,512,32],f32>
  %int1024_390 = torch.constant.int 1024
  %int32_391 = torch.constant.int 32
  %248 = torch.prim.ListConstruct %int1024_390, %int32_391 : (!torch.int, !torch.int) -> !torch.list<int>
  %int1024_392 = torch.constant.int 1024
  %int32_393 = torch.constant.int 32
  %249 = torch.prim.ListConstruct %int1024_392, %int32_393 : (!torch.int, !torch.int) -> !torch.list<int>
  %250 = torch.aten.reshape %247, %249 : !torch.vtensor<[2,512,32],f32>, !torch.list<int> -> !torch.vtensor<[1024,32],f32>
  %251 = torch.aten.mm %250, %149 : !torch.vtensor<[1024,32],f32>, !torch.vtensor<[32,32],f32> -> !torch.vtensor<[1024,32],f32>
  %int2_394 = torch.constant.int 2
  %int512_395 = torch.constant.int 512
  %int32_396 = torch.constant.int 32
  %252 = torch.prim.ListConstruct %int2_394, %int512_395, %int32_396 : (!torch.int, !torch.int, !torch.int) -> !torch.list<int>
  %int2_397 = torch.constant.int 2
  %int512_398 = torch.constant.int 512
  %int32_399 = torch.constant.int 32
  %253 = torch.prim.ListConstruct %int2_397, %int512_398, %int32_399 : (!torch.int, !torch.int, !torch.int) -> !torch.list<int>
  %254 = torch.aten.reshape %251, %253 : !torch.vtensor<[1024,32],f32>, !torch.list<int> -> !torch.vtensor<[2,512,32],f32>
  %255 = torch.aten.add.Tensor %result0_376, %254, %arg41 : !torch.vtensor<[2,512,32],f32>, !torch.vtensor<[2,512,32],f32>, !torch.int -> !torch.vtensor<[2,512,32],f32>
  %int32_400 = torch.constant.int 32
  %256 = torch.prim.ListConstruct %int32_400 : (!torch.int) -> !torch.list<int>
  %true_401 = torch.constant.bool true
  %257 = torch.prim.ListConstruct %true_401, %true_401, %true_401 : (!torch.bool, !torch.bool, !torch.bool) -> !torch.list<bool>
  %result0_402, %result1_403, %result2_404 = torch.aten.native_layer_norm_backward %255, %141, %256, %result1_239, %result2_240, %arg36, %arg35, %257 : !torch.vtensor<[2,512,32],f32>, !torch.vtensor<[2,512,32],f32>, !torch.list<int>, !torch.vtensor<[2,512,1],f32>, !torch.vtensor<[2,512,1],f32>, !torch.vtensor<[32],f32>, !torch.vtensor<[32],f32>, !torch.list<bool> -> !torch.vtensor<[2,512,32],f32>, !torch.vtensor<[32],f32>, !torch.vtensor<[32],f32>
  %258 = torch.prim.TupleConstruct %result0_402, %result1_403, %result2_404 : !torch.vtensor<[2,512,32],f32>, !torch.vtensor<[32],f32>, !torch.vtensor<[32],f32> -> !torch.tuple<vtensor<[2,512,32],f32>, vtensor<[32],f32>, vtensor<[32],f32>>
  %int1024_405 = torch.constant.int 1024
  %int32_406 = torch.constant.int 32
  %259 = torch.prim.ListConstruct %int1024_405, %int32_406 : (!torch.int, !torch.int) -> !torch.list<int>
  %int1024_407 = torch.constant.int 1024
  %int32_408 = torch.constant.int 32
  %260 = torch.prim.ListConstruct %int1024_407, %int32_408 : (!torch.int, !torch.int) -> !torch.list<int>
  %261 = torch.aten.reshape %result0_402, %260 : !torch.vtensor<[2,512,32],f32>, !torch.list<int> -> !torch.vtensor<[1024,32],f32>
  %262 = torch.aten.mm %261, %112 : !torch.vtensor<[1024,32],f32>, !torch.vtensor<[32,32],f32> -> !torch.vtensor<[1024,32],f32>
  %int2_409 = torch.constant.int 2
  %int512_410 = torch.constant.int 512
  %int32_411 = torch.constant.int 32
  %263 = torch.prim.ListConstruct %int2_409, %int512_410, %int32_411 : (!torch.int, !torch.int, !torch.int) -> !torch.list<int>
  %int2_412 = torch.constant.int 2
  %int512_413 = torch.constant.int 512
  %int32_414 = torch.constant.int 32
  %264 = torch.prim.ListConstruct %int2_412, %int512_413, %int32_414 : (!torch.int, !torch.int, !torch.int) -> !torch.list<int>
  %265 = torch.aten.reshape %262, %264 : !torch.vtensor<[1024,32],f32>, !torch.list<int> -> !torch.vtensor<[2,512,32],f32>
  %int2_415 = torch.constant.int 2
  %int512_416 = torch.constant.int 512
  %int16_417 = torch.constant.int 16
  %266 = torch.prim.ListConstruct %int2_415, %int512_416, %int2_415, %int16_417 : (!torch.int, !torch.int, !torch.int, !torch.int) -> !torch.list<int>
  %int2_418 = torch.constant.int 2
  %int512_419 = torch.constant.int 512
  %int16_420 = torch.constant.int 16
  %267 = torch.prim.ListConstruct %int2_418, %int512_419, %int2_418, %int16_420 : (!torch.int, !torch.int, !torch.int, !torch.int) -> !torch.list<int>
  %268 = torch.aten.reshape %265, %267 : !torch.vtensor<[2,512,32],f32>, !torch.list<int> -> !torch.vtensor<[2,512,2,16],f32>
  %int0_421 = torch.constant.int 0
  %int2_422 = torch.constant.int 2
  %int1_423 = torch.constant.int 1
  %int3_424 = torch.constant.int 3
  %269 = torch.prim.ListConstruct %int0_421, %int2_422, %int1_423, %int3_424 : (!torch.int, !torch.int, !torch.int, !torch.int) -> !torch.list<int>
  %int0_425 = torch.constant.int 0
  %int2_426 = torch.constant.int 2
  %int1_427 = torch.constant.int 1
  %int3_428 = torch.constant.int 3
  %270 = torch.prim.ListConstruct %int0_425, %int2_426, %int1_427, %int3_428 : (!torch.int, !torch.int, !torch.int, !torch.int) -> !torch.list<int>
  %271 = torch.aten.permute %268, %270 : !torch.vtensor<[2,512,2,16],f32>, !torch.list<int> -> !torch.vtensor<[2,2,512,16],f32>
  %int4_429 = torch.constant.int 4
  %int512_430 = torch.constant.int 512
  %int16_431 = torch.constant.int 16
  %272 = torch.prim.ListConstruct %int4_429, %int512_430, %int16_431 : (!torch.int, !torch.int, !torch.int) -> !torch.list<int>
  %int4_432 = torch.constant.int 4
  %int512_433 = torch.constant.int 512
  %int16_434 = torch.constant.int 16
  %273 = torch.prim.ListConstruct %int4_432, %int512_433, %int16_434 : (!torch.int, !torch.int, !torch.int) -> !torch.list<int>
  %274 = torch.aten.reshape %271, %273 : !torch.vtensor<[2,2,512,16],f32>, !torch.list<int> -> !torch.vtensor<[4,512,16],f32>
  %275 = torch.aten.bmm %274, %106 : !torch.vtensor<[4,512,16],f32>, !torch.vtensor<[4,16,512],f32> -> !torch.vtensor<[4,512,512],f32>
  %int2_435 = torch.constant.int 2
  %int512_436 = torch.constant.int 512
  %276 = torch.prim.ListConstruct %int2_435, %int2_435, %int512_436, %int512_436 : (!torch.int, !torch.int, !torch.int, !torch.int) -> !torch.list<int>
  %int2_437 = torch.constant.int 2
  %int512_438 = torch.constant.int 512
  %277 = torch.prim.ListConstruct %int2_437, %int2_437, %int512_438, %int512_438 : (!torch.int, !torch.int, !torch.int, !torch.int) -> !torch.list<int>
  %278 = torch.aten.reshape %275, %277 : !torch.vtensor<[4,512,512],f32>, !torch.list<int> -> !torch.vtensor<[2,2,512,512],f32>
  %int-1_439 = torch.constant.int -1
  %int6_440 = torch.constant.int 6
  %279 = torch.aten._softmax_backward_data %278, %82, %int-1_439, %int6_440 : !torch.vtensor<[2,2,512,512],f32>, !torch.vtensor<[2,2,512,512],f32>, !torch.int, !torch.int -> !torch.vtensor<[2,2,512,512],f32>
  %280 = torch.aten.div.Tensor %279, %arg21 : !torch.vtensor<[2,2,512,512],f32>, !torch.vtensor<[],f64> -> !torch.vtensor<[2,2,512,512],f32>
  %int4_441 = torch.constant.int 4
  %int512_442 = torch.constant.int 512
  %281 = torch.prim.ListConstruct %int4_441, %int512_442, %int512_442 : (!torch.int, !torch.int, !torch.int) -> !torch.list<int>
  %int4_443 = torch.constant.int 4
  %int512_444 = torch.constant.int 512
  %282 = torch.prim.ListConstruct %int4_443, %int512_444, %int512_444 : (!torch.int, !torch.int, !torch.int) -> !torch.list<int>
  %283 = torch.aten.reshape %280, %282 : !torch.vtensor<[2,2,512,512],f32>, !torch.list<int> -> !torch.vtensor<[4,512,512],f32>
  %284 = torch.aten.bmm %283, %40 : !torch.vtensor<[4,512,512],f32>, !torch.vtensor<[4,512,16],f32> -> !torch.vtensor<[4,512,16],f32>
  %int2_445 = torch.constant.int 2
  %int512_446 = torch.constant.int 512
  %int16_447 = torch.constant.int 16
  %285 = torch.prim.ListConstruct %int2_445, %int2_445, %int512_446, %int16_447 : (!torch.int, !torch.int, !torch.int, !torch.int) -> !torch.list<int>
  %int2_448 = torch.constant.int 2
  %int512_449 = torch.constant.int 512
  %int16_450 = torch.constant.int 16
  %286 = torch.prim.ListConstruct %int2_448, %int2_448, %int512_449, %int16_450 : (!torch.int, !torch.int, !torch.int, !torch.int) -> !torch.list<int>
  %287 = torch.aten.reshape %284, %286 : !torch.vtensor<[4,512,16],f32>, !torch.list<int> -> !torch.vtensor<[2,2,512,16],f32>
  %int0_451 = torch.constant.int 0
  %int2_452 = torch.constant.int 2
  %int1_453 = torch.constant.int 1
  %int3_454 = torch.constant.int 3
  %288 = torch.prim.ListConstruct %int0_451, %int2_452, %int1_453, %int3_454 : (!torch.int, !torch.int, !torch.int, !torch.int) -> !torch.list<int>
  %int0_455 = torch.constant.int 0
  %int2_456 = torch.constant.int 2
  %int1_457 = torch.constant.int 1
  %int3_458 = torch.constant.int 3
  %289 = torch.prim.ListConstruct %int0_455, %int2_456, %int1_457, %int3_458 : (!torch.int, !torch.int, !torch.int, !torch.int) -> !torch.list<int>
  %290 = torch.aten.permute %287, %289 : !torch.vtensor<[2,2,512,16],f32>, !torch.list<int> -> !torch.vtensor<[2,512,2,16],f32>
  %int2_459 = torch.constant.int 2
  %int512_460 = torch.constant.int 512
  %int32_461 = torch.constant.int 32
  %291 = torch.prim.ListConstruct %int2_459, %int512_460, %int32_461 : (!torch.int, !torch.int, !torch.int) -> !torch.list<int>
  %int2_462 = torch.constant.int 2
  %int512_463 = torch.constant.int 512
  %int32_464 = torch.constant.int 32
  %292 = torch.prim.ListConstruct %int2_462, %int512_463, %int32_464 : (!torch.int, !torch.int, !torch.int) -> !torch.list<int>
  %293 = torch.aten.reshape %290, %292 : !torch.vtensor<[2,512,2,16],f32>, !torch.list<int> -> !torch.vtensor<[2,512,32],f32>
  %int1024_465 = torch.constant.int 1024
  %int32_466 = torch.constant.int 32
  %294 = torch.prim.ListConstruct %int1024_465, %int32_466 : (!torch.int, !torch.int) -> !torch.list<int>
  %int1024_467 = torch.constant.int 1024
  %int32_468 = torch.constant.int 32
  %295 = torch.prim.ListConstruct %int1024_467, %int32_468 : (!torch.int, !torch.int) -> !torch.list<int>
  %296 = torch.aten.reshape %293, %295 : !torch.vtensor<[2,512,32],f32>, !torch.list<int> -> !torch.vtensor<[1024,32],f32>
  %297 = torch.aten.mm %296, %13 : !torch.vtensor<[1024,32],f32>, !torch.vtensor<[32,32],f32> -> !torch.vtensor<[1024,32],f32>
  %int2_469 = torch.constant.int 2
  %int512_470 = torch.constant.int 512
  %int32_471 = torch.constant.int 32
  %298 = torch.prim.ListConstruct %int2_469, %int512_470, %int32_471 : (!torch.int, !torch.int, !torch.int) -> !torch.list<int>
  %int2_472 = torch.constant.int 2
  %int512_473 = torch.constant.int 512
  %int32_474 = torch.constant.int 32
  %299 = torch.prim.ListConstruct %int2_472, %int512_473, %int32_474 : (!torch.int, !torch.int, !torch.int) -> !torch.list<int>
  %300 = torch.aten.reshape %297, %299 : !torch.vtensor<[1024,32],f32>, !torch.list<int> -> !torch.vtensor<[2,512,32],f32>
  %int1_475 = torch.constant.int 1
  %int0_476 = torch.constant.int 0
  %301 = torch.prim.ListConstruct %int1_475, %int0_476 : (!torch.int, !torch.int) -> !torch.list<int>
  %int1_477 = torch.constant.int 1
  %int0_478 = torch.constant.int 0
  %302 = torch.prim.ListConstruct %int1_477, %int0_478 : (!torch.int, !torch.int) -> !torch.list<int>
  %303 = torch.aten.permute %arg19, %302 : !torch.vtensor<[32,32],f32>, !torch.list<int> -> !torch.vtensor<[32,32],f32>
  %int1_479 = torch.constant.int 1
  %int0_480 = torch.constant.int 0
  %304 = torch.prim.ListConstruct %int1_479, %int0_480 : (!torch.int, !torch.int) -> !torch.list<int>
  %int1_481 = torch.constant.int 1
  %int0_482 = torch.constant.int 0
  %305 = torch.prim.ListConstruct %int1_481, %int0_482 : (!torch.int, !torch.int) -> !torch.list<int>
  %306 = torch.aten.permute %303, %305 : !torch.vtensor<[32,32],f32>, !torch.list<int> -> !torch.vtensor<[32,32],f32>
  %int4_483 = torch.constant.int 4
  %int512_484 = torch.constant.int 512
  %int16_485 = torch.constant.int 16
  %307 = torch.prim.ListConstruct %int4_483, %int512_484, %int16_485 : (!torch.int, !torch.int, !torch.int) -> !torch.list<int>
  %int4_486 = torch.constant.int 4
  %int512_487 = torch.constant.int 512
  %int16_488 = torch.constant.int 16
  %308 = torch.prim.ListConstruct %int4_486, %int512_487, %int16_488 : (!torch.int, !torch.int, !torch.int) -> !torch.list<int>
  %309 = torch.aten.reshape %72, %308 : !torch.vtensor<[2,2,512,16],f32>, !torch.list<int> -> !torch.vtensor<[4,512,16],f32>
  %int0_489 = torch.constant.int 0
  %int2_490 = torch.constant.int 2
  %int1_491 = torch.constant.int 1
  %310 = torch.prim.ListConstruct %int0_489, %int2_490, %int1_491 : (!torch.int, !torch.int, !torch.int) -> !torch.list<int>
  %int0_492 = torch.constant.int 0
  %int2_493 = torch.constant.int 2
  %int1_494 = torch.constant.int 1
  %311 = torch.prim.ListConstruct %int0_492, %int2_493, %int1_494 : (!torch.int, !torch.int, !torch.int) -> !torch.list<int>
  %312 = torch.aten.permute %309, %311 : !torch.vtensor<[4,512,16],f32>, !torch.list<int> -> !torch.vtensor<[4,16,512],f32>
  %313 = torch.aten.bmm %312, %283 : !torch.vtensor<[4,16,512],f32>, !torch.vtensor<[4,512,512],f32> -> !torch.vtensor<[4,16,512],f32>
  %int2_495 = torch.constant.int 2
  %int16_496 = torch.constant.int 16
  %int512_497 = torch.constant.int 512
  %314 = torch.prim.ListConstruct %int2_495, %int2_495, %int16_496, %int512_497 : (!torch.int, !torch.int, !torch.int, !torch.int) -> !torch.list<int>
  %int2_498 = torch.constant.int 2
  %int16_499 = torch.constant.int 16
  %int512_500 = torch.constant.int 512
  %315 = torch.prim.ListConstruct %int2_498, %int2_498, %int16_499, %int512_500 : (!torch.int, !torch.int, !torch.int, !torch.int) -> !torch.list<int>
  %316 = torch.aten.reshape %313, %315 : !torch.vtensor<[4,16,512],f32>, !torch.list<int> -> !torch.vtensor<[2,2,16,512],f32>
  %int0_501 = torch.constant.int 0
  %int1_502 = torch.constant.int 1
  %int3_503 = torch.constant.int 3
  %int2_504 = torch.constant.int 2
  %317 = torch.prim.ListConstruct %int0_501, %int1_502, %int3_503, %int2_504 : (!torch.int, !torch.int, !torch.int, !torch.int) -> !torch.list<int>
  %int0_505 = torch.constant.int 0
  %int1_506 = torch.constant.int 1
  %int3_507 = torch.constant.int 3
  %int2_508 = torch.constant.int 2
  %318 = torch.prim.ListConstruct %int0_505, %int1_506, %int3_507, %int2_508 : (!torch.int, !torch.int, !torch.int, !torch.int) -> !torch.list<int>
  %319 = torch.aten.permute %316, %318 : !torch.vtensor<[2,2,16,512],f32>, !torch.list<int> -> !torch.vtensor<[2,2,512,16],f32>
  %int0_509 = torch.constant.int 0
  %int2_510 = torch.constant.int 2
  %int1_511 = torch.constant.int 1
  %int3_512 = torch.constant.int 3
  %320 = torch.prim.ListConstruct %int0_509, %int2_510, %int1_511, %int3_512 : (!torch.int, !torch.int, !torch.int, !torch.int) -> !torch.list<int>
  %int0_513 = torch.constant.int 0
  %int2_514 = torch.constant.int 2
  %int1_515 = torch.constant.int 1
  %int3_516 = torch.constant.int 3
  %321 = torch.prim.ListConstruct %int0_513, %int2_514, %int1_515, %int3_516 : (!torch.int, !torch.int, !torch.int, !torch.int) -> !torch.list<int>
  %322 = torch.aten.permute %319, %321 : !torch.vtensor<[2,2,512,16],f32>, !torch.list<int> -> !torch.vtensor<[2,512,2,16],f32>
  %int2_517 = torch.constant.int 2
  %int512_518 = torch.constant.int 512
  %int32_519 = torch.constant.int 32
  %323 = torch.prim.ListConstruct %int2_517, %int512_518, %int32_519 : (!torch.int, !torch.int, !torch.int) -> !torch.list<int>
  %int2_520 = torch.constant.int 2
  %int512_521 = torch.constant.int 512
  %int32_522 = torch.constant.int 32
  %324 = torch.prim.ListConstruct %int2_520, %int512_521, %int32_522 : (!torch.int, !torch.int, !torch.int) -> !torch.list<int>
  %325 = torch.aten.reshape %322, %324 : !torch.vtensor<[2,512,2,16],f32>, !torch.list<int> -> !torch.vtensor<[2,512,32],f32>
  %int1024_523 = torch.constant.int 1024
  %int32_524 = torch.constant.int 32
  %326 = torch.prim.ListConstruct %int1024_523, %int32_524 : (!torch.int, !torch.int) -> !torch.list<int>
  %int1024_525 = torch.constant.int 1024
  %int32_526 = torch.constant.int 32
  %327 = torch.prim.ListConstruct %int1024_525, %int32_526 : (!torch.int, !torch.int) -> !torch.list<int>
  %328 = torch.aten.reshape %325, %327 : !torch.vtensor<[2,512,32],f32>, !torch.list<int> -> !torch.vtensor<[1024,32],f32>
  %329 = torch.aten.mm %328, %306 : !torch.vtensor<[1024,32],f32>, !torch.vtensor<[32,32],f32> -> !torch.vtensor<[1024,32],f32>
  %int2_527 = torch.constant.int 2
  %int512_528 = torch.constant.int 512
  %int32_529 = torch.constant.int 32
  %330 = torch.prim.ListConstruct %int2_527, %int512_528, %int32_529 : (!torch.int, !torch.int, !torch.int) -> !torch.list<int>
  %int2_530 = torch.constant.int 2
  %int512_531 = torch.constant.int 512
  %int32_532 = torch.constant.int 32
  %331 = torch.prim.ListConstruct %int2_530, %int512_531, %int32_532 : (!torch.int, !torch.int, !torch.int) -> !torch.list<int>
  %332 = torch.aten.reshape %329, %331 : !torch.vtensor<[1024,32],f32>, !torch.list<int> -> !torch.vtensor<[2,512,32],f32>
  %int1_533 = torch.constant.int 1
  %int0_534 = torch.constant.int 0
  %333 = torch.prim.ListConstruct %int1_533, %int0_534 : (!torch.int, !torch.int) -> !torch.list<int>
  %int1_535 = torch.constant.int 1
  %int0_536 = torch.constant.int 0
  %334 = torch.prim.ListConstruct %int1_535, %int0_536 : (!torch.int, !torch.int) -> !torch.list<int>
  %335 = torch.aten.permute %arg32, %334 : !torch.vtensor<[32,32],f32>, !torch.list<int> -> !torch.vtensor<[32,32],f32>
  %int1_537 = torch.constant.int 1
  %int0_538 = torch.constant.int 0
  %336 = torch.prim.ListConstruct %int1_537, %int0_538 : (!torch.int, !torch.int) -> !torch.list<int>
  %int1_539 = torch.constant.int 1
  %int0_540 = torch.constant.int 0
  %337 = torch.prim.ListConstruct %int1_539, %int0_540 : (!torch.int, !torch.int) -> !torch.list<int>
  %338 = torch.aten.permute %335, %337 : !torch.vtensor<[32,32],f32>, !torch.list<int> -> !torch.vtensor<[32,32],f32>
  %int4_541 = torch.constant.int 4
  %int512_542 = torch.constant.int 512
  %339 = torch.prim.ListConstruct %int4_541, %int512_542, %int512_542 : (!torch.int, !torch.int, !torch.int) -> !torch.list<int>
  %int4_543 = torch.constant.int 4
  %int512_544 = torch.constant.int 512
  %340 = torch.prim.ListConstruct %int4_543, %int512_544, %int512_544 : (!torch.int, !torch.int, !torch.int) -> !torch.list<int>
  %341 = torch.aten.reshape %120, %340 : !torch.vtensor<[2,2,512,512],f32>, !torch.list<int> -> !torch.vtensor<[4,512,512],f32>
  %int0_545 = torch.constant.int 0
  %int2_546 = torch.constant.int 2
  %int1_547 = torch.constant.int 1
  %342 = torch.prim.ListConstruct %int0_545, %int2_546, %int1_547 : (!torch.int, !torch.int, !torch.int) -> !torch.list<int>
  %int0_548 = torch.constant.int 0
  %int2_549 = torch.constant.int 2
  %int1_550 = torch.constant.int 1
  %343 = torch.prim.ListConstruct %int0_548, %int2_549, %int1_550 : (!torch.int, !torch.int, !torch.int) -> !torch.list<int>
  %344 = torch.aten.permute %341, %343 : !torch.vtensor<[4,512,512],f32>, !torch.list<int> -> !torch.vtensor<[4,512,512],f32>
  %345 = torch.aten.bmm %344, %274 : !torch.vtensor<[4,512,512],f32>, !torch.vtensor<[4,512,16],f32> -> !torch.vtensor<[4,512,16],f32>
  %int2_551 = torch.constant.int 2
  %int512_552 = torch.constant.int 512
  %int16_553 = torch.constant.int 16
  %346 = torch.prim.ListConstruct %int2_551, %int2_551, %int512_552, %int16_553 : (!torch.int, !torch.int, !torch.int, !torch.int) -> !torch.list<int>
  %int2_554 = torch.constant.int 2
  %int512_555 = torch.constant.int 512
  %int16_556 = torch.constant.int 16
  %347 = torch.prim.ListConstruct %int2_554, %int2_554, %int512_555, %int16_556 : (!torch.int, !torch.int, !torch.int, !torch.int) -> !torch.list<int>
  %348 = torch.aten.reshape %345, %347 : !torch.vtensor<[4,512,16],f32>, !torch.list<int> -> !torch.vtensor<[2,2,512,16],f32>
  %int0_557 = torch.constant.int 0
  %int2_558 = torch.constant.int 2
  %int1_559 = torch.constant.int 1
  %int3_560 = torch.constant.int 3
  %349 = torch.prim.ListConstruct %int0_557, %int2_558, %int1_559, %int3_560 : (!torch.int, !torch.int, !torch.int, !torch.int) -> !torch.list<int>
  %int0_561 = torch.constant.int 0
  %int2_562 = torch.constant.int 2
  %int1_563 = torch.constant.int 1
  %int3_564 = torch.constant.int 3
  %350 = torch.prim.ListConstruct %int0_561, %int2_562, %int1_563, %int3_564 : (!torch.int, !torch.int, !torch.int, !torch.int) -> !torch.list<int>
  %351 = torch.aten.permute %348, %350 : !torch.vtensor<[2,2,512,16],f32>, !torch.list<int> -> !torch.vtensor<[2,512,2,16],f32>
  %int2_565 = torch.constant.int 2
  %int512_566 = torch.constant.int 512
  %int32_567 = torch.constant.int 32
  %352 = torch.prim.ListConstruct %int2_565, %int512_566, %int32_567 : (!torch.int, !torch.int, !torch.int) -> !torch.list<int>
  %int2_568 = torch.constant.int 2
  %int512_569 = torch.constant.int 512
  %int32_570 = torch.constant.int 32
  %353 = torch.prim.ListConstruct %int2_568, %int512_569, %int32_570 : (!torch.int, !torch.int, !torch.int) -> !torch.list<int>
  %354 = torch.aten.reshape %351, %353 : !torch.vtensor<[2,512,2,16],f32>, !torch.list<int> -> !torch.vtensor<[2,512,32],f32>
  %int1024_571 = torch.constant.int 1024
  %int32_572 = torch.constant.int 32
  %355 = torch.prim.ListConstruct %int1024_571, %int32_572 : (!torch.int, !torch.int) -> !torch.list<int>
  %int1024_573 = torch.constant.int 1024
  %int32_574 = torch.constant.int 32
  %356 = torch.prim.ListConstruct %int1024_573, %int32_574 : (!torch.int, !torch.int) -> !torch.list<int>
  %357 = torch.aten.reshape %354, %356 : !torch.vtensor<[2,512,32],f32>, !torch.list<int> -> !torch.vtensor<[1024,32],f32>
  %358 = torch.aten.mm %357, %338 : !torch.vtensor<[1024,32],f32>, !torch.vtensor<[32,32],f32> -> !torch.vtensor<[1024,32],f32>
  %int2_575 = torch.constant.int 2
  %int512_576 = torch.constant.int 512
  %int32_577 = torch.constant.int 32
  %359 = torch.prim.ListConstruct %int2_575, %int512_576, %int32_577 : (!torch.int, !torch.int, !torch.int) -> !torch.list<int>
  %int2_578 = torch.constant.int 2
  %int512_579 = torch.constant.int 512
  %int32_580 = torch.constant.int 32
  %360 = torch.prim.ListConstruct %int2_578, %int512_579, %int32_580 : (!torch.int, !torch.int, !torch.int) -> !torch.list<int>
  %361 = torch.aten.reshape %358, %360 : !torch.vtensor<[1024,32],f32>, !torch.list<int> -> !torch.vtensor<[2,512,32],f32>
  %362 = torch.aten.add.Tensor %result0_402, %361, %arg66 : !torch.vtensor<[2,512,32],f32>, !torch.vtensor<[2,512,32],f32>, !torch.int -> !torch.vtensor<[2,512,32],f32>
  %363 = torch.aten.add.Tensor %362, %332, %arg65 : !torch.vtensor<[2,512,32],f32>, !torch.vtensor<[2,512,32],f32>, !torch.int -> !torch.vtensor<[2,512,32],f32>
  %364 = torch.aten.add.Tensor %363, %300, %arg15 : !torch.vtensor<[2,512,32],f32>, !torch.vtensor<[2,512,32],f32>, !torch.int -> !torch.vtensor<[2,512,32],f32>
  %int32_581 = torch.constant.int 32
  %365 = torch.prim.ListConstruct %int32_581 : (!torch.int) -> !torch.list<int>
  %true_582 = torch.constant.bool true
  %366 = torch.prim.ListConstruct %true_582, %true_582, %true_582 : (!torch.bool, !torch.bool, !torch.bool) -> !torch.list<bool>
  %result0_583, %result1_584, %result2_585 = torch.aten.native_layer_norm_backward %364, %5, %365, %result1, %result2, %arg7, %arg6, %366 : !torch.vtensor<[2,512,32],f32>, !torch.vtensor<[2,512,32],f32>, !torch.list<int>, !torch.vtensor<[2,512,1],f32>, !torch.vtensor<[2,512,1],f32>, !torch.vtensor<[32],f32>, !torch.vtensor<[32],f32>, !torch.list<bool> -> !torch.vtensor<[2,512,32],f32>, !torch.vtensor<[32],f32>, !torch.vtensor<[32],f32>
  %367 = torch.prim.TupleConstruct %result0_583, %result1_584, %result2_585 : !torch.vtensor<[2,512,32],f32>, !torch.vtensor<[32],f32>, !torch.vtensor<[32],f32> -> !torch.tuple<vtensor<[2,512,32],f32>, vtensor<[32],f32>, vtensor<[32],f32>>
  %int28996 = torch.constant.int 28996
  %int0_586 = torch.constant.int 0
  %false_587 = torch.constant.bool false
  %368 = torch.aten.embedding_dense_backward %result0_583, %arg5, %int28996, %int0_586, %false_587 : !torch.vtensor<[2,512,32],f32>, !torch.vtensor<[2,512],si64>, !torch.int, !torch.int, !torch.bool -> !torch.vtensor<[28996,32],f32>
  %369 = torch.aten.add.Tensor %arg67, %368, %arg4 : !torch.vtensor<[28996,32],f32>, !torch.vtensor<[28996,32],f32>, !torch.int -> !torch.vtensor<[28996,32],f32>
  %370 = torch.aten.mul.Tensor %arg69, %arg68 : !torch.vtensor<[28996,32],f32>, !torch.vtensor<[],f64> -> !torch.vtensor<[28996,32],f32>
  %371 = torch.aten.addcmul %370, %369, %369, %arg3 : !torch.vtensor<[28996,32],f32>, !torch.vtensor<[28996,32],f32>, !torch.vtensor<[28996,32],f32>, !torch.float -> !torch.vtensor<[28996,32],f32>
  %372 = torch.aten.sqrt %371 : !torch.vtensor<[28996,32],f32> -> !torch.vtensor<[28996,32],f32>
  %373 = torch.aten.add.Tensor %372, %arg2, %arg1 : !torch.vtensor<[28996,32],f32>, !torch.vtensor<[],f64>, !torch.int -> !torch.vtensor<[28996,32],f32>
  %374 = torch.aten.mul.Tensor %arg72, %arg71 : !torch.vtensor<[28996,32],f32>, !torch.vtensor<[],f64> -> !torch.vtensor<[28996,32],f32>
  %375 = torch.aten.add.Tensor %374, %369, %arg70 : !torch.vtensor<[28996,32],f32>, !torch.vtensor<[28996,32],f32>, !torch.float -> !torch.vtensor<[28996,32],f32>
  %376 = torch.aten.addcdiv %arg14, %375, %373, %arg0 : !torch.vtensor<[28996,32],f32>, !torch.vtensor<[28996,32],f32>, !torch.vtensor<[28996,32],f32>, !torch.float -> !torch.vtensor<[28996,32],f32>
  %int0_588 = torch.constant.int 0
  %377 = torch.prim.ListConstruct %int0_588 : (!torch.int) -> !torch.list<int>
  %true_589 = torch.constant.bool true
  %none_590 = torch.constant.none
  %378 = torch.aten.sum.dim_IntList %result0_583, %377, %true_589, %none_590 : !torch.vtensor<[2,512,32],f32>, !torch.list<int>, !torch.bool, !torch.none -> !torch.vtensor<[1,512,32],f32>
  %int512_591 = torch.constant.int 512
  %int-1_592 = torch.constant.int -1
  %false_593 = torch.constant.bool false
  %379 = torch.aten.embedding_dense_backward %378, %0, %int512_591, %int-1_592, %false_593 : !torch.vtensor<[1,512,32],f32>, !torch.vtensor<[1,512],si64>, !torch.int, !torch.int, !torch.bool -> !torch.vtensor<[512,32],f32>
  %380 = torch.aten.add.Tensor %arg77, %379, %arg76 : !torch.vtensor<[512,32],f32>, !torch.vtensor<[512,32],f32>, !torch.int -> !torch.vtensor<[512,32],f32>
  %381 = torch.aten.mul.Tensor %arg78, %arg68 : !torch.vtensor<[512,32],f32>, !torch.vtensor<[],f64> -> !torch.vtensor<[512,32],f32>
  %382 = torch.aten.addcmul %381, %380, %380, %arg75 : !torch.vtensor<[512,32],f32>, !torch.vtensor<[512,32],f32>, !torch.vtensor<[512,32],f32>, !torch.float -> !torch.vtensor<[512,32],f32>
  %383 = torch.aten.sqrt %382 : !torch.vtensor<[512,32],f32> -> !torch.vtensor<[512,32],f32>
  %384 = torch.aten.add.Tensor %383, %arg2, %arg74 : !torch.vtensor<[512,32],f32>, !torch.vtensor<[],f64>, !torch.int -> !torch.vtensor<[512,32],f32>
  %385 = torch.aten.mul.Tensor %arg80, %arg71 : !torch.vtensor<[512,32],f32>, !torch.vtensor<[],f64> -> !torch.vtensor<[512,32],f32>
  %386 = torch.aten.add.Tensor %385, %380, %arg79 : !torch.vtensor<[512,32],f32>, !torch.vtensor<[512,32],f32>, !torch.float -> !torch.vtensor<[512,32],f32>
  %387 = torch.aten.addcdiv %arg10, %386, %384, %arg73 : !torch.vtensor<[512,32],f32>, !torch.vtensor<[512,32],f32>, !torch.vtensor<[512,32],f32>, !torch.float -> !torch.vtensor<[512,32],f32>
  %int2_594 = torch.constant.int 2
  %int-1_595 = torch.constant.int -1
  %false_596 = torch.constant.bool false
  %388 = torch.aten.embedding_dense_backward %result0_583, %arg12, %int2_594, %int-1_595, %false_596 : !torch.vtensor<[2,512,32],f32>, !torch.vtensor<[2,512],si64>, !torch.int, !torch.int, !torch.bool -> !torch.vtensor<[2,32],f32>
  %389 = torch.aten.add.Tensor %arg85, %388, %arg84 : !torch.vtensor<[2,32],f32>, !torch.vtensor<[2,32],f32>, !torch.int -> !torch.vtensor<[2,32],f32>
  %390 = torch.aten.mul.Tensor %arg86, %arg68 : !torch.vtensor<[2,32],f32>, !torch.vtensor<[],f64> -> !torch.vtensor<[2,32],f32>
  %391 = torch.aten.addcmul %390, %389, %389, %arg83 : !torch.vtensor<[2,32],f32>, !torch.vtensor<[2,32],f32>, !torch.vtensor<[2,32],f32>, !torch.float -> !torch.vtensor<[2,32],f32>
  %392 = torch.aten.sqrt %391 : !torch.vtensor<[2,32],f32> -> !torch.vtensor<[2,32],f32>
  %393 = torch.aten.add.Tensor %392, %arg2, %arg82 : !torch.vtensor<[2,32],f32>, !torch.vtensor<[],f64>, !torch.int -> !torch.vtensor<[2,32],f32>
  %394 = torch.aten.mul.Tensor %arg88, %arg71 : !torch.vtensor<[2,32],f32>, !torch.vtensor<[],f64> -> !torch.vtensor<[2,32],f32>
  %395 = torch.aten.add.Tensor %394, %389, %arg87 : !torch.vtensor<[2,32],f32>, !torch.vtensor<[2,32],f32>, !torch.float -> !torch.vtensor<[2,32],f32>
  %396 = torch.aten.addcdiv %arg13, %395, %393, %arg81 : !torch.vtensor<[2,32],f32>, !torch.vtensor<[2,32],f32>, !torch.vtensor<[2,32],f32>, !torch.float -> !torch.vtensor<[2,32],f32>
  %397 = torch.aten.add.Tensor %arg93, %result1_584, %arg92 : !torch.vtensor<[32],f32>, !torch.vtensor<[32],f32>, !torch.int -> !torch.vtensor<[32],f32>
  %398 = torch.aten.mul.Tensor %arg94, %arg68 : !torch.vtensor<[32],f32>, !torch.vtensor<[],f64> -> !torch.vtensor<[32],f32>
  %399 = torch.aten.addcmul %398, %397, %397, %arg91 : !torch.vtensor<[32],f32>, !torch.vtensor<[32],f32>, !torch.vtensor<[32],f32>, !torch.float -> !torch.vtensor<[32],f32>
  %400 = torch.aten.sqrt %399 : !torch.vtensor<[32],f32> -> !torch.vtensor<[32],f32>
  %401 = torch.aten.add.Tensor %400, %arg2, %arg90 : !torch.vtensor<[32],f32>, !torch.vtensor<[],f64>, !torch.int -> !torch.vtensor<[32],f32>
  %402 = torch.aten.mul.Tensor %arg96, %arg71 : !torch.vtensor<[32],f32>, !torch.vtensor<[],f64> -> !torch.vtensor<[32],f32>
  %403 = torch.aten.add.Tensor %402, %397, %arg95 : !torch.vtensor<[32],f32>, !torch.vtensor<[32],f32>, !torch.float -> !torch.vtensor<[32],f32>
  %404 = torch.aten.addcdiv %arg7, %403, %401, %arg89 : !torch.vtensor<[32],f32>, !torch.vtensor<[32],f32>, !torch.vtensor<[32],f32>, !torch.float -> !torch.vtensor<[32],f32>
  %405 = torch.aten.add.Tensor %arg101, %result2_585, %arg100 : !torch.vtensor<[32],f32>, !torch.vtensor<[32],f32>, !torch.int -> !torch.vtensor<[32],f32>
  %406 = torch.aten.mul.Tensor %arg102, %arg68 : !torch.vtensor<[32],f32>, !torch.vtensor<[],f64> -> !torch.vtensor<[32],f32>
  %407 = torch.aten.addcmul %406, %405, %405, %arg99 : !torch.vtensor<[32],f32>, !torch.vtensor<[32],f32>, !torch.vtensor<[32],f32>, !torch.float -> !torch.vtensor<[32],f32>
  %408 = torch.aten.sqrt %407 : !torch.vtensor<[32],f32> -> !torch.vtensor<[32],f32>
  %409 = torch.aten.add.Tensor %408, %arg2, %arg98 : !torch.vtensor<[32],f32>, !torch.vtensor<[],f64>, !torch.int -> !torch.vtensor<[32],f32>
  %410 = torch.aten.mul.Tensor %arg104, %arg71 : !torch.vtensor<[32],f32>, !torch.vtensor<[],f64> -> !torch.vtensor<[32],f32>
  %411 = torch.aten.add.Tensor %410, %405, %arg103 : !torch.vtensor<[32],f32>, !torch.vtensor<[32],f32>, !torch.float -> !torch.vtensor<[32],f32>
  %412 = torch.aten.addcdiv %arg6, %411, %409, %arg97 : !torch.vtensor<[32],f32>, !torch.vtensor<[32],f32>, !torch.vtensor<[32],f32>, !torch.float -> !torch.vtensor<[32],f32>
  %int1024_597 = torch.constant.int 1024
  %int32_598 = torch.constant.int 32
  %413 = torch.prim.ListConstruct %int1024_597, %int32_598 : (!torch.int, !torch.int) -> !torch.list<int>
  %int1024_599 = torch.constant.int 1024
  %int32_600 = torch.constant.int 32
  %414 = torch.prim.ListConstruct %int1024_599, %int32_600 : (!torch.int, !torch.int) -> !torch.list<int>
  %415 = torch.aten.reshape %result0, %414 : !torch.vtensor<[2,512,32],f32>, !torch.list<int> -> !torch.vtensor<[1024,32],f32>
  %int1_601 = torch.constant.int 1
  %int0_602 = torch.constant.int 0
  %416 = torch.prim.ListConstruct %int1_601, %int0_602 : (!torch.int, !torch.int) -> !torch.list<int>
  %int1_603 = torch.constant.int 1
  %int0_604 = torch.constant.int 0
  %417 = torch.prim.ListConstruct %int1_603, %int0_604 : (!torch.int, !torch.int) -> !torch.list<int>
  %418 = torch.aten.permute %415, %417 : !torch.vtensor<[1024,32],f32>, !torch.list<int> -> !torch.vtensor<[32,1024],f32>
  %419 = torch.aten.mm %418, %296 : !torch.vtensor<[32,1024],f32>, !torch.vtensor<[1024,32],f32> -> !torch.vtensor<[32,32],f32>
  %int1_605 = torch.constant.int 1
  %int0_606 = torch.constant.int 0
  %420 = torch.prim.ListConstruct %int1_605, %int0_606 : (!torch.int, !torch.int) -> !torch.list<int>
  %int1_607 = torch.constant.int 1
  %int0_608 = torch.constant.int 0
  %421 = torch.prim.ListConstruct %int1_607, %int0_608 : (!torch.int, !torch.int) -> !torch.list<int>
  %422 = torch.aten.permute %419, %421 : !torch.vtensor<[32,32],f32>, !torch.list<int> -> !torch.vtensor<[32,32],f32>
  %423 = torch.aten.add.Tensor %arg109, %422, %arg108 : !torch.vtensor<[32,32],f32>, !torch.vtensor<[32,32],f32>, !torch.int -> !torch.vtensor<[32,32],f32>
  %424 = torch.aten.mul.Tensor %arg110, %arg68 : !torch.vtensor<[32,32],f32>, !torch.vtensor<[],f64> -> !torch.vtensor<[32,32],f32>
  %425 = torch.aten.addcmul %424, %423, %423, %arg107 : !torch.vtensor<[32,32],f32>, !torch.vtensor<[32,32],f32>, !torch.vtensor<[32,32],f32>, !torch.float -> !torch.vtensor<[32,32],f32>
  %426 = torch.aten.sqrt %425 : !torch.vtensor<[32,32],f32> -> !torch.vtensor<[32,32],f32>
  %427 = torch.aten.add.Tensor %426, %arg2, %arg106 : !torch.vtensor<[32,32],f32>, !torch.vtensor<[],f64>, !torch.int -> !torch.vtensor<[32,32],f32>
  %428 = torch.aten.mul.Tensor %arg112, %arg71 : !torch.vtensor<[32,32],f32>, !torch.vtensor<[],f64> -> !torch.vtensor<[32,32],f32>
  %429 = torch.aten.add.Tensor %428, %423, %arg111 : !torch.vtensor<[32,32],f32>, !torch.vtensor<[32,32],f32>, !torch.float -> !torch.vtensor<[32,32],f32>
  %430 = torch.aten.addcdiv %arg16, %429, %427, %arg105 : !torch.vtensor<[32,32],f32>, !torch.vtensor<[32,32],f32>, !torch.vtensor<[32,32],f32>, !torch.float -> !torch.vtensor<[32,32],f32>
  %int0_609 = torch.constant.int 0
  %431 = torch.prim.ListConstruct %int0_609 : (!torch.int) -> !torch.list<int>
  %true_610 = torch.constant.bool true
  %none_611 = torch.constant.none
  %432 = torch.aten.sum.dim_IntList %296, %431, %true_610, %none_611 : !torch.vtensor<[1024,32],f32>, !torch.list<int>, !torch.bool, !torch.none -> !torch.vtensor<[1,32],f32>
  %int32_612 = torch.constant.int 32
  %433 = torch.prim.ListConstruct %int32_612 : (!torch.int) -> !torch.list<int>
  %int32_613 = torch.constant.int 32
  %434 = torch.prim.ListConstruct %int32_613 : (!torch.int) -> !torch.list<int>
  %435 = torch.aten.reshape %432, %434 : !torch.vtensor<[1,32],f32>, !torch.list<int> -> !torch.vtensor<[32],f32>
  %436 = torch.aten.add.Tensor %arg117, %435, %arg116 : !torch.vtensor<[32],f32>, !torch.vtensor<[32],f32>, !torch.int -> !torch.vtensor<[32],f32>
  %437 = torch.aten.mul.Tensor %arg118, %arg68 : !torch.vtensor<[32],f32>, !torch.vtensor<[],f64> -> !torch.vtensor<[32],f32>
  %438 = torch.aten.addcmul %437, %436, %436, %arg115 : !torch.vtensor<[32],f32>, !torch.vtensor<[32],f32>, !torch.vtensor<[32],f32>, !torch.float -> !torch.vtensor<[32],f32>
  %439 = torch.aten.sqrt %438 : !torch.vtensor<[32],f32> -> !torch.vtensor<[32],f32>
  %440 = torch.aten.add.Tensor %439, %arg2, %arg114 : !torch.vtensor<[32],f32>, !torch.vtensor<[],f64>, !torch.int -> !torch.vtensor<[32],f32>
  %441 = torch.aten.mul.Tensor %arg120, %arg71 : !torch.vtensor<[32],f32>, !torch.vtensor<[],f64> -> !torch.vtensor<[32],f32>
  %442 = torch.aten.add.Tensor %441, %436, %arg119 : !torch.vtensor<[32],f32>, !torch.vtensor<[32],f32>, !torch.float -> !torch.vtensor<[32],f32>
  %443 = torch.aten.addcdiv %arg29, %442, %440, %arg113 : !torch.vtensor<[32],f32>, !torch.vtensor<[32],f32>, !torch.vtensor<[32],f32>, !torch.float -> !torch.vtensor<[32],f32>
  %int1024_614 = torch.constant.int 1024
  %int32_615 = torch.constant.int 32
  %444 = torch.prim.ListConstruct %int1024_614, %int32_615 : (!torch.int, !torch.int) -> !torch.list<int>
  %int1024_616 = torch.constant.int 1024
  %int32_617 = torch.constant.int 32
  %445 = torch.prim.ListConstruct %int1024_616, %int32_617 : (!torch.int, !torch.int) -> !torch.list<int>
  %446 = torch.aten.reshape %result0, %445 : !torch.vtensor<[2,512,32],f32>, !torch.list<int> -> !torch.vtensor<[1024,32],f32>
  %int1_618 = torch.constant.int 1
  %int0_619 = torch.constant.int 0
  %447 = torch.prim.ListConstruct %int1_618, %int0_619 : (!torch.int, !torch.int) -> !torch.list<int>
  %int1_620 = torch.constant.int 1
  %int0_621 = torch.constant.int 0
  %448 = torch.prim.ListConstruct %int1_620, %int0_621 : (!torch.int, !torch.int) -> !torch.list<int>
  %449 = torch.aten.permute %446, %448 : !torch.vtensor<[1024,32],f32>, !torch.list<int> -> !torch.vtensor<[32,1024],f32>
  %450 = torch.aten.mm %449, %328 : !torch.vtensor<[32,1024],f32>, !torch.vtensor<[1024,32],f32> -> !torch.vtensor<[32,32],f32>
  %int1_622 = torch.constant.int 1
  %int0_623 = torch.constant.int 0
  %451 = torch.prim.ListConstruct %int1_622, %int0_623 : (!torch.int, !torch.int) -> !torch.list<int>
  %int1_624 = torch.constant.int 1
  %int0_625 = torch.constant.int 0
  %452 = torch.prim.ListConstruct %int1_624, %int0_625 : (!torch.int, !torch.int) -> !torch.list<int>
  %453 = torch.aten.permute %450, %452 : !torch.vtensor<[32,32],f32>, !torch.list<int> -> !torch.vtensor<[32,32],f32>
  %454 = torch.aten.add.Tensor %arg125, %453, %arg124 : !torch.vtensor<[32,32],f32>, !torch.vtensor<[32,32],f32>, !torch.int -> !torch.vtensor<[32,32],f32>
  %455 = torch.aten.mul.Tensor %arg126, %arg68 : !torch.vtensor<[32,32],f32>, !torch.vtensor<[],f64> -> !torch.vtensor<[32,32],f32>
  %456 = torch.aten.addcmul %455, %454, %454, %arg123 : !torch.vtensor<[32,32],f32>, !torch.vtensor<[32,32],f32>, !torch.vtensor<[32,32],f32>, !torch.float -> !torch.vtensor<[32,32],f32>
  %457 = torch.aten.sqrt %456 : !torch.vtensor<[32,32],f32> -> !torch.vtensor<[32,32],f32>
  %458 = torch.aten.add.Tensor %457, %arg2, %arg122 : !torch.vtensor<[32,32],f32>, !torch.vtensor<[],f64>, !torch.int -> !torch.vtensor<[32,32],f32>
  %459 = torch.aten.mul.Tensor %arg128, %arg71 : !torch.vtensor<[32,32],f32>, !torch.vtensor<[],f64> -> !torch.vtensor<[32,32],f32>
  %460 = torch.aten.add.Tensor %459, %454, %arg127 : !torch.vtensor<[32,32],f32>, !torch.vtensor<[32,32],f32>, !torch.float -> !torch.vtensor<[32,32],f32>
  %461 = torch.aten.addcdiv %arg19, %460, %458, %arg121 : !torch.vtensor<[32,32],f32>, !torch.vtensor<[32,32],f32>, !torch.vtensor<[32,32],f32>, !torch.float -> !torch.vtensor<[32,32],f32>
  %int0_626 = torch.constant.int 0
  %462 = torch.prim.ListConstruct %int0_626 : (!torch.int) -> !torch.list<int>
  %true_627 = torch.constant.bool true
  %none_628 = torch.constant.none
  %463 = torch.aten.sum.dim_IntList %328, %462, %true_627, %none_628 : !torch.vtensor<[1024,32],f32>, !torch.list<int>, !torch.bool, !torch.none -> !torch.vtensor<[1,32],f32>
  %int32_629 = torch.constant.int 32
  %464 = torch.prim.ListConstruct %int32_629 : (!torch.int) -> !torch.list<int>
  %int32_630 = torch.constant.int 32
  %465 = torch.prim.ListConstruct %int32_630 : (!torch.int) -> !torch.list<int>
  %466 = torch.aten.reshape %463, %465 : !torch.vtensor<[1,32],f32>, !torch.list<int> -> !torch.vtensor<[32],f32>
  %467 = torch.aten.add.Tensor %arg133, %466, %arg132 : !torch.vtensor<[32],f32>, !torch.vtensor<[32],f32>, !torch.int -> !torch.vtensor<[32],f32>
  %468 = torch.aten.mul.Tensor %arg134, %arg68 : !torch.vtensor<[32],f32>, !torch.vtensor<[],f64> -> !torch.vtensor<[32],f32>
  %469 = torch.aten.addcmul %468, %467, %467, %arg131 : !torch.vtensor<[32],f32>, !torch.vtensor<[32],f32>, !torch.vtensor<[32],f32>, !torch.float -> !torch.vtensor<[32],f32>
  %470 = torch.aten.sqrt %469 : !torch.vtensor<[32],f32> -> !torch.vtensor<[32],f32>
  %471 = torch.aten.add.Tensor %470, %arg2, %arg130 : !torch.vtensor<[32],f32>, !torch.vtensor<[],f64>, !torch.int -> !torch.vtensor<[32],f32>
  %472 = torch.aten.mul.Tensor %arg136, %arg71 : !torch.vtensor<[32],f32>, !torch.vtensor<[],f64> -> !torch.vtensor<[32],f32>
  %473 = torch.aten.add.Tensor %472, %467, %arg135 : !torch.vtensor<[32],f32>, !torch.vtensor<[32],f32>, !torch.float -> !torch.vtensor<[32],f32>
  %474 = torch.aten.addcdiv %arg20, %473, %471, %arg129 : !torch.vtensor<[32],f32>, !torch.vtensor<[32],f32>, !torch.vtensor<[32],f32>, !torch.float -> !torch.vtensor<[32],f32>
  %int1024_631 = torch.constant.int 1024
  %int32_632 = torch.constant.int 32
  %475 = torch.prim.ListConstruct %int1024_631, %int32_632 : (!torch.int, !torch.int) -> !torch.list<int>
  %int1024_633 = torch.constant.int 1024
  %int32_634 = torch.constant.int 32
  %476 = torch.prim.ListConstruct %int1024_633, %int32_634 : (!torch.int, !torch.int) -> !torch.list<int>
  %477 = torch.aten.reshape %result0, %476 : !torch.vtensor<[2,512,32],f32>, !torch.list<int> -> !torch.vtensor<[1024,32],f32>
  %int1_635 = torch.constant.int 1
  %int0_636 = torch.constant.int 0
  %478 = torch.prim.ListConstruct %int1_635, %int0_636 : (!torch.int, !torch.int) -> !torch.list<int>
  %int1_637 = torch.constant.int 1
  %int0_638 = torch.constant.int 0
  %479 = torch.prim.ListConstruct %int1_637, %int0_638 : (!torch.int, !torch.int) -> !torch.list<int>
  %480 = torch.aten.permute %477, %479 : !torch.vtensor<[1024,32],f32>, !torch.list<int> -> !torch.vtensor<[32,1024],f32>
  %481 = torch.aten.mm %480, %357 : !torch.vtensor<[32,1024],f32>, !torch.vtensor<[1024,32],f32> -> !torch.vtensor<[32,32],f32>
  %int1_639 = torch.constant.int 1
  %int0_640 = torch.constant.int 0
  %482 = torch.prim.ListConstruct %int1_639, %int0_640 : (!torch.int, !torch.int) -> !torch.list<int>
  %int1_641 = torch.constant.int 1
  %int0_642 = torch.constant.int 0
  %483 = torch.prim.ListConstruct %int1_641, %int0_642 : (!torch.int, !torch.int) -> !torch.list<int>
  %484 = torch.aten.permute %481, %483 : !torch.vtensor<[32,32],f32>, !torch.list<int> -> !torch.vtensor<[32,32],f32>
  %485 = torch.aten.add.Tensor %arg141, %484, %arg140 : !torch.vtensor<[32,32],f32>, !torch.vtensor<[32,32],f32>, !torch.int -> !torch.vtensor<[32,32],f32>
  %486 = torch.aten.mul.Tensor %arg142, %arg68 : !torch.vtensor<[32,32],f32>, !torch.vtensor<[],f64> -> !torch.vtensor<[32,32],f32>
  %487 = torch.aten.addcmul %486, %485, %485, %arg139 : !torch.vtensor<[32,32],f32>, !torch.vtensor<[32,32],f32>, !torch.vtensor<[32,32],f32>, !torch.float -> !torch.vtensor<[32,32],f32>
  %488 = torch.aten.sqrt %487 : !torch.vtensor<[32,32],f32> -> !torch.vtensor<[32,32],f32>
  %489 = torch.aten.add.Tensor %488, %arg2, %arg138 : !torch.vtensor<[32,32],f32>, !torch.vtensor<[],f64>, !torch.int -> !torch.vtensor<[32,32],f32>
  %490 = torch.aten.mul.Tensor %arg144, %arg71 : !torch.vtensor<[32,32],f32>, !torch.vtensor<[],f64> -> !torch.vtensor<[32,32],f32>
  %491 = torch.aten.add.Tensor %490, %485, %arg143 : !torch.vtensor<[32,32],f32>, !torch.vtensor<[32,32],f32>, !torch.float -> !torch.vtensor<[32,32],f32>
  %492 = torch.aten.addcdiv %arg32, %491, %489, %arg137 : !torch.vtensor<[32,32],f32>, !torch.vtensor<[32,32],f32>, !torch.vtensor<[32,32],f32>, !torch.float -> !torch.vtensor<[32,32],f32>
  %int0_643 = torch.constant.int 0
  %493 = torch.prim.ListConstruct %int0_643 : (!torch.int) -> !torch.list<int>
  %true_644 = torch.constant.bool true
  %none_645 = torch.constant.none
  %494 = torch.aten.sum.dim_IntList %357, %493, %true_644, %none_645 : !torch.vtensor<[1024,32],f32>, !torch.list<int>, !torch.bool, !torch.none -> !torch.vtensor<[1,32],f32>
  %int32_646 = torch.constant.int 32
  %495 = torch.prim.ListConstruct %int32_646 : (!torch.int) -> !torch.list<int>
  %int32_647 = torch.constant.int 32
  %496 = torch.prim.ListConstruct %int32_647 : (!torch.int) -> !torch.list<int>
  %497 = torch.aten.reshape %494, %496 : !torch.vtensor<[1,32],f32>, !torch.list<int> -> !torch.vtensor<[32],f32>
  %498 = torch.aten.add.Tensor %arg149, %497, %arg148 : !torch.vtensor<[32],f32>, !torch.vtensor<[32],f32>, !torch.int -> !torch.vtensor<[32],f32>
  %499 = torch.aten.mul.Tensor %arg150, %arg68 : !torch.vtensor<[32],f32>, !torch.vtensor<[],f64> -> !torch.vtensor<[32],f32>
  %500 = torch.aten.addcmul %499, %498, %498, %arg147 : !torch.vtensor<[32],f32>, !torch.vtensor<[32],f32>, !torch.vtensor<[32],f32>, !torch.float -> !torch.vtensor<[32],f32>
  %501 = torch.aten.sqrt %500 : !torch.vtensor<[32],f32> -> !torch.vtensor<[32],f32>
  %502 = torch.aten.add.Tensor %501, %arg2, %arg146 : !torch.vtensor<[32],f32>, !torch.vtensor<[],f64>, !torch.int -> !torch.vtensor<[32],f32>
  %503 = torch.aten.mul.Tensor %arg152, %arg71 : !torch.vtensor<[32],f32>, !torch.vtensor<[],f64> -> !torch.vtensor<[32],f32>
  %504 = torch.aten.add.Tensor %503, %498, %arg151 : !torch.vtensor<[32],f32>, !torch.vtensor<[32],f32>, !torch.float -> !torch.vtensor<[32],f32>
  %505 = torch.aten.addcdiv %arg33, %504, %502, %arg145 : !torch.vtensor<[32],f32>, !torch.vtensor<[32],f32>, !torch.vtensor<[32],f32>, !torch.float -> !torch.vtensor<[32],f32>
  %int2_648 = torch.constant.int 2
  %int512_649 = torch.constant.int 512
  %int16_650 = torch.constant.int 16
  %506 = torch.prim.ListConstruct %int2_648, %int2_648, %int512_649, %int16_650 : (!torch.int, !torch.int, !torch.int, !torch.int) -> !torch.list<int>
  %int2_651 = torch.constant.int 2
  %int512_652 = torch.constant.int 512
  %int16_653 = torch.constant.int 16
  %507 = torch.prim.ListConstruct %int2_651, %int2_651, %int512_652, %int16_653 : (!torch.int, !torch.int, !torch.int, !torch.int) -> !torch.list<int>
  %508 = torch.aten.reshape %124, %507 : !torch.vtensor<[4,512,16],f32>, !torch.list<int> -> !torch.vtensor<[2,2,512,16],f32>
  %int0_654 = torch.constant.int 0
  %int2_655 = torch.constant.int 2
  %int1_656 = torch.constant.int 1
  %int3_657 = torch.constant.int 3
  %509 = torch.prim.ListConstruct %int0_654, %int2_655, %int1_656, %int3_657 : (!torch.int, !torch.int, !torch.int, !torch.int) -> !torch.list<int>
  %int0_658 = torch.constant.int 0
  %int2_659 = torch.constant.int 2
  %int1_660 = torch.constant.int 1
  %int3_661 = torch.constant.int 3
  %510 = torch.prim.ListConstruct %int0_658, %int2_659, %int1_660, %int3_661 : (!torch.int, !torch.int, !torch.int, !torch.int) -> !torch.list<int>
  %511 = torch.aten.permute %508, %510 : !torch.vtensor<[2,2,512,16],f32>, !torch.list<int> -> !torch.vtensor<[2,512,2,16],f32>
  %int2_662 = torch.constant.int 2
  %int512_663 = torch.constant.int 512
  %int32_664 = torch.constant.int 32
  %512 = torch.prim.ListConstruct %int2_662, %int512_663, %int32_664 : (!torch.int, !torch.int, !torch.int) -> !torch.list<int>
  %int2_665 = torch.constant.int 2
  %int512_666 = torch.constant.int 512
  %int32_667 = torch.constant.int 32
  %513 = torch.prim.ListConstruct %int2_665, %int512_666, %int32_667 : (!torch.int, !torch.int, !torch.int) -> !torch.list<int>
  %514 = torch.aten.reshape %511, %513 : !torch.vtensor<[2,512,2,16],f32>, !torch.list<int> -> !torch.vtensor<[2,512,32],f32>
  %int1024_668 = torch.constant.int 1024
  %int32_669 = torch.constant.int 32
  %515 = torch.prim.ListConstruct %int1024_668, %int32_669 : (!torch.int, !torch.int) -> !torch.list<int>
  %int1024_670 = torch.constant.int 1024
  %int32_671 = torch.constant.int 32
  %516 = torch.prim.ListConstruct %int1024_670, %int32_671 : (!torch.int, !torch.int) -> !torch.list<int>
  %517 = torch.aten.reshape %514, %516 : !torch.vtensor<[2,512,32],f32>, !torch.list<int> -> !torch.vtensor<[1024,32],f32>
  %int1_672 = torch.constant.int 1
  %int0_673 = torch.constant.int 0
  %518 = torch.prim.ListConstruct %int1_672, %int0_673 : (!torch.int, !torch.int) -> !torch.list<int>
  %int1_674 = torch.constant.int 1
  %int0_675 = torch.constant.int 0
  %519 = torch.prim.ListConstruct %int1_674, %int0_675 : (!torch.int, !torch.int) -> !torch.list<int>
  %520 = torch.aten.permute %517, %519 : !torch.vtensor<[1024,32],f32>, !torch.list<int> -> !torch.vtensor<[32,1024],f32>
  %521 = torch.aten.mm %520, %261 : !torch.vtensor<[32,1024],f32>, !torch.vtensor<[1024,32],f32> -> !torch.vtensor<[32,32],f32>
  %int1_676 = torch.constant.int 1
  %int0_677 = torch.constant.int 0
  %522 = torch.prim.ListConstruct %int1_676, %int0_677 : (!torch.int, !torch.int) -> !torch.list<int>
  %int1_678 = torch.constant.int 1
  %int0_679 = torch.constant.int 0
  %523 = torch.prim.ListConstruct %int1_678, %int0_679 : (!torch.int, !torch.int) -> !torch.list<int>
  %524 = torch.aten.permute %521, %523 : !torch.vtensor<[32,32],f32>, !torch.list<int> -> !torch.vtensor<[32,32],f32>
  %525 = torch.aten.add.Tensor %arg157, %524, %arg156 : !torch.vtensor<[32,32],f32>, !torch.vtensor<[32,32],f32>, !torch.int -> !torch.vtensor<[32,32],f32>
  %526 = torch.aten.mul.Tensor %arg158, %arg68 : !torch.vtensor<[32,32],f32>, !torch.vtensor<[],f64> -> !torch.vtensor<[32,32],f32>
  %527 = torch.aten.addcmul %526, %525, %525, %arg155 : !torch.vtensor<[32,32],f32>, !torch.vtensor<[32,32],f32>, !torch.vtensor<[32,32],f32>, !torch.float -> !torch.vtensor<[32,32],f32>
  %528 = torch.aten.sqrt %527 : !torch.vtensor<[32,32],f32> -> !torch.vtensor<[32,32],f32>
  %529 = torch.aten.add.Tensor %528, %arg2, %arg154 : !torch.vtensor<[32,32],f32>, !torch.vtensor<[],f64>, !torch.int -> !torch.vtensor<[32,32],f32>
  %530 = torch.aten.mul.Tensor %arg160, %arg71 : !torch.vtensor<[32,32],f32>, !torch.vtensor<[],f64> -> !torch.vtensor<[32,32],f32>
  %531 = torch.aten.add.Tensor %530, %525, %arg159 : !torch.vtensor<[32,32],f32>, !torch.vtensor<[32,32],f32>, !torch.float -> !torch.vtensor<[32,32],f32>
  %532 = torch.aten.addcdiv %arg34, %531, %529, %arg153 : !torch.vtensor<[32,32],f32>, !torch.vtensor<[32,32],f32>, !torch.vtensor<[32,32],f32>, !torch.float -> !torch.vtensor<[32,32],f32>
  %int0_680 = torch.constant.int 0
  %533 = torch.prim.ListConstruct %int0_680 : (!torch.int) -> !torch.list<int>
  %true_681 = torch.constant.bool true
  %none_682 = torch.constant.none
  %534 = torch.aten.sum.dim_IntList %261, %533, %true_681, %none_682 : !torch.vtensor<[1024,32],f32>, !torch.list<int>, !torch.bool, !torch.none -> !torch.vtensor<[1,32],f32>
  %int32_683 = torch.constant.int 32
  %535 = torch.prim.ListConstruct %int32_683 : (!torch.int) -> !torch.list<int>
  %int32_684 = torch.constant.int 32
  %536 = torch.prim.ListConstruct %int32_684 : (!torch.int) -> !torch.list<int>
  %537 = torch.aten.reshape %534, %536 : !torch.vtensor<[1,32],f32>, !torch.list<int> -> !torch.vtensor<[32],f32>
  %538 = torch.aten.add.Tensor %arg165, %537, %arg164 : !torch.vtensor<[32],f32>, !torch.vtensor<[32],f32>, !torch.int -> !torch.vtensor<[32],f32>
  %539 = torch.aten.mul.Tensor %arg166, %arg68 : !torch.vtensor<[32],f32>, !torch.vtensor<[],f64> -> !torch.vtensor<[32],f32>
  %540 = torch.aten.addcmul %539, %538, %538, %arg163 : !torch.vtensor<[32],f32>, !torch.vtensor<[32],f32>, !torch.vtensor<[32],f32>, !torch.float -> !torch.vtensor<[32],f32>
  %541 = torch.aten.sqrt %540 : !torch.vtensor<[32],f32> -> !torch.vtensor<[32],f32>
  %542 = torch.aten.add.Tensor %541, %arg2, %arg162 : !torch.vtensor<[32],f32>, !torch.vtensor<[],f64>, !torch.int -> !torch.vtensor<[32],f32>
  %543 = torch.aten.mul.Tensor %arg168, %arg71 : !torch.vtensor<[32],f32>, !torch.vtensor<[],f64> -> !torch.vtensor<[32],f32>
  %544 = torch.aten.add.Tensor %543, %538, %arg167 : !torch.vtensor<[32],f32>, !torch.vtensor<[32],f32>, !torch.float -> !torch.vtensor<[32],f32>
  %545 = torch.aten.addcdiv %arg40, %544, %542, %arg161 : !torch.vtensor<[32],f32>, !torch.vtensor<[32],f32>, !torch.vtensor<[32],f32>, !torch.float -> !torch.vtensor<[32],f32>
  %546 = torch.aten.add.Tensor %arg173, %result1_403, %arg172 : !torch.vtensor<[32],f32>, !torch.vtensor<[32],f32>, !torch.int -> !torch.vtensor<[32],f32>
  %547 = torch.aten.mul.Tensor %arg174, %arg68 : !torch.vtensor<[32],f32>, !torch.vtensor<[],f64> -> !torch.vtensor<[32],f32>
  %548 = torch.aten.addcmul %547, %546, %546, %arg171 : !torch.vtensor<[32],f32>, !torch.vtensor<[32],f32>, !torch.vtensor<[32],f32>, !torch.float -> !torch.vtensor<[32],f32>
  %549 = torch.aten.sqrt %548 : !torch.vtensor<[32],f32> -> !torch.vtensor<[32],f32>
  %550 = torch.aten.add.Tensor %549, %arg2, %arg170 : !torch.vtensor<[32],f32>, !torch.vtensor<[],f64>, !torch.int -> !torch.vtensor<[32],f32>
  %551 = torch.aten.mul.Tensor %arg176, %arg71 : !torch.vtensor<[32],f32>, !torch.vtensor<[],f64> -> !torch.vtensor<[32],f32>
  %552 = torch.aten.add.Tensor %551, %546, %arg175 : !torch.vtensor<[32],f32>, !torch.vtensor<[32],f32>, !torch.float -> !torch.vtensor<[32],f32>
  %553 = torch.aten.addcdiv %arg36, %552, %550, %arg169 : !torch.vtensor<[32],f32>, !torch.vtensor<[32],f32>, !torch.vtensor<[32],f32>, !torch.float -> !torch.vtensor<[32],f32>
  %554 = torch.aten.add.Tensor %arg181, %result2_404, %arg180 : !torch.vtensor<[32],f32>, !torch.vtensor<[32],f32>, !torch.int -> !torch.vtensor<[32],f32>
  %555 = torch.aten.mul.Tensor %arg182, %arg68 : !torch.vtensor<[32],f32>, !torch.vtensor<[],f64> -> !torch.vtensor<[32],f32>
  %556 = torch.aten.addcmul %555, %554, %554, %arg179 : !torch.vtensor<[32],f32>, !torch.vtensor<[32],f32>, !torch.vtensor<[32],f32>, !torch.float -> !torch.vtensor<[32],f32>
  %557 = torch.aten.sqrt %556 : !torch.vtensor<[32],f32> -> !torch.vtensor<[32],f32>
  %558 = torch.aten.add.Tensor %557, %arg2, %arg178 : !torch.vtensor<[32],f32>, !torch.vtensor<[],f64>, !torch.int -> !torch.vtensor<[32],f32>
  %559 = torch.aten.mul.Tensor %arg184, %arg71 : !torch.vtensor<[32],f32>, !torch.vtensor<[],f64> -> !torch.vtensor<[32],f32>
  %560 = torch.aten.add.Tensor %559, %554, %arg183 : !torch.vtensor<[32],f32>, !torch.vtensor<[32],f32>, !torch.float -> !torch.vtensor<[32],f32>
  %561 = torch.aten.addcdiv %arg35, %560, %558, %arg177 : !torch.vtensor<[32],f32>, !torch.vtensor<[32],f32>, !torch.vtensor<[32],f32>, !torch.float -> !torch.vtensor<[32],f32>
  %int1024_685 = torch.constant.int 1024
  %int32_686 = torch.constant.int 32
  %562 = torch.prim.ListConstruct %int1024_685, %int32_686 : (!torch.int, !torch.int) -> !torch.list<int>
  %int1024_687 = torch.constant.int 1024
  %int32_688 = torch.constant.int 32
  %563 = torch.prim.ListConstruct %int1024_687, %int32_688 : (!torch.int, !torch.int) -> !torch.list<int>
  %564 = torch.aten.reshape %result0_238, %563 : !torch.vtensor<[2,512,32],f32>, !torch.list<int> -> !torch.vtensor<[1024,32],f32>
  %int1_689 = torch.constant.int 1
  %int0_690 = torch.constant.int 0
  %565 = torch.prim.ListConstruct %int1_689, %int0_690 : (!torch.int, !torch.int) -> !torch.list<int>
  %int1_691 = torch.constant.int 1
  %int0_692 = torch.constant.int 0
  %566 = torch.prim.ListConstruct %int1_691, %int0_692 : (!torch.int, !torch.int) -> !torch.list<int>
  %567 = torch.aten.permute %564, %566 : !torch.vtensor<[1024,32],f32>, !torch.list<int> -> !torch.vtensor<[32,1024],f32>
  %568 = torch.aten.mm %567, %250 : !torch.vtensor<[32,1024],f32>, !torch.vtensor<[1024,32],f32> -> !torch.vtensor<[32,32],f32>
  %int1_693 = torch.constant.int 1
  %int0_694 = torch.constant.int 0
  %569 = torch.prim.ListConstruct %int1_693, %int0_694 : (!torch.int, !torch.int) -> !torch.list<int>
  %int1_695 = torch.constant.int 1
  %int0_696 = torch.constant.int 0
  %570 = torch.prim.ListConstruct %int1_695, %int0_696 : (!torch.int, !torch.int) -> !torch.list<int>
  %571 = torch.aten.permute %568, %570 : !torch.vtensor<[32,32],f32>, !torch.list<int> -> !torch.vtensor<[32,32],f32>
  %572 = torch.aten.add.Tensor %arg189, %571, %arg188 : !torch.vtensor<[32,32],f32>, !torch.vtensor<[32,32],f32>, !torch.int -> !torch.vtensor<[32,32],f32>
  %573 = torch.aten.mul.Tensor %arg190, %arg68 : !torch.vtensor<[32,32],f32>, !torch.vtensor<[],f64> -> !torch.vtensor<[32,32],f32>
  %574 = torch.aten.addcmul %573, %572, %572, %arg187 : !torch.vtensor<[32,32],f32>, !torch.vtensor<[32,32],f32>, !torch.vtensor<[32,32],f32>, !torch.float -> !torch.vtensor<[32,32],f32>
  %575 = torch.aten.sqrt %574 : !torch.vtensor<[32,32],f32> -> !torch.vtensor<[32,32],f32>
  %576 = torch.aten.add.Tensor %575, %arg2, %arg186 : !torch.vtensor<[32,32],f32>, !torch.vtensor<[],f64>, !torch.int -> !torch.vtensor<[32,32],f32>
  %577 = torch.aten.mul.Tensor %arg192, %arg71 : !torch.vtensor<[32,32],f32>, !torch.vtensor<[],f64> -> !torch.vtensor<[32,32],f32>
  %578 = torch.aten.add.Tensor %577, %572, %arg191 : !torch.vtensor<[32,32],f32>, !torch.vtensor<[32,32],f32>, !torch.float -> !torch.vtensor<[32,32],f32>
  %579 = torch.aten.addcdiv %arg42, %578, %576, %arg185 : !torch.vtensor<[32,32],f32>, !torch.vtensor<[32,32],f32>, !torch.vtensor<[32,32],f32>, !torch.float -> !torch.vtensor<[32,32],f32>
  %int0_697 = torch.constant.int 0
  %580 = torch.prim.ListConstruct %int0_697 : (!torch.int) -> !torch.list<int>
  %true_698 = torch.constant.bool true
  %none_699 = torch.constant.none
  %581 = torch.aten.sum.dim_IntList %250, %580, %true_698, %none_699 : !torch.vtensor<[1024,32],f32>, !torch.list<int>, !torch.bool, !torch.none -> !torch.vtensor<[1,32],f32>
  %int32_700 = torch.constant.int 32
  %582 = torch.prim.ListConstruct %int32_700 : (!torch.int) -> !torch.list<int>
  %int32_701 = torch.constant.int 32
  %583 = torch.prim.ListConstruct %int32_701 : (!torch.int) -> !torch.list<int>
  %584 = torch.aten.reshape %581, %583 : !torch.vtensor<[1,32],f32>, !torch.list<int> -> !torch.vtensor<[32],f32>
  %585 = torch.aten.add.Tensor %arg197, %584, %arg196 : !torch.vtensor<[32],f32>, !torch.vtensor<[32],f32>, !torch.int -> !torch.vtensor<[32],f32>
  %586 = torch.aten.mul.Tensor %arg198, %arg68 : !torch.vtensor<[32],f32>, !torch.vtensor<[],f64> -> !torch.vtensor<[32],f32>
  %587 = torch.aten.addcmul %586, %585, %585, %arg195 : !torch.vtensor<[32],f32>, !torch.vtensor<[32],f32>, !torch.vtensor<[32],f32>, !torch.float -> !torch.vtensor<[32],f32>
  %588 = torch.aten.sqrt %587 : !torch.vtensor<[32],f32> -> !torch.vtensor<[32],f32>
  %589 = torch.aten.add.Tensor %588, %arg2, %arg194 : !torch.vtensor<[32],f32>, !torch.vtensor<[],f64>, !torch.int -> !torch.vtensor<[32],f32>
  %590 = torch.aten.mul.Tensor %arg200, %arg71 : !torch.vtensor<[32],f32>, !torch.vtensor<[],f64> -> !torch.vtensor<[32],f32>
  %591 = torch.aten.add.Tensor %590, %585, %arg199 : !torch.vtensor<[32],f32>, !torch.vtensor<[32],f32>, !torch.float -> !torch.vtensor<[32],f32>
  %592 = torch.aten.addcdiv %arg45, %591, %589, %arg193 : !torch.vtensor<[32],f32>, !torch.vtensor<[32],f32>, !torch.vtensor<[32],f32>, !torch.float -> !torch.vtensor<[32],f32>
  %int1024_702 = torch.constant.int 1024
  %int32_703 = torch.constant.int 32
  %593 = torch.prim.ListConstruct %int1024_702, %int32_703 : (!torch.int, !torch.int) -> !torch.list<int>
  %int1024_704 = torch.constant.int 1024
  %int32_705 = torch.constant.int 32
  %594 = torch.prim.ListConstruct %int1024_704, %int32_705 : (!torch.int, !torch.int) -> !torch.list<int>
  %595 = torch.aten.reshape %169, %594 : !torch.vtensor<[2,512,32],f32>, !torch.list<int> -> !torch.vtensor<[1024,32],f32>
  %int1_706 = torch.constant.int 1
  %int0_707 = torch.constant.int 0
  %596 = torch.prim.ListConstruct %int1_706, %int0_707 : (!torch.int, !torch.int) -> !torch.list<int>
  %int1_708 = torch.constant.int 1
  %int0_709 = torch.constant.int 0
  %597 = torch.prim.ListConstruct %int1_708, %int0_709 : (!torch.int, !torch.int) -> !torch.list<int>
  %598 = torch.aten.permute %595, %597 : !torch.vtensor<[1024,32],f32>, !torch.list<int> -> !torch.vtensor<[32,1024],f32>
  %599 = torch.aten.mm %598, %242 : !torch.vtensor<[32,1024],f32>, !torch.vtensor<[1024,32],f32> -> !torch.vtensor<[32,32],f32>
  %int1_710 = torch.constant.int 1
  %int0_711 = torch.constant.int 0
  %600 = torch.prim.ListConstruct %int1_710, %int0_711 : (!torch.int, !torch.int) -> !torch.list<int>
  %int1_712 = torch.constant.int 1
  %int0_713 = torch.constant.int 0
  %601 = torch.prim.ListConstruct %int1_712, %int0_713 : (!torch.int, !torch.int) -> !torch.list<int>
  %602 = torch.aten.permute %599, %601 : !torch.vtensor<[32,32],f32>, !torch.list<int> -> !torch.vtensor<[32,32],f32>
  %603 = torch.aten.add.Tensor %arg205, %602, %arg204 : !torch.vtensor<[32,32],f32>, !torch.vtensor<[32,32],f32>, !torch.int -> !torch.vtensor<[32,32],f32>
  %604 = torch.aten.mul.Tensor %arg206, %arg68 : !torch.vtensor<[32,32],f32>, !torch.vtensor<[],f64> -> !torch.vtensor<[32,32],f32>
  %605 = torch.aten.addcmul %604, %603, %603, %arg203 : !torch.vtensor<[32,32],f32>, !torch.vtensor<[32,32],f32>, !torch.vtensor<[32,32],f32>, !torch.float -> !torch.vtensor<[32,32],f32>
  %606 = torch.aten.sqrt %605 : !torch.vtensor<[32,32],f32> -> !torch.vtensor<[32,32],f32>
  %607 = torch.aten.add.Tensor %606, %arg2, %arg202 : !torch.vtensor<[32,32],f32>, !torch.vtensor<[],f64>, !torch.int -> !torch.vtensor<[32,32],f32>
  %608 = torch.aten.mul.Tensor %arg208, %arg71 : !torch.vtensor<[32,32],f32>, !torch.vtensor<[],f64> -> !torch.vtensor<[32,32],f32>
  %609 = torch.aten.add.Tensor %608, %603, %arg207 : !torch.vtensor<[32,32],f32>, !torch.vtensor<[32,32],f32>, !torch.float -> !torch.vtensor<[32,32],f32>
  %610 = torch.aten.addcdiv %arg46, %609, %607, %arg201 : !torch.vtensor<[32,32],f32>, !torch.vtensor<[32,32],f32>, !torch.vtensor<[32,32],f32>, !torch.float -> !torch.vtensor<[32,32],f32>
  %int0_714 = torch.constant.int 0
  %611 = torch.prim.ListConstruct %int0_714 : (!torch.int) -> !torch.list<int>
  %true_715 = torch.constant.bool true
  %none_716 = torch.constant.none
  %612 = torch.aten.sum.dim_IntList %242, %611, %true_715, %none_716 : !torch.vtensor<[1024,32],f32>, !torch.list<int>, !torch.bool, !torch.none -> !torch.vtensor<[1,32],f32>
  %int32_717 = torch.constant.int 32
  %613 = torch.prim.ListConstruct %int32_717 : (!torch.int) -> !torch.list<int>
  %int32_718 = torch.constant.int 32
  %614 = torch.prim.ListConstruct %int32_718 : (!torch.int) -> !torch.list<int>
  %615 = torch.aten.reshape %612, %614 : !torch.vtensor<[1,32],f32>, !torch.list<int> -> !torch.vtensor<[32],f32>
  %616 = torch.aten.add.Tensor %arg213, %615, %arg212 : !torch.vtensor<[32],f32>, !torch.vtensor<[32],f32>, !torch.int -> !torch.vtensor<[32],f32>
  %617 = torch.aten.mul.Tensor %arg214, %arg68 : !torch.vtensor<[32],f32>, !torch.vtensor<[],f64> -> !torch.vtensor<[32],f32>
  %618 = torch.aten.addcmul %617, %616, %616, %arg211 : !torch.vtensor<[32],f32>, !torch.vtensor<[32],f32>, !torch.vtensor<[32],f32>, !torch.float -> !torch.vtensor<[32],f32>
  %619 = torch.aten.sqrt %618 : !torch.vtensor<[32],f32> -> !torch.vtensor<[32],f32>
  %620 = torch.aten.add.Tensor %619, %arg2, %arg210 : !torch.vtensor<[32],f32>, !torch.vtensor<[],f64>, !torch.int -> !torch.vtensor<[32],f32>
  %621 = torch.aten.mul.Tensor %arg216, %arg71 : !torch.vtensor<[32],f32>, !torch.vtensor<[],f64> -> !torch.vtensor<[32],f32>
  %622 = torch.aten.add.Tensor %621, %616, %arg215 : !torch.vtensor<[32],f32>, !torch.vtensor<[32],f32>, !torch.float -> !torch.vtensor<[32],f32>
  %623 = torch.aten.addcdiv %arg52, %622, %620, %arg209 : !torch.vtensor<[32],f32>, !torch.vtensor<[32],f32>, !torch.vtensor<[32],f32>, !torch.float -> !torch.vtensor<[32],f32>
  %624 = torch.aten.add.Tensor %arg221, %result1_377, %arg220 : !torch.vtensor<[32],f32>, !torch.vtensor<[32],f32>, !torch.int -> !torch.vtensor<[32],f32>
  %625 = torch.aten.mul.Tensor %arg222, %arg68 : !torch.vtensor<[32],f32>, !torch.vtensor<[],f64> -> !torch.vtensor<[32],f32>
  %626 = torch.aten.addcmul %625, %624, %624, %arg219 : !torch.vtensor<[32],f32>, !torch.vtensor<[32],f32>, !torch.vtensor<[32],f32>, !torch.float -> !torch.vtensor<[32],f32>
  %627 = torch.aten.sqrt %626 : !torch.vtensor<[32],f32> -> !torch.vtensor<[32],f32>
  %628 = torch.aten.add.Tensor %627, %arg2, %arg218 : !torch.vtensor<[32],f32>, !torch.vtensor<[],f64>, !torch.int -> !torch.vtensor<[32],f32>
  %629 = torch.aten.mul.Tensor %arg224, %arg71 : !torch.vtensor<[32],f32>, !torch.vtensor<[],f64> -> !torch.vtensor<[32],f32>
  %630 = torch.aten.add.Tensor %629, %624, %arg223 : !torch.vtensor<[32],f32>, !torch.vtensor<[32],f32>, !torch.float -> !torch.vtensor<[32],f32>
  %631 = torch.aten.addcdiv %arg48, %630, %628, %arg217 : !torch.vtensor<[32],f32>, !torch.vtensor<[32],f32>, !torch.vtensor<[32],f32>, !torch.float -> !torch.vtensor<[32],f32>
  %632 = torch.aten.add.Tensor %arg229, %result2_378, %arg228 : !torch.vtensor<[32],f32>, !torch.vtensor<[32],f32>, !torch.int -> !torch.vtensor<[32],f32>
  %633 = torch.aten.mul.Tensor %arg230, %arg68 : !torch.vtensor<[32],f32>, !torch.vtensor<[],f64> -> !torch.vtensor<[32],f32>
  %634 = torch.aten.addcmul %633, %632, %632, %arg227 : !torch.vtensor<[32],f32>, !torch.vtensor<[32],f32>, !torch.vtensor<[32],f32>, !torch.float -> !torch.vtensor<[32],f32>
  %635 = torch.aten.sqrt %634 : !torch.vtensor<[32],f32> -> !torch.vtensor<[32],f32>
  %636 = torch.aten.add.Tensor %635, %arg2, %arg226 : !torch.vtensor<[32],f32>, !torch.vtensor<[],f64>, !torch.int -> !torch.vtensor<[32],f32>
  %637 = torch.aten.mul.Tensor %arg232, %arg71 : !torch.vtensor<[32],f32>, !torch.vtensor<[],f64> -> !torch.vtensor<[32],f32>
  %638 = torch.aten.add.Tensor %637, %632, %arg231 : !torch.vtensor<[32],f32>, !torch.vtensor<[32],f32>, !torch.float -> !torch.vtensor<[32],f32>
  %639 = torch.aten.addcdiv %arg47, %638, %636, %arg225 : !torch.vtensor<[32],f32>, !torch.vtensor<[32],f32>, !torch.vtensor<[32],f32>, !torch.float -> !torch.vtensor<[32],f32>
  %int0_719 = torch.constant.int 0
  %int0_720 = torch.constant.int 0
  %int2_721 = torch.constant.int 2
  %int1_722 = torch.constant.int 1
  %640 = torch.aten.slice.Tensor %result0_287, %int0_719, %int0_720, %int2_721, %int1_722 : !torch.vtensor<[2,512,32],f32>, !torch.int, !torch.int, !torch.int, !torch.int -> !torch.vtensor<[2,512,32],f32>
  %int0_723 = torch.constant.int 0
  %int0_724 = torch.constant.int 0
  %int2_725 = torch.constant.int 2
  %int1_726 = torch.constant.int 1
  %641 = torch.aten.slice.Tensor %640, %int0_723, %int0_724, %int2_725, %int1_726 : !torch.vtensor<[2,512,32],f32>, !torch.int, !torch.int, !torch.int, !torch.int -> !torch.vtensor<[2,512,32],f32>
  %int1_727 = torch.constant.int 1
  %int0_728 = torch.constant.int 0
  %int1_729 = torch.constant.int 1
  %int1_730 = torch.constant.int 1
  %642 = torch.aten.slice.Tensor %641, %int1_727, %int0_728, %int1_729, %int1_730 : !torch.vtensor<[2,512,32],f32>, !torch.int, !torch.int, !torch.int, !torch.int -> !torch.vtensor<[2,1,32],f32>
  %int2_731 = torch.constant.int 2
  %int0_732 = torch.constant.int 0
  %int32_733 = torch.constant.int 32
  %int1_734 = torch.constant.int 1
  %643 = torch.aten.slice.Tensor %642, %int2_731, %int0_732, %int32_733, %int1_734 : !torch.vtensor<[2,1,32],f32>, !torch.int, !torch.int, !torch.int, !torch.int -> !torch.vtensor<[2,1,32],f32>
  %int2_735 = torch.constant.int 2
  %int32_736 = torch.constant.int 32
  %644 = torch.prim.ListConstruct %int2_735, %int32_736 : (!torch.int, !torch.int) -> !torch.list<int>
  %int2_737 = torch.constant.int 2
  %int32_738 = torch.constant.int 32
  %645 = torch.prim.ListConstruct %int2_737, %int32_738 : (!torch.int, !torch.int) -> !torch.list<int>
  %646 = torch.aten.reshape %643, %645 : !torch.vtensor<[2,1,32],f32>, !torch.list<int> -> !torch.vtensor<[2,32],f32>
  %int1_739 = torch.constant.int 1
  %int0_740 = torch.constant.int 0
  %647 = torch.prim.ListConstruct %int1_739, %int0_740 : (!torch.int, !torch.int) -> !torch.list<int>
  %int1_741 = torch.constant.int 1
  %int0_742 = torch.constant.int 0
  %648 = torch.prim.ListConstruct %int1_741, %int0_742 : (!torch.int, !torch.int) -> !torch.list<int>
  %649 = torch.aten.permute %646, %648 : !torch.vtensor<[2,32],f32>, !torch.list<int> -> !torch.vtensor<[32,2],f32>
  %650 = torch.aten.mm %649, %222 : !torch.vtensor<[32,2],f32>, !torch.vtensor<[2,32],f32> -> !torch.vtensor<[32,32],f32>
  %int1_743 = torch.constant.int 1
  %int0_744 = torch.constant.int 0
  %651 = torch.prim.ListConstruct %int1_743, %int0_744 : (!torch.int, !torch.int) -> !torch.list<int>
  %int1_745 = torch.constant.int 1
  %int0_746 = torch.constant.int 0
  %652 = torch.prim.ListConstruct %int1_745, %int0_746 : (!torch.int, !torch.int) -> !torch.list<int>
  %653 = torch.aten.permute %650, %652 : !torch.vtensor<[32,32],f32>, !torch.list<int> -> !torch.vtensor<[32,32],f32>
  %654 = torch.aten.add.Tensor %arg237, %653, %arg236 : !torch.vtensor<[32,32],f32>, !torch.vtensor<[32,32],f32>, !torch.int -> !torch.vtensor<[32,32],f32>
  %655 = torch.aten.mul.Tensor %arg238, %arg68 : !torch.vtensor<[32,32],f32>, !torch.vtensor<[],f64> -> !torch.vtensor<[32,32],f32>
  %656 = torch.aten.addcmul %655, %654, %654, %arg235 : !torch.vtensor<[32,32],f32>, !torch.vtensor<[32,32],f32>, !torch.vtensor<[32,32],f32>, !torch.float -> !torch.vtensor<[32,32],f32>
  %657 = torch.aten.sqrt %656 : !torch.vtensor<[32,32],f32> -> !torch.vtensor<[32,32],f32>
  %658 = torch.aten.add.Tensor %657, %arg2, %arg234 : !torch.vtensor<[32,32],f32>, !torch.vtensor<[],f64>, !torch.int -> !torch.vtensor<[32,32],f32>
  %659 = torch.aten.mul.Tensor %arg240, %arg71 : !torch.vtensor<[32,32],f32>, !torch.vtensor<[],f64> -> !torch.vtensor<[32,32],f32>
  %660 = torch.aten.add.Tensor %659, %654, %arg239 : !torch.vtensor<[32,32],f32>, !torch.vtensor<[32,32],f32>, !torch.float -> !torch.vtensor<[32,32],f32>
  %661 = torch.aten.addcdiv %arg53, %660, %658, %arg233 : !torch.vtensor<[32,32],f32>, !torch.vtensor<[32,32],f32>, !torch.vtensor<[32,32],f32>, !torch.float -> !torch.vtensor<[32,32],f32>
  %int0_747 = torch.constant.int 0
  %662 = torch.prim.ListConstruct %int0_747 : (!torch.int) -> !torch.list<int>
  %true_748 = torch.constant.bool true
  %none_749 = torch.constant.none
  %663 = torch.aten.sum.dim_IntList %222, %662, %true_748, %none_749 : !torch.vtensor<[2,32],f32>, !torch.list<int>, !torch.bool, !torch.none -> !torch.vtensor<[1,32],f32>
  %int32_750 = torch.constant.int 32
  %664 = torch.prim.ListConstruct %int32_750 : (!torch.int) -> !torch.list<int>
  %int32_751 = torch.constant.int 32
  %665 = torch.prim.ListConstruct %int32_751 : (!torch.int) -> !torch.list<int>
  %666 = torch.aten.reshape %663, %665 : !torch.vtensor<[1,32],f32>, !torch.list<int> -> !torch.vtensor<[32],f32>
  %667 = torch.aten.add.Tensor %arg245, %666, %arg244 : !torch.vtensor<[32],f32>, !torch.vtensor<[32],f32>, !torch.int -> !torch.vtensor<[32],f32>
  %668 = torch.aten.mul.Tensor %arg246, %arg68 : !torch.vtensor<[32],f32>, !torch.vtensor<[],f64> -> !torch.vtensor<[32],f32>
  %669 = torch.aten.addcmul %668, %667, %667, %arg243 : !torch.vtensor<[32],f32>, !torch.vtensor<[32],f32>, !torch.vtensor<[32],f32>, !torch.float -> !torch.vtensor<[32],f32>
  %670 = torch.aten.sqrt %669 : !torch.vtensor<[32],f32> -> !torch.vtensor<[32],f32>
  %671 = torch.aten.add.Tensor %670, %arg2, %arg242 : !torch.vtensor<[32],f32>, !torch.vtensor<[],f64>, !torch.int -> !torch.vtensor<[32],f32>
  %672 = torch.aten.mul.Tensor %arg248, %arg71 : !torch.vtensor<[32],f32>, !torch.vtensor<[],f64> -> !torch.vtensor<[32],f32>
  %673 = torch.aten.add.Tensor %672, %667, %arg247 : !torch.vtensor<[32],f32>, !torch.vtensor<[32],f32>, !torch.float -> !torch.vtensor<[32],f32>
  %674 = torch.aten.addcdiv %arg56, %673, %671, %arg241 : !torch.vtensor<[32],f32>, !torch.vtensor<[32],f32>, !torch.vtensor<[32],f32>, !torch.float -> !torch.vtensor<[32],f32>
  %int1_752 = torch.constant.int 1
  %int0_753 = torch.constant.int 0
  %675 = torch.prim.ListConstruct %int1_752, %int0_753 : (!torch.int, !torch.int) -> !torch.list<int>
  %int1_754 = torch.constant.int 1
  %int0_755 = torch.constant.int 0
  %676 = torch.prim.ListConstruct %int1_754, %int0_755 : (!torch.int, !torch.int) -> !torch.list<int>
  %677 = torch.aten.permute %197, %676 : !torch.vtensor<[2,32],f32>, !torch.list<int> -> !torch.vtensor<[32,2],f32>
  %678 = torch.aten.mm %677, %220 : !torch.vtensor<[32,2],f32>, !torch.vtensor<[2,2],f32> -> !torch.vtensor<[32,2],f32>
  %int1_756 = torch.constant.int 1
  %int0_757 = torch.constant.int 0
  %679 = torch.prim.ListConstruct %int1_756, %int0_757 : (!torch.int, !torch.int) -> !torch.list<int>
  %int1_758 = torch.constant.int 1
  %int0_759 = torch.constant.int 0
  %680 = torch.prim.ListConstruct %int1_758, %int0_759 : (!torch.int, !torch.int) -> !torch.list<int>
  %681 = torch.aten.permute %678, %680 : !torch.vtensor<[32,2],f32>, !torch.list<int> -> !torch.vtensor<[2,32],f32>
  %682 = torch.aten.add.Tensor %arg253, %681, %arg252 : !torch.vtensor<[2,32],f32>, !torch.vtensor<[2,32],f32>, !torch.int -> !torch.vtensor<[2,32],f32>
  %683 = torch.aten.mul.Tensor %arg254, %arg68 : !torch.vtensor<[2,32],f32>, !torch.vtensor<[],f64> -> !torch.vtensor<[2,32],f32>
  %684 = torch.aten.addcmul %683, %682, %682, %arg251 : !torch.vtensor<[2,32],f32>, !torch.vtensor<[2,32],f32>, !torch.vtensor<[2,32],f32>, !torch.float -> !torch.vtensor<[2,32],f32>
  %685 = torch.aten.sqrt %684 : !torch.vtensor<[2,32],f32> -> !torch.vtensor<[2,32],f32>
  %686 = torch.aten.add.Tensor %685, %arg2, %arg250 : !torch.vtensor<[2,32],f32>, !torch.vtensor<[],f64>, !torch.int -> !torch.vtensor<[2,32],f32>
  %687 = torch.aten.mul.Tensor %arg256, %arg71 : !torch.vtensor<[2,32],f32>, !torch.vtensor<[],f64> -> !torch.vtensor<[2,32],f32>
  %688 = torch.aten.add.Tensor %687, %682, %arg255 : !torch.vtensor<[2,32],f32>, !torch.vtensor<[2,32],f32>, !torch.float -> !torch.vtensor<[2,32],f32>
  %689 = torch.aten.addcdiv %arg57, %688, %686, %arg249 : !torch.vtensor<[2,32],f32>, !torch.vtensor<[2,32],f32>, !torch.vtensor<[2,32],f32>, !torch.float -> !torch.vtensor<[2,32],f32>
  %int0_760 = torch.constant.int 0
  %690 = torch.prim.ListConstruct %int0_760 : (!torch.int) -> !torch.list<int>
  %true_761 = torch.constant.bool true
  %none_762 = torch.constant.none
  %691 = torch.aten.sum.dim_IntList %220, %690, %true_761, %none_762 : !torch.vtensor<[2,2],f32>, !torch.list<int>, !torch.bool, !torch.none -> !torch.vtensor<[1,2],f32>
  %int2_763 = torch.constant.int 2
  %692 = torch.prim.ListConstruct %int2_763 : (!torch.int) -> !torch.list<int>
  %int2_764 = torch.constant.int 2
  %693 = torch.prim.ListConstruct %int2_764 : (!torch.int) -> !torch.list<int>
  %694 = torch.aten.reshape %691, %693 : !torch.vtensor<[1,2],f32>, !torch.list<int> -> !torch.vtensor<[2],f32>
  %695 = torch.aten.add.Tensor %arg261, %694, %arg260 : !torch.vtensor<[2],f32>, !torch.vtensor<[2],f32>, !torch.int -> !torch.vtensor<[2],f32>
  %696 = torch.aten.mul.Tensor %arg262, %arg68 : !torch.vtensor<[2],f32>, !torch.vtensor<[],f64> -> !torch.vtensor<[2],f32>
  %697 = torch.aten.addcmul %696, %695, %695, %arg259 : !torch.vtensor<[2],f32>, !torch.vtensor<[2],f32>, !torch.vtensor<[2],f32>, !torch.float -> !torch.vtensor<[2],f32>
  %698 = torch.aten.sqrt %697 : !torch.vtensor<[2],f32> -> !torch.vtensor<[2],f32>
  %699 = torch.aten.add.Tensor %698, %arg2, %arg258 : !torch.vtensor<[2],f32>, !torch.vtensor<[],f64>, !torch.int -> !torch.vtensor<[2],f32>
  %700 = torch.aten.mul.Tensor %arg264, %arg71 : !torch.vtensor<[2],f32>, !torch.vtensor<[],f64> -> !torch.vtensor<[2],f32>
  %701 = torch.aten.add.Tensor %700, %695, %arg263 : !torch.vtensor<[2],f32>, !torch.vtensor<[2],f32>, !torch.float -> !torch.vtensor<[2],f32>
  %702 = torch.aten.addcdiv %arg60, %701, %699, %arg257 : !torch.vtensor<[2],f32>, !torch.vtensor<[2],f32>, !torch.vtensor<[2],f32>, !torch.float -> !torch.vtensor<[2],f32>
  %703 = torch.aten.zero.functional %695 : !torch.vtensor<[2],f32> -> !torch.vtensor<[2],f32>
  %704 = torch.aten.zero.functional %682 : !torch.vtensor<[2,32],f32> -> !torch.vtensor<[2,32],f32>
  %705 = torch.aten.zero.functional %667 : !torch.vtensor<[32],f32> -> !torch.vtensor<[32],f32>
  %706 = torch.aten.zero.functional %654 : !torch.vtensor<[32,32],f32> -> !torch.vtensor<[32,32],f32>
  %707 = torch.aten.zero.functional %624 : !torch.vtensor<[32],f32> -> !torch.vtensor<[32],f32>
  %708 = torch.aten.zero.functional %632 : !torch.vtensor<[32],f32> -> !torch.vtensor<[32],f32>
  %709 = torch.aten.zero.functional %616 : !torch.vtensor<[32],f32> -> !torch.vtensor<[32],f32>
  %710 = torch.aten.zero.functional %603 : !torch.vtensor<[32,32],f32> -> !torch.vtensor<[32,32],f32>
  %711 = torch.aten.zero.functional %585 : !torch.vtensor<[32],f32> -> !torch.vtensor<[32],f32>
  %712 = torch.aten.zero.functional %572 : !torch.vtensor<[32,32],f32> -> !torch.vtensor<[32,32],f32>
  %713 = torch.aten.zero.functional %546 : !torch.vtensor<[32],f32> -> !torch.vtensor<[32],f32>
  %714 = torch.aten.zero.functional %554 : !torch.vtensor<[32],f32> -> !torch.vtensor<[32],f32>
  %715 = torch.aten.zero.functional %538 : !torch.vtensor<[32],f32> -> !torch.vtensor<[32],f32>
  %716 = torch.aten.zero.functional %525 : !torch.vtensor<[32,32],f32> -> !torch.vtensor<[32,32],f32>
  %717 = torch.aten.zero.functional %498 : !torch.vtensor<[32],f32> -> !torch.vtensor<[32],f32>
  %718 = torch.aten.zero.functional %485 : !torch.vtensor<[32,32],f32> -> !torch.vtensor<[32,32],f32>
  %719 = torch.aten.zero.functional %467 : !torch.vtensor<[32],f32> -> !torch.vtensor<[32],f32>
  %720 = torch.aten.zero.functional %454 : !torch.vtensor<[32,32],f32> -> !torch.vtensor<[32,32],f32>
  %721 = torch.aten.zero.functional %436 : !torch.vtensor<[32],f32> -> !torch.vtensor<[32],f32>
  %722 = torch.aten.zero.functional %423 : !torch.vtensor<[32,32],f32> -> !torch.vtensor<[32,32],f32>
  %723 = torch.aten.zero.functional %397 : !torch.vtensor<[32],f32> -> !torch.vtensor<[32],f32>
  %724 = torch.aten.zero.functional %405 : !torch.vtensor<[32],f32> -> !torch.vtensor<[32],f32>
  %725 = torch.aten.zero.functional %380 : !torch.vtensor<[512,32],f32> -> !torch.vtensor<[512,32],f32>
  %726 = torch.aten.zero.functional %389 : !torch.vtensor<[2,32],f32> -> !torch.vtensor<[2,32],f32>
  %727 = torch.aten.zero.functional %369 : !torch.vtensor<[28996,32],f32> -> !torch.vtensor<[28996,32],f32>
  return %376, %387, %396, %404, %412, %430, %443, %461, %474, %492, %505, %532, %545, %553, %561, %579, %592, %610, %623, %631, %639, %661, %674, %689, %702, %703, %704, %705, %706, %707, %708, %709, %710, %711, %712, %713, %714, %715, %716, %717, %718, %719, %720, %721, %722, %723, %724, %725, %726, %727, %375, %371, %386, %382, %395, %391, %403, %399, %411, %407, %429, %425, %442, %438, %460, %456, %473, %469, %491, %487, %504, %500, %531, %527, %544, %540, %552, %548, %560, %556, %578, %574, %591, %587, %609, %605, %622, %618, %630, %626, %638, %634, %660, %656, %673, %669, %688, %684, %701, %697, %arg61, %arg5, %arg12, %arg25, %207, %output : !torch.vtensor<[28996,32],f32>, !torch.vtensor<[512,32],f32>, !torch.vtensor<[2,32],f32>, !torch.vtensor<[32],f32>, !torch.vtensor<[32],f32>, !torch.vtensor<[32,32],f32>, !torch.vtensor<[32],f32>, !torch.vtensor<[32,32],f32>, !torch.vtensor<[32],f32>, !torch.vtensor<[32,32],f32>, !torch.vtensor<[32],f32>, !torch.vtensor<[32,32],f32>, !torch.vtensor<[32],f32>, !torch.vtensor<[32],f32>, !torch.vtensor<[32],f32>, !torch.vtensor<[32,32],f32>, !torch.vtensor<[32],f32>, !torch.vtensor<[32,32],f32>, !torch.vtensor<[32],f32>, !torch.vtensor<[32],f32>, !torch.vtensor<[32],f32>, !torch.vtensor<[32,32],f32>, !torch.vtensor<[32],f32>, !torch.vtensor<[2,32],f32>, !torch.vtensor<[2],f32>, !torch.vtensor<[2],f32>, !torch.vtensor<[2,32],f32>, !torch.vtensor<[32],f32>, !torch.vtensor<[32,32],f32>, !torch.vtensor<[32],f32>, !torch.vtensor<[32],f32>, !torch.vtensor<[32],f32>, !torch.vtensor<[32,32],f32>, !torch.vtensor<[32],f32>, !torch.vtensor<[32,32],f32>, !torch.vtensor<[32],f32>, !torch.vtensor<[32],f32>, !torch.vtensor<[32],f32>, !torch.vtensor<[32,32],f32>, !torch.vtensor<[32],f32>, !torch.vtensor<[32,32],f32>, !torch.vtensor<[32],f32>, !torch.vtensor<[32,32],f32>, !torch.vtensor<[32],f32>, !torch.vtensor<[32,32],f32>, !torch.vtensor<[32],f32>, !torch.vtensor<[32],f32>, !torch.vtensor<[512,32],f32>, !torch.vtensor<[2,32],f32>, !torch.vtensor<[28996,32],f32>, !torch.vtensor<[28996,32],f32>, !torch.vtensor<[28996,32],f32>, !torch.vtensor<[512,32],f32>, !torch.vtensor<[512,32],f32>, !torch.vtensor<[2,32],f32>, !torch.vtensor<[2,32],f32>, !torch.vtensor<[32],f32>, !torch.vtensor<[32],f32>, !torch.vtensor<[32],f32>, !torch.vtensor<[32],f32>, !torch.vtensor<[32,32],f32>, !torch.vtensor<[32,32],f32>, !torch.vtensor<[32],f32>, !torch.vtensor<[32],f32>, !torch.vtensor<[32,32],f32>, !torch.vtensor<[32,32],f32>, !torch.vtensor<[32],f32>, !torch.vtensor<[32],f32>, !torch.vtensor<[32,32],f32>, !torch.vtensor<[32,32],f32>, !torch.vtensor<[32],f32>, !torch.vtensor<[32],f32>, !torch.vtensor<[32,32],f32>, !torch.vtensor<[32,32],f32>, !torch.vtensor<[32],f32>, !torch.vtensor<[32],f32>, !torch.vtensor<[32],f32>, !torch.vtensor<[32],f32>, !torch.vtensor<[32],f32>, !torch.vtensor<[32],f32>, !torch.vtensor<[32,32],f32>, !torch.vtensor<[32,32],f32>, !torch.vtensor<[32],f32>, !torch.vtensor<[32],f32>, !torch.vtensor<[32,32],f32>, !torch.vtensor<[32,32],f32>, !torch.vtensor<[32],f32>, !torch.vtensor<[32],f32>, !torch.vtensor<[32],f32>, !torch.vtensor<[32],f32>, !torch.vtensor<[32],f32>, !torch.vtensor<[32],f32>, !torch.vtensor<[32,32],f32>, !torch.vtensor<[32,32],f32>, !torch.vtensor<[32],f32>, !torch.vtensor<[32],f32>, !torch.vtensor<[2,32],f32>, !torch.vtensor<[2,32],f32>, !torch.vtensor<[2],f32>, !torch.vtensor<[2],f32>, !torch.vtensor<[2],si64>, !torch.vtensor<[2,512],si64>, !torch.vtensor<[2,512],si64>, !torch.vtensor<[2,512],si64>, !torch.vtensor<[2,2],f32>, !torch.vtensor<[],f32>
}
